…
3. The fwd latency listed in the top module's profile is directly captured at the module forward function in PyTorch, thus it's less than the fwd latency shown above which is captured in DeepSpeed.

WhisperForConditionalGeneration(
  1543.3 M, 100.00% Params, 5345.05 GMACs, 100.00% MACs, 263.37 ms, 100.00% latency, 40.62 TFLOPS, 
  (model): WhisperModel(
    1543.3 M, 100.00% Params, 5332.84 GMACs, 99.77% MACs, 262.57 ms, 99.70% latency, 40.65 TFLOPS, 
    (encoder): WhisperEncoder(
      636.78 M, 41.26% Params, 4545.33 GMACs, 85.04% MACs, 174.51 ms, 66.26% latency, 52.14 TFLOPS, 
      (conv1): Conv1d(308.48 k, 0.02% Params, 3.69 GMACs, 0.07% MACs, 296.35 us, 0.11% latency, 24.93 TFLOPS, 80, 1280, kernel_size=(3,), stride=(1,), padding=(1,))
      (conv2): Conv1d(4.92 M, 0.32% Params, 29.49 GMACs, 0.55% MACs, 560.52 us, 0.21% latency, 105.24 TFLOPS, 1280, 1280, kernel_size=(3,), stride=(2,), padding=(1,))
      (embed_positions): Embedding(1.92 M, 0.12% Params, 0 MACs, 0.00% MACs, 0, 0.00% latency, 0.0 FLOPS, 1500, 1280)
      (layers): ModuleList(
        (0): WhisperEncoderLayer(
          19.68 M, 1.27% Params, 141.0 GMACs, 2.64% MACs, 5.16 ms, 1.96% latency, 54.67 TFLOPS, 
          (self_attn): WhisperAttention(
            6.56 M, 0.42% Params, 62.36 GMACs, 1.17% MACs, 2.96 ms, 1.12% latency, 42.17 TFLOPS, 
            (k_proj): Linear(1.64 M, 0.11% Params, 9.83 GMACs, 0.18% MACs, 221.25 us, 0.08% latency, 88.86 TFLOPS, in_features=1280, out_features=1280, bias=False)
            (v_proj): Linear(1.64 M, 0.11% Params, 9.83 GMACs, 0.18% MACs, 182.39 us, 0.07% latency, 107.8 TFLOPS, in_features=1280, out_features=1280, bias=True)
            (q_proj): Linear(1.64 M, 0.11% Params, 9.83 GMACs, 0.18% MACs, 229.12 us, 0.09% latency, 85.81 TFLOPS, in_features=1280, out_features=1280, bias=True)
            (out_proj): Linear(1.64 M, 0.11% Params, 9.83 GMACs, 0.18% MACs, 193.36 us, 0.07% latency, 101.68 TFLOPS, in_features=1280, out_features=1280, bias=True)
          )
          (self_attn_layer_norm): LayerNorm(2.56 k, 0.00% Params, 0 MACs, 0.00% MACs, 176.67 us, 0.07% latency, 217.36 GFLOPS, (1280,), eps=1e-05, elementwise_affine=True)
          (activation_fn): GELUActivation(0, 0.00% Params, 0 MACs, 0.00% MACs, 147.58 us, 0.06% latency, 0.0 FLOPS, )
          (fc1): Linear(6.56 M, 0.42% Params, 39.32 GMACs, 0.74% MACs, 593.19 us, 0.23% latency, 132.58 TFLOPS, in_features=1280, out_features=5120, bias=True)
          (fc2): Linear(6.55 M, 0.42% Params, 39.32 GMACs, 0.74% MACs, 581.03 us, 0.22% latency, 135.35 TFLOPS, in_features=5120, out_features=1280, bias=True)
          (final_layer_norm): LayerNorm(2.56 k, 0.00% Params, 0 MACs, 0.00% MACs, 165.46 us, 0.06% latency, 232.08 GFLOPS, (1280,), eps=1e-05, elementwise_affine=True)
        )
        (1): WhisperEncoderLayer(
          19.68 M, 1.27% Params, 141.0 GMACs, 2.64% MACs, 5.09 ms, 1.93% latency, 55.45 TFLOPS, 
          (self_attn): WhisperAttention(
            6.56 M, 0.42% Params, 62.36 GMACs, 1.17% MACs, 2.88 ms, 1.09% latency, 43.41 TFLOPS, 
            (k_proj): Linear(1.64 M, 0.11% Params, 9.83 GMACs, 0.18% MACs, 207.66 us, 0.08% latency, 94.68 TFLOPS, in_features=1280, out_features=1280, bias=False)
            (v_proj): Linear(1.64 M, 0.11% Params, 9.83 GMACs, 0.18% MACs, 182.39 us, 0.07% latency, 107.8 TFLOPS, in_features=1280, out_features=1280, bias=True)
            (q_proj): Linear(1.64 M, 0.11% Params, 9.83 GMACs, 0.18% MACs, 211.95 us, 0.08% latency, 92.76 TFLOPS, in_features=1280, out_features=1280, bias=True)
            (out_proj): Linear(1.64 M, 0.11% Params, 9.83 GMACs, 0.18% MACs, 190.97 us, 0.07% latency, 102.95 TFLOPS, in_features=1280, out_features=1280, bias=True)
          )
          (self_attn_layer_norm): LayerNorm(2.56 k, 0.00% Params, 0 MACs, 0.00% MACs, 185.49 us, 0.07% latency, 207.02 GFLOPS, (1280,), eps=1e-05, elementwise_affine=True)
          (activation_fn): GELUActivation(0, 0.00% Params, 0 MACs, 0.00% MACs, 143.05 us, 0.05% latency, 0.0 FLOPS, )
          (fc1): Linear(6.56 M, 0.42% Params, 39.32 GMACs, 0.74% MACs, 591.99 us, 0.22% latency, 132.84 TFLOPS, in_features=1280, out_features=5120, bias=True)
          (fc2): Linear(6.55 M, 0.42% Params, 39.32 GMACs, 0.74% MACs, 571.01 us, 0.22% latency, 137.73 TFLOPS, in_features=5120, out_features=1280, bias=True)
          (final_layer_norm): LayerNorm(2.56 k, 0.00% Params, 0 MACs, 0.00% MACs, 167.37 us, 0.06% latency, 229.43 GFLOPS, (1280,), eps=1e-05, elementwise_affine=True)
        )
        (2): WhisperEncoderLayer(
          19.68 M, 1.27% Params, 141.0 GMACs, 2.64% MACs, 5.16 ms, 1.96% latency, 54.7 TFLOPS, 
          (self_attn): WhisperAttention(
            6.56 M, 0.42% Params, 62.36 GMACs, 1.17% MACs, 2.89 ms, 1.10% latency, 43.27 TFLOPS, 
            (k_proj): Linear(1.64 M, 0.11% Params, 9.83 GMACs, 0.18% MACs, 203.37 us, 0.08% latency, 96.67 TFLOPS, in_features=1280, out_features=1280, bias=False)
            (v_proj): Linear(1.64 M, 0.11% Params, 9.83 GMACs, 0.18% MACs, 180.72 us, 0.07% latency, 108.79 TFLOPS, in_features=1280, out_features=1280, bias=True)
            (q_proj): Linear(1.64 M, 0.11% Params, 9.83 GMACs, 0.18% MACs, 204.32 us, 0.08% latency, 96.22 TFLOPS, in_features=1280, out_features=1280, bias=True)
            (out_proj): Linear(1.64 M, 0.11% Params, 9.83 GMACs, 0.18% MACs, 192.64 us, 0.07% latency, 102.06 TFLOPS, in_features=1280, out_features=1280, bias=True)
          )
          (self_attn_layer_norm): LayerNorm(2.56 k, 0.00% Params, 0 MACs, 0.00% MACs, 168.8 us, 0.06% latency, 227.49 GFLOPS, (1280,), eps=1e-05, elementwise_affine=True)
          (activation_fn): GELUActivation(0, 0.00% Params, 0 MACs, 0.00% MACs, 157.83 us, 0.06% latency, 0.0 FLOPS, )
          (fc1): Linear(6.56 M, 0.42% Params, 39.32 GMACs, 0.74% MACs, 596.76 us, 0.23% latency, 131.78 TFLOPS, in_features=1280, out_features=5120, bias=True)
          (fc2): Linear(6.55 M, 0.42% Params, 39.32 GMACs, 0.74% MACs, 669.0 us, 0.25% latency, 117.55 TFLOPS, in_features=5120, out_features=1280, bias=True)
          (final_layer_norm): LayerNorm(2.56 k, 0.00% Params, 0 MACs, 0.00% MACs, 162.84 us, 0.06% latency, 235.81 GFLOPS, (1280,), eps=1e-05, elementwise_affine=True)
        )
        (3): WhisperEncoderLayer(
          19.68 M, 1.27% Params, 141.0 GMACs, 2.64% MACs, 5.11 ms, 1.94% latency, 55.29 TFLOPS, 
          (self_attn): WhisperAttention(
            6.56 M, 0.42% Params, 62.36 GMACs, 1.17% MACs, 2.86 ms, 1.09% latency, 43.7 TFLOPS, 
            (k_proj): Linear(1.64 M, 0.11% Params, 9.83 GMACs, 0.18% MACs, 211.24 us, 0.08% latency, 93.07 TFLOPS, in_features=1280, out_features=1280, bias=False)
            (v_proj): Linear(1.64 M, 0.11% Params, 9.83 GMACs, 0.18% MACs, 181.91 us, 0.07% latency, 108.08 TFLOPS, in_features=1280, out_features=1280, bias=True)
            (q_proj): Linear(1.64 M, 0.11% Params, 9.83 GMACs, 0.18% MACs, 203.85 us, 0.08% latency, 96.45 TFLOPS, in_features=1280, out_features=1280, bias=True)
            (out_proj): Linear(1.64 M, 0.11% Params, 9.83 GMACs, 0.18% MACs, 195.26 us, 0.07% latency, 100.69 TFLOPS, in_features=1280, out_features=1280, bias=True)
          )
          (self_attn_layer_norm): LayerNorm(2.56 k, 0.00% Params, 0 MACs, 0.00% MACs, 165.94 us, 0.06% latency, 231.41 GFLOPS, (1280,), eps=1e-05, elementwise_affine=True)
          (activation_fn): GELUActivation(0, 0.00% Params, 0 MACs, 0.00% MACs, 149.25 us, 0.06% latency, 0.0 FLOPS, )
          (fc1): Linear(6.56 M, 0.42% Params, 39.32 GMACs, 0.74% MACs, 596.76 us, 0.23% latency, 131.78 TFLOPS, in_features=1280, out_features=5120, bias=True)
          (fc2): Linear(6.55 M, 0.42% Params, 39.32 GMACs, 0.74% MACs, 579.36 us, 0.22% latency, 135.74 TFLOPS, in_features=5120, out_features=1280, bias=True)
          (final_layer_norm): LayerNorm(2.56 k, 0.00% Params, 0 MACs, 0.00% MACs, 210.05 us, 0.08% latency, 182.82 GFLOPS, (1280,), eps=1e-05, elementwise_affine=True)
        )
        (4): WhisperEncoderLayer(
          19.68 M, 1.27% Params, 141.0 GMACs, 2.64% MACs, 5.12 ms, 1.94% latency, 55.18 TFLOPS, 
          (self_attn): WhisperAttention(
            6.56 M, 0.42% Params, 62.36 GMACs, 1.17% MACs, 2.91 ms, 1.10% latency, 42.92 TFLOPS, 
            (k_proj): Linear(1.64 M, 0.11% Params, 9.83 GMACs, 0.18% MACs, 211.0 us, 0.08% latency, 93.18 TFLOPS, in_features=1280, out_features=1280, bias=False)
            (v_proj): Linear(1.64 M, 0.11% Params, 9.83 GMACs, 0.18% MACs, 180.96 us, 0.07% latency, 108.65 TFLOPS, in_features=1280, out_features=1280, bias=True)
            (q_proj): Linear(1.64 M, 0.11% Params, 9.83 GMACs, 0.18% MACs, 208.38 us, 0.08% latency, 94.35 TFLOPS, in_features=1280, out_features=1280, bias=True)
            (out_proj): Linear(1.64 M, 0.11% Params, 9.83 GMACs, 0.18% MACs, 189.54 us, 0.07% latency, 103.73 TFLOPS, in_features=1280, out_features=1280, bias=True)
          )
          (self_attn_layer_norm): LayerNorm(2.56 k, 0.00% Params, 0 MACs, 0.00% MACs, 177.38 us, 0.07% latency, 216.48 GFLOPS, (1280,), eps=1e-05, elementwise_affine=True)
          (activation_fn): GELUActivation(0, 0.00% Params, 0 MACs, 0.00% MACs, 150.92 us, 0.06% latency, 0.0 FLOPS, )
          (fc1): Linear(6.56 M, 0.42% Params, 39.32 GMACs, 0.74% MACs, 595.57 us, 0.23% latency, 132.05 TFLOPS, in_features=1280, out_features=5120, bias=True)
          (fc2): Linear(6.55 M, 0.42% Params, 39.32 GMACs, 0.74% MACs, 581.5 us, 0.22% latency, 135.24 TFLOPS, in_features=5120, out_features=1280, bias=True)
          (final_layer_norm): LayerNorm(2.56 k, 0.00% Params, 0 MACs, 0.00% MACs, 167.37 us, 0.06% latency, 229.43 GFLOPS, (1280,), eps=1e-05, elementwise_affine=True)
        )
        (5): WhisperEncoderLayer(
          19.68 M, 1.27% Params, 141.0 GMACs, 2.64% MACs, 5.11 ms, 1.94% latency, 55.22 TFLOPS, 
          (self_attn): WhisperAttention(
            6.56 M, 0.42% Params, 62.36 GMACs, 1.17% MACs, 2.88 ms, 1.09% latency, 43.37 TFLOPS, 
            (k_proj): Linear(1.64 M, 0.11% Params, 9.83 GMACs, 0.18% MACs, 205.99 us, 0.08% latency, 95.44 TFLOPS, in_features=1280, out_features=1280, bias=False)
            (v_proj): Linear(1.64 M, 0.11% Params, 9.83 GMACs, 0.18% MACs, 182.15 us, 0.07% latency, 107.94 TFLOPS, in_features=1280, out_features=1280, bias=True)
            (q_proj): Linear(1.64 M, 0.11% Params, 9.83 GMACs, 0.18% MACs, 207.42 us, 0.08% latency, 94.79 TFLOPS, in_features=1280, out_features=1280, bias=True)
            (out_proj): Linear(1.64 M, 0.11% Params, 9.83 GMACs, 0.18% MACs, 192.64 us, 0.07% latency, 102.06 TFLOPS, in_features=1280, out_features=1280, bias=True)
          )
          (self_attn_layer_norm): LayerNorm(2.56 k, 0.00% Params, 0 MACs, 0.00% MACs, 166.65 us, 0.06% latency, 230.42 GFLOPS, (1280,), eps=1e-05, elementwise_affine=True)
          (activation_fn): GELUActivation(0, 0.00% Params, 0 MACs, 0.00% MACs, 146.39 us, 0.06% latency, 0.0 FLOPS, )
          (fc1): Linear(6.56 M, 0.42% Params, 39.32 GMACs, 0.74% MACs, 596.28 us, 0.23% latency, 131.89 TFLOPS, in_features=1280, out_features=5120, bias=True)
          (fc2): Linear(6.55 M, 0.42% Params, 39.32 GMACs, 0.74% MACs, 590.56 us, 0.22% latency, 133.17 TFLOPS, in_features=5120, out_features=1280, bias=True)
          (final_layer_norm): LayerNorm(2.56 k, 0.00% Params, 0 MACs, 0.00% MACs, 163.79 us, 0.06% latency, 234.44 GFLOPS, (1280,), eps=1e-05, elementwise_affine=True)
        )
        (6): WhisperEncoderLayer(
          19.68 M, 1.27% Params, 141.0 GMACs, 2.64% MACs, 5.14 ms, 1.95% latency, 54.95 TFLOPS, 
          (self_attn): WhisperAttention(
            6.56 M, 0.42% Params, 62.36 GMACs, 1.17% MACs, 2.89 ms, 1.10% latency, 43.23 TFLOPS, 
            (k_proj): Linear(1.64 M, 0.11% Params, 9.83 GMACs, 0.18% MACs, 197.65 us, 0.08% latency, 99.47 TFLOPS, in_features=1280, out_features=1280, bias=False)
            (v_proj): Linear(1.64 M, 0.11% Params, 9.83 GMACs, 0.18% MACs, 184.3 us, 0.07% latency, 106.68 TFLOPS, in_features=1280, out_features=1280, bias=True)
            (q_proj): Linear(1.64 M, 0.11% Params, 9.83 GMACs, 0.18% MACs, 224.59 us, 0.09% latency, 87.54 TFLOPS, in_features=1280, out_features=1280, bias=True)
            (out_proj): Linear(1.64 M, 0.11% Params, 9.83 GMACs, 0.18% MACs, 200.03 us, 0.08% latency, 98.29 TFLOPS, in_features=1280, out_features=1280, bias=True)
          )
          (self_attn_layer_norm): LayerNorm(2.56 k, 0.00% Params, 0 MACs, 0.00% MACs, 164.99 us, 0.06% latency, 232.75 GFLOPS, (1280,), eps=1e-05, elementwise_affine=True)
          (activation_fn): GELUActivation(0, 0.00% Params, 0 MACs, 0.00% MACs, 169.04 us, 0.06% latency, 0.0 FLOPS, )
          (fc1): Linear(6.56 M, 0.42% Params, 39.32 GMACs, 0.74% MACs, 599.38 us, 0.23% latency, 131.21 TFLOPS, in_features=1280, out_features=5120, bias=True)
          (fc2): Linear(6.55 M, 0.42% Params, 39.32 GMACs, 0.74% MACs, 577.45 us, 0.22% latency, 136.19 TFLOPS, in_features=5120, out_features=1280, bias=True)
          (final_layer_norm): LayerNorm(2.56 k, 0.00% Params, 0 MACs, 0.00% MACs, 164.03 us, 0.06% latency, 234.1 GFLOPS, (1280,), eps=1e-05, elementwise_affine=True)
        )
        (7): WhisperEncoderLayer(
          19.68 M, 1.27% Params, 141.0 GMACs, 2.64% MACs, 5.14 ms, 1.95% latency, 54.89 TFLOPS, 
          (self_attn): WhisperAttention(
            6.56 M, 0.42% Params, 62.36 GMACs, 1.17% MACs, 2.9 ms, 1.10% latency, 43.08 TFLOPS, 
            (k_proj): Linear(1.64 M, 0.11% Params, 9.83 GMACs, 0.18% MACs, 217.68 us, 0.08% latency, 90.32 TFLOPS, in_features=1280, out_features=1280, bias=False)
            (v_proj): Linear(1.64 M, 0.11% Params, 9.83 GMACs, 0.18% MACs, 190.5 us, 0.07% latency, 103.21 TFLOPS, in_features=1280, out_features=1280, bias=True)
            (q_proj): Linear(1.64 M, 0.11% Params, 9.83 GMACs, 0.18% MACs, 211.24 us, 0.08% latency, 93.07 TFLOPS, in_features=1280, out_features=1280, bias=True)
            (out_proj): Linear(1.64 M, 0.11% Params, 9.83 GMACs, 0.18% MACs, 192.4 us, 0.07% latency, 102.19 TFLOPS, in_features=1280, out_features=1280, bias=True)
          )
          (self_attn_layer_norm): LayerNorm(2.56 k, 0.00% Params, 0 MACs, 0.00% MACs, 231.03 us, 0.09% latency, 166.21 GFLOPS, (1280,), eps=1e-05, elementwise_affine=True)
          (activation_fn): GELUActivation(0, 0.00% Params, 0 MACs, 0.00% MACs, 143.53 us, 0.05% latency, 0.0 FLOPS, )
          (fc1): Linear(6.56 M, 0.42% Params, 39.32 GMACs, 0.74% MACs, 597.48 us, 0.23% latency, 131.63 TFLOPS, in_features=1280, out_features=5120, bias=True)
          (fc2): Linear(6.55 M, 0.42% Params, 39.32 GMACs, 0.74% MACs, 577.69 us, 0.22% latency, 136.13 TFLOPS, in_features=5120, out_features=1280, bias=True)
          (final_layer_norm): LayerNorm(2.56 k, 0.00% Params, 0 MACs, 0.00% MACs, 169.99 us, 0.06% latency, 225.89 GFLOPS, (1280,), eps=1e-05, elementwise_affine=True)
        )
        (8): WhisperEncoderLayer(
          19.68 M, 1.27% Params, 141.0 GMACs, 2.64% MACs, 5.06 ms, 1.92% latency, 55.83 TFLOPS, 
          (self_attn): WhisperAttention(
            6.56 M, 0.42% Params, 62.36 GMACs, 1.17% MACs, 2.89 ms, 1.10% latency, 43.2 TFLOPS, 
            (k_proj): Linear(1.64 M, 0.11% Params, 9.83 GMACs, 0.18% MACs, 208.38 us, 0.08% latency, 94.35 TFLOPS, in_features=1280, out_features=1280, bias=False)
            (v_proj): Linear(1.64 M, 0.11% Params, 9.83 GMACs, 0.18% MACs, 181.67 us, 0.07% latency, 108.22 TFLOPS, in_features=1280, out_features=1280, bias=True)
            (q_proj): Linear(1.64 M, 0.11% Params, 9.83 GMACs, 0.18% MACs, 203.61 us, 0.08% latency, 96.56 TFLOPS, in_features=1280, out_features=1280, bias=True)
            (out_proj): Linear(1.64 M, 0.11% Params, 9.83 GMACs, 0.18% MACs, 188.59 us, 0.07% latency, 104.25 TFLOPS, in_features=1280, out_features=1280, bias=True)
          )
          (self_attn_layer_norm): LayerNorm(2.56 k, 0.00% Params, 0 MACs, 0.00% MACs, 164.03 us, 0.06% latency, 234.1 GFLOPS, (1280,), eps=1e-05, elementwise_affine=True)
          (activation_fn): GELUActivation(0, 0.00% Params, 0 MACs, 0.00% MACs, 145.91 us, 0.06% latency, 0.0 FLOPS, )
          (fc1): Linear(6.56 M, 0.42% Params, 39.32 GMACs, 0.74% MACs, 597.24 us, 0.23% latency, 131.68 TFLOPS, in_features=1280, out_features=5120, bias=True)
          (fc2): Linear(6.55 M, 0.42% Params, 39.32 GMACs, 0.74% MACs, 574.59 us, 0.22% latency, 136.87 TFLOPS, in_features=5120, out_features=1280, bias=True)
          (final_layer_norm): LayerNorm(2.56 k, 0.00% Params, 0 MACs, 0.00% MACs, 163.79 us, 0.06% latency, 234.44 GFLOPS, (1280,), eps=1e-05, elementwise_affine=True)
        )
        (9): WhisperEncoderLayer(
          19.68 M, 1.27% Params, 141.0 GMACs, 2.64% MACs, 5.06 ms, 1.92% latency, 55.81 TFLOPS, 
          (self_attn): WhisperAttention(
            6.56 M, 0.42% Params, 62.36 GMACs, 1.17% MACs, 2.9 ms, 1.10% latency, 43.03 TFLOPS, 
            (k_proj): Linear(1.64 M, 0.11% Params, 9.83 GMACs, 0.18% MACs, 204.56 us, 0.08% latency, 96.11 TFLOPS, in_features=1280, out_features=1280, bias=False)
            (v_proj): Linear(1.64 M, 0.11% Params, 9.83 GMACs, 0.18% MACs, 198.13 us, 0.08% latency, 99.23 TFLOPS, in_features=1280, out_features=1280, bias=True)
            (q_proj): Linear(1.64 M, 0.11% Params, 9.83 GMACs, 0.18% MACs, 208.38 us, 0.08% latency, 94.35 TFLOPS, in_features=1280, out_features=1280, bias=True)
            (out_proj): Linear(1.64 M, 0.11% Params, 9.83 GMACs, 0.18% MACs, 191.93 us, 0.07% latency, 102.44 TFLOPS, in_features=1280, out_features=1280, bias=True)
          )
          (self_attn_layer_norm): LayerNorm(2.56 k, 0.00% Params, 0 MACs, 0.00% MACs, 168.56 us, 0.06% latency, 227.81 GFLOPS, (1280,), eps=1e-05, elementwise_affine=True)
          (activation_fn): GELUActivation(0, 0.00% Params, 0 MACs, 0.00% MACs, 144.72 us, 0.05% latency, 0.0 FLOPS, )
          (fc1): Linear(6.56 M, 0.42% Params, 39.32 GMACs, 0.74% MACs, 595.57 us, 0.23% latency, 132.05 TFLOPS, in_features=1280, out_features=5120, bias=True)
          (fc2): Linear(6.55 M, 0.42% Params, 39.32 GMACs, 0.74% MACs, 568.63 us, 0.22% latency, 138.3 TFLOPS, in_features=5120, out_features=1280, bias=True)
          (final_layer_norm): LayerNorm(2.56 k, 0.00% Params, 0 MACs, 0.00% MACs, 160.93 us, 0.06% latency, 238.61 GFLOPS, (1280,), eps=1e-05, elementwise_affine=True)
        )
        (10): WhisperEncoderLayer(
          19.68 M, 1.27% Params, 141.0 GMACs, 2.64% MACs, 5.12 ms, 1.95% latency, 55.08 TFLOPS, 
          (self_attn): WhisperAttention(
            6.56 M, 0.42% Params, 62.36 GMACs, 1.17% MACs, 2.95 ms, 1.12% latency, 42.41 TFLOPS, 
            (k_proj): Linear(1.64 M, 0.11% Params, 9.83 GMACs, 0.18% MACs, 249.39 us, 0.09% latency, 78.84 TFLOPS, in_features=1280, out_features=1280, bias=False)
            (v_proj): Linear(1.64 M, 0.11% Params, 9.83 GMACs, 0.18% MACs, 185.01 us, 0.07% latency, 106.27 TFLOPS, in_features=1280, out_features=1280, bias=True)
            (q_proj): Linear(1.64 M, 0.11% Params, 9.83 GMACs, 0.18% MACs, 210.76 us, 0.08% latency, 93.28 TFLOPS, in_features=1280, out_features=1280, bias=True)
            (out_proj): Linear(1.64 M, 0.11% Params, 9.83 GMACs, 0.18% MACs, 199.08 us, 0.08% latency, 98.76 TFLOPS, in_features=1280, out_features=1280, bias=True)
          )
          (self_attn_layer_norm): LayerNorm(2.56 k, 0.00% Params, 0 MACs, 0.00% MACs, 172.85 us, 0.07% latency, 222.15 GFLOPS, (1280,), eps=1e-05, elementwise_affine=True)
          (activation_fn): GELUActivation(0, 0.00% Params, 0 MACs, 0.00% MACs, 142.57 us, 0.05% latency, 0.0 FLOPS, )
          (fc1): Linear(6.56 M, 0.42% Params, 39.32 GMACs, 0.74% MACs, 597.48 us, 0.23% latency, 131.63 TFLOPS, in_features=1280, out_features=5120, bias=True)
          (fc2): Linear(6.55 M, 0.42% Params, 39.32 GMACs, 0.74% MACs, 581.74 us, 0.22% latency, 135.19 TFLOPS, in_features=5120, out_features=1280, bias=True)
          (final_layer_norm): LayerNorm(2.56 k, 0.00% Params, 0 MACs, 0.00% MACs, 166.89 us, 0.06% latency, 230.09 GFLOPS, (1280,), eps=1e-05, elementwise_affine=True)
        )
        (11): WhisperEncoderLayer(
          19.68 M, 1.27% Params, 141.0 GMACs, 2.64% MACs, 5.07 ms, 1.92% latency, 55.71 TFLOPS, 
          (self_attn): WhisperAttention(
            6.56 M, 0.42% Params, 62.36 GMACs, 1.17% MACs, 2.88 ms, 1.09% latency, 43.37 TFLOPS, 
            (k_proj): Linear(1.64 M, 0.11% Params, 9.83 GMACs, 0.18% MACs, 215.77 us, 0.08% latency, 91.12 TFLOPS, in_features=1280, out_features=1280, bias=False)
            (v_proj): Linear(1.64 M, 0.11% Params, 9.83 GMACs, 0.18% MACs, 199.79 us, 0.08% latency, 98.4 TFLOPS, in_features=1280, out_features=1280, bias=True)
            (q_proj): Linear(1.64 M, 0.11% Params, 9.83 GMACs, 0.18% MACs, 203.13 us, 0.08% latency, 96.79 TFLOPS, in_features=1280, out_features=1280, bias=True)
            (out_proj): Linear(1.64 M, 0.11% Params, 9.83 GMACs, 0.18% MACs, 195.26 us, 0.07% latency, 100.69 TFLOPS, in_features=1280, out_features=1280, bias=True)
          )
          (self_attn_layer_norm): LayerNorm(2.56 k, 0.00% Params, 0 MACs, 0.00% MACs, 169.28 us, 0.06% latency, 226.85 GFLOPS, (1280,), eps=1e-05, elementwise_affine=True)
          (activation_fn): GELUActivation(0, 0.00% Params, 0 MACs, 0.00% MACs, 141.62 us, 0.05% latency, 0.0 FLOPS, )
          (fc1): Linear(6.56 M, 0.42% Params, 39.32 GMACs, 0.74% MACs, 596.52 us, 0.23% latency, 131.84 TFLOPS, in_features=1280, out_features=5120, bias=True)
          (fc2): Linear(6.55 M, 0.42% Params, 39.32 GMACs, 0.74% MACs, 581.03 us, 0.22% latency, 135.35 TFLOPS, in_features=5120, out_features=1280, bias=True)
          (final_layer_norm): LayerNorm(2.56 k, 0.00% Params, 0 MACs, 0.00% MACs, 166.18 us, 0.06% latency, 231.08 GFLOPS, (1280,), eps=1e-05, elementwise_affine=True)
        )
        (12): WhisperEncoderLayer(
          19.68 M, 1.27% Params, 141.0 GMACs, 2.64% MACs, 5.11 ms, 1.94% latency, 55.25 TFLOPS, 
          (self_attn): WhisperAttention(
            6.56 M, 0.42% Params, 62.36 GMACs, 1.17% MACs, 2.89 ms, 1.10% latency, 43.21 TFLOPS, 
            (k_proj): Linear(1.64 M, 0.11% Params, 9.83 GMACs, 0.18% MACs, 217.2 us, 0.08% latency, 90.52 TFLOPS, in_features=1280, out_features=1280, bias=False)
            (v_proj): Linear(1.64 M, 0.11% Params, 9.83 GMACs, 0.18% MACs, 182.15 us, 0.07% latency, 107.94 TFLOPS, in_features=1280, out_features=1280, bias=True)
            (q_proj): Linear(1.64 M, 0.11% Params, 9.83 GMACs, 0.18% MACs, 206.71 us, 0.08% latency, 95.11 TFLOPS, in_features=1280, out_features=1280, bias=True)
            (out_proj): Linear(1.64 M, 0.11% Params, 9.83 GMACs, 0.18% MACs, 192.88 us, 0.07% latency, 101.93 TFLOPS, in_features=1280, out_features=1280, bias=True)
          )
          (self_attn_layer_norm): LayerNorm(2.56 k, 0.00% Params, 0 MACs, 0.00% MACs, 166.42 us, 0.06% latency, 230.75 GFLOPS, (1280,), eps=1e-05, elementwise_affine=True)
          (activation_fn): GELUActivation(0, 0.00% Params, 0 MACs, 0.00% MACs, 147.1 us, 0.06% latency, 0.0 FLOPS, )
          (fc1): Linear(6.56 M, 0.42% Params, 39.32 GMACs, 0.74% MACs, 593.66 us, 0.23% latency, 132.47 TFLOPS, in_features=1280, out_features=5120, bias=True)
          (fc2): Linear(6.55 M, 0.42% Params, 39.32 GMACs, 0.74% MACs, 580.07 us, 0.22% latency, 135.57 TFLOPS, in_features=5120, out_features=1280, bias=True)
          (final_layer_norm): LayerNorm(2.56 k, 0.00% Params, 0 MACs, 0.00% MACs, 164.03 us, 0.06% latency, 234.1 GFLOPS, (1280,), eps=1e-05, elementwise_affine=True)
        )
        (13): WhisperEncoderLayer(
          19.68 M, 1.27% Params, 141.0 GMACs, 2.64% MACs, 5.16 ms, 1.96% latency, 54.75 TFLOPS, 
          (self_attn): WhisperAttention(
            6.56 M, 0.42% Params, 62.36 GMACs, 1.17% MACs, 2.96 ms, 1.12% latency, 42.27 TFLOPS, 
            (k_proj): Linear(1.64 M, 0.11% Params, 9.83 GMACs, 0.18% MACs, 209.09 us, 0.08% latency, 94.03 TFLOPS, in_features=1280, out_features=1280, bias=False)
            (v_proj): Linear(1.64 M, 0.11% Params, 9.83 GMACs, 0.18% MACs, 194.07 us, 0.07% latency, 101.31 TFLOPS, in_features=1280, out_features=1280, bias=True)
            (q_proj): Linear(1.64 M, 0.11% Params, 9.83 GMACs, 0.18% MACs, 214.58 us, 0.08% latency, 91.63 TFLOPS, in_features=1280, out_features=1280, bias=True)
            (out_proj): Linear(1.64 M, 0.11% Params, 9.83 GMACs, 0.18% MACs, 198.36 us, 0.08% latency, 99.11 TFLOPS, in_features=1280, out_features=1280, bias=True)
          )
          (self_attn_layer_norm): LayerNorm(2.56 k, 0.00% Params, 0 MACs, 0.00% MACs, 171.18 us, 0.06% latency, 224.32 GFLOPS, (1280,), eps=1e-05, elementwise_affine=True)
          (activation_fn): GELUActivation(0, 0.00% Params, 0 MACs, 0.00% MACs, 144.48 us, 0.05% latency, 0.0 FLOPS, )
          (fc1): Linear(6.56 M, 0.42% Params, 39.32 GMACs, 0.74% MACs, 598.91 us, 0.23% latency, 131.31 TFLOPS, in_features=1280, out_features=5120, bias=True)
          (fc2): Linear(6.55 M, 0.42% Params, 39.32 GMACs, 0.74% MACs, 578.88 us, 0.22% latency, 135.85 TFLOPS, in_features=5120, out_features=1280, bias=True)
          (final_layer_norm): LayerNorm(2.56 k, 0.00% Params, 0 MACs, 0.00% MACs, 168.8 us, 0.06% latency, 227.49 GFLOPS, (1280,), eps=1e-05, elementwise_affine=True)
        )
        (14): WhisperEncoderLayer(
          19.68 M, 1.27% Params, 141.0 GMACs, 2.64% MACs, 5.07 ms, 1.93% latency, 55.63 TFLOPS, 
          (self_attn): WhisperAttention(
            6.56 M, 0.42% Params, 62.36 GMACs, 1.17% MACs, 2.88 ms, 1.09% latency, 43.42 TFLOPS, 
            (k_proj): Linear(1.64 M, 0.11% Params, 9.83 GMACs, 0.18% MACs, 206.95 us, 0.08% latency, 95.0 TFLOPS, in_features=1280, out_features=1280, bias=False)
            (v_proj): Linear(1.64 M, 0.11% Params, 9.83 GMACs, 0.18% MACs, 181.91 us, 0.07% latency, 108.08 TFLOPS, in_features=1280, out_features=1280, bias=True)
            (q_proj): Linear(1.64 M, 0.11% Params, 9.83 GMACs, 0.18% MACs, 206.71 us, 0.08% latency, 95.11 TFLOPS, in_features=1280, out_features=1280, bias=True)
            (out_proj): Linear(1.64 M, 0.11% Params, 9.83 GMACs, 0.18% MACs, 200.27 us, 0.08% latency, 98.17 TFLOPS, in_features=1280, out_features=1280, bias=True)
          )
          (self_attn_layer_norm): LayerNorm(2.56 k, 0.00% Params, 0 MACs, 0.00% MACs, 169.28 us, 0.06% latency, 226.85 GFLOPS, (1280,), eps=1e-05, elementwise_affine=True)
          (activation_fn): GELUActivation(0, 0.00% Params, 0 MACs, 0.00% MACs, 145.44 us, 0.06% latency, 0.0 FLOPS, )
          (fc1): Linear(6.56 M, 0.42% Params, 39.32 GMACs, 0.74% MACs, 593.66 us, 0.23% latency, 132.47 TFLOPS, in_features=1280, out_features=5120, bias=True)
          (fc2): Linear(6.55 M, 0.42% Params, 39.32 GMACs, 0.74% MACs, 581.5 us, 0.22% latency, 135.24 TFLOPS, in_features=5120, out_features=1280, bias=True)
          (final_layer_norm): LayerNorm(2.56 k, 0.00% Params, 0 MACs, 0.00% MACs, 170.71 us, 0.06% latency, 224.95 GFLOPS, (1280,), eps=1e-05, elementwise_affine=True)
        )
        (15): WhisperEncoderLayer(
          19.68 M, 1.27% Params, 141.0 GMACs, 2.64% MACs, 5.05 ms, 1.92% latency, 55.88 TFLOPS, 
          (self_attn): WhisperAttention(
            6.56 M, 0.42% Params, 62.36 GMACs, 1.17% MACs, 2.86 ms, 1.08% latency, 43.72 TFLOPS, 
            (k_proj): Linear(1.64 M, 0.11% Params, 9.83 GMACs, 0.18% MACs, 207.19 us, 0.08% latency, 94.89 TFLOPS, in_features=1280, out_features=1280, bias=False)
            (v_proj): Linear(1.64 M, 0.11% Params, 9.83 GMACs, 0.18% MACs, 184.54 us, 0.07% latency, 106.54 TFLOPS, in_features=1280, out_features=1280, bias=True)
            (q_proj): Linear(1.64 M, 0.11% Params, 9.83 GMACs, 0.18% MACs, 201.46 us, 0.08% latency, 97.59 TFLOPS, in_features=1280, out_features=1280, bias=True)
            (out_proj): Linear(1.64 M, 0.11% Params, 9.83 GMACs, 0.18% MACs, 200.51 us, 0.08% latency, 98.05 TFLOPS, in_features=1280, out_features=1280, bias=True)
          )
          (self_attn_layer_norm): LayerNorm(2.56 k, 0.00% Params, 0 MACs, 0.00% MACs, 169.04 us, 0.06% latency, 227.17 GFLOPS, (1280,), eps=1e-05, elementwise_affine=True)
          (activation_fn): GELUActivation(0, 0.00% Params, 0 MACs, 0.00% MACs, 155.69 us, 0.06% latency, 0.0 FLOPS, )
          (fc1): Linear(6.56 M, 0.42% Params, 39.32 GMACs, 0.74% MACs, 609.4 us, 0.23% latency, 129.05 TFLOPS, in_features=1280, out_features=5120, bias=True)
          (fc2): Linear(6.55 M, 0.42% Params, 39.32 GMACs, 0.74% MACs, 580.79 us, 0.22% latency, 135.41 TFLOPS, in_features=5120, out_features=1280, bias=True)
          (final_layer_norm): LayerNorm(2.56 k, 0.00% Params, 0 MACs, 0.00% MACs, 162.12 us, 0.06% latency, 236.85 GFLOPS, (1280,), eps=1e-05, elementwise_affine=True)
        )
        (16): WhisperEncoderLayer(
          19.68 M, 1.27% Params, 141.0 GMACs, 2.64% MACs, 5.34 ms, 2.03% latency, 52.9 TFLOPS, 
          (self_attn): WhisperAttention(
            6.56 M, 0.42% Params, 62.36 GMACs, 1.17% MACs, 2.9 ms, 1.10% latency, 43.03 TFLOPS, 
            (k_proj): Linear(1.64 M, 0.11% Params, 9.83 GMACs, 0.18% MACs, 247.48 us, 0.09% latency, 79.44 TFLOPS, in_features=1280, out_features=1280, bias=False)
            (v_proj): Linear(1.64 M, 0.11% Params, 9.83 GMACs, 0.18% MACs, 178.58 us, 0.07% latency, 110.1 TFLOPS, in_features=1280, out_features=1280, bias=True)
            (q_proj): Linear(1.64 M, 0.11% Params, 9.83 GMACs, 0.18% MACs, 199.56 us, 0.08% latency, 98.52 TFLOPS, in_features=1280, out_features=1280, bias=True)
            (out_proj): Linear(1.64 M, 0.11% Params, 9.83 GMACs, 0.18% MACs, 202.42 us, 0.08% latency, 97.13 TFLOPS, in_features=1280, out_features=1280, bias=True)
          )
          (self_attn_layer_norm): LayerNorm(2.56 k, 0.00% Params, 0 MACs, 0.00% MACs, 337.6 us, 0.13% latency, 113.74 GFLOPS, (1280,), eps=1e-05, elementwise_affine=True)
          (activation_fn): GELUActivation(0, 0.00% Params, 0 MACs, 0.00% MACs, 149.01 us, 0.06% latency, 0.0 FLOPS, )
          (fc1): Linear(6.56 M, 0.42% Params, 39.32 GMACs, 0.74% MACs, 593.9 us, 0.23% latency, 132.42 TFLOPS, in_features=1280, out_features=5120, bias=True)
          (fc2): Linear(6.55 M, 0.42% Params, 39.32 GMACs, 0.74% MACs, 572.44 us, 0.22% latency, 137.38 TFLOPS, in_features=5120, out_features=1280, bias=True)
          (final_layer_norm): LayerNorm(2.56 k, 0.00% Params, 0 MACs, 0.00% MACs, 162.12 us, 0.06% latency, 236.85 GFLOPS, (1280,), eps=1e-05, elementwise_affine=True)
        )
        (17): WhisperEncoderLayer(
          19.68 M, 1.27% Params, 141.0 GMACs, 2.64% MACs, 5.25 ms, 1.99% latency, 53.75 TFLOPS, 
          (self_attn): WhisperAttention(
            6.56 M, 0.42% Params, 62.36 GMACs, 1.17% MACs, 2.98 ms, 1.13% latency, 41.93 TFLOPS, 
            (k_proj): Linear(1.64 M, 0.11% Params, 9.83 GMACs, 0.18% MACs, 209.81 us, 0.08% latency, 93.71 TFLOPS, in_features=1280, out_features=1280, bias=False)
            (v_proj): Linear(1.64 M, 0.11% Params, 9.83 GMACs, 0.18% MACs, 185.49 us, 0.07% latency, 105.99 TFLOPS, in_features=1280, out_features=1280, bias=True)
            (q_proj): Linear(1.64 M, 0.11% Params, 9.83 GMACs, 0.18% MACs, 199.79 us, 0.08% latency, 98.4 TFLOPS, in_features=1280, out_features=1280, bias=True)
            (out_proj): Linear(1.64 M, 0.11% Params, 9.83 GMACs, 0.18% MACs, 193.83 us, 0.07% latency, 101.43 TFLOPS, in_features=1280, out_features=1280, bias=True)
          )
          (self_attn_layer_norm): LayerNorm(2.56 k, 0.00% Params, 0 MACs, 0.00% MACs, 157.36 us, 0.06% latency, 244.03 GFLOPS, (1280,), eps=1e-05, elementwise_affine=True)
          (activation_fn): GELUActivation(0, 0.00% Params, 0 MACs, 0.00% MACs, 179.29 us, 0.07% latency, 0.0 FLOPS, )
          (fc1): Linear(6.56 M, 0.42% Params, 39.32 GMACs, 0.74% MACs, 629.43 us, 0.24% latency, 124.94 TFLOPS, in_features=1280, out_features=5120, bias=True)
          (fc2): Linear(6.55 M, 0.42% Params, 39.32 GMACs, 0.74% MACs, 579.6 us, 0.22% latency, 135.69 TFLOPS, in_features=5120, out_features=1280, bias=True)
          (final_layer_norm): LayerNorm(2.56 k, 0.00% Params, 0 MACs, 0.00% MACs, 156.16 us, 0.06% latency, 245.9 GFLOPS, (1280,), eps=1e-05, elementwise_affine=True)
        )
        (18): WhisperEncoderLayer(
          19.68 M, 1.27% Params, 141.0 GMACs, 2.64% MACs, 5.09 ms, 1.93% latency, 55.43 TFLOPS, 
          (self_attn): WhisperAttention(
            6.56 M, 0.42% Params, 62.36 GMACs, 1.17% MACs, 2.87 ms, 1.09% latency, 43.51 TFLOPS, 
            (k_proj): Linear(1.64 M, 0.11% Params, 9.83 GMACs, 0.18% MACs, 210.76 us, 0.08% latency, 93.28 TFLOPS, in_features=1280, out_features=1280, bias=False)
            (v_proj): Linear(1.64 M, 0.11% Params, 9.83 GMACs, 0.18% MACs, 180.01 us, 0.07% latency, 109.22 TFLOPS, in_features=1280, out_features=1280, bias=True)
            (q_proj): Linear(1.64 M, 0.11% Params, 9.83 GMACs, 0.18% MACs, 200.99 us, 0.08% latency, 97.82 TFLOPS, in_features=1280, out_features=1280, bias=True)
            (out_proj): Linear(1.64 M, 0.11% Params, 9.83 GMACs, 0.18% MACs, 194.55 us, 0.07% latency, 101.06 TFLOPS, in_features=1280, out_features=1280, bias=True)
          )
          (self_attn_layer_norm): LayerNorm(2.56 k, 0.00% Params, 0 MACs, 0.00% MACs, 162.6 us, 0.06% latency, 236.16 GFLOPS, (1280,), eps=1e-05, elementwise_affine=True)
          (activation_fn): GELUActivation(0, 0.00% Params, 0 MACs, 0.00% MACs, 148.77 us, 0.06% latency, 0.0 FLOPS, )
          (fc1): Linear(6.56 M, 0.42% Params, 39.32 GMACs, 0.74% MACs, 586.51 us, 0.22% latency, 134.09 TFLOPS, in_features=1280, out_features=5120, bias=True)
          (fc2): Linear(6.55 M, 0.42% Params, 39.32 GMACs, 0.74% MACs, 574.59 us, 0.22% latency, 136.87 TFLOPS, in_features=5120, out_features=1280, bias=True)
          (final_layer_norm): LayerNorm(2.56 k, 0.00% Params, 0 MACs, 0.00% MACs, 163.79 us, 0.06% latency, 234.44 GFLOPS, (1280,), eps=1e-05, elementwise_affine=True)
        )
        (19): WhisperEncoderLayer(
          19.68 M, 1.27% Params, 141.0 GMACs, 2.64% MACs, 5.18 ms, 1.97% latency, 54.54 TFLOPS, 
          (self_attn): WhisperAttention(
            6.56 M, 0.42% Params, 62.36 GMACs, 1.17% MACs, 2.85 ms, 1.08% latency, 43.89 TFLOPS, 
            (k_proj): Linear(1.64 M, 0.11% Params, 9.83 GMACs, 0.18% MACs, 211.95 us, 0.08% latency, 92.76 TFLOPS, in_features=1280, out_features=1280, bias=False)
            (v_proj): Linear(1.64 M, 0.11% Params, 9.83 GMACs, 0.18% MACs, 193.83 us, 0.07% latency, 101.43 TFLOPS, in_features=1280, out_features=1280, bias=True)
            (q_proj): Linear(1.64 M, 0.11% Params, 9.83 GMACs, 0.18% MACs, 192.4 us, 0.07% latency, 102.19 TFLOPS, in_features=1280, out_features=1280, bias=True)
            (out_proj): Linear(1.64 M, 0.11% Params, 9.83 GMACs, 0.18% MACs, 181.2 us, 0.07% latency, 108.5 TFLOPS, in_features=1280, out_features=1280, bias=True)
          )
          (self_attn_layer_norm): LayerNorm(2.56 k, 0.00% Params, 0 MACs, 0.00% MACs, 194.31 us, 0.07% latency, 197.62 GFLOPS, (1280,), eps=1e-05, elementwise_affine=True)
          (activation_fn): GELUActivation(0, 0.00% Params, 0 MACs, 0.00% MACs, 150.68 us, 0.06% latency, 0.0 FLOPS, )
          (fc1): Linear(6.56 M, 0.42% Params, 39.32 GMACs, 0.74% MACs, 595.33 us, 0.23% latency, 132.1 TFLOPS, in_features=1280, out_features=5120, bias=True)
          (fc2): Linear(6.55 M, 0.42% Params, 39.32 GMACs, 0.74% MACs, 581.26 us, 0.22% latency, 135.3 TFLOPS, in_features=5120, out_features=1280, bias=True)
          (final_layer_norm): LayerNorm(2.56 k, 0.00% Params, 0 MACs, 0.00% MACs, 164.99 us, 0.06% latency, 232.75 GFLOPS, (1280,), eps=1e-05, elementwise_affine=True)
        )
        (20): WhisperEncoderLayer(
          19.68 M, 1.27% Params, 141.0 GMACs, 2.64% MACs, 5.31 ms, 2.02% latency, 53.15 TFLOPS, 
          (self_attn): WhisperAttention(
            6.56 M, 0.42% Params, 62.36 GMACs, 1.17% MACs, 2.92 ms, 1.11% latency, 42.78 TFLOPS, 
            (k_proj): Linear(1.64 M, 0.11% Params, 9.83 GMACs, 0.18% MACs, 193.6 us, 0.07% latency, 101.56 TFLOPS, in_features=1280, out_features=1280, bias=False)
            (v_proj): Linear(1.64 M, 0.11% Params, 9.83 GMACs, 0.18% MACs, 194.07 us, 0.07% latency, 101.31 TFLOPS, in_features=1280, out_features=1280, bias=True)
            (q_proj): Linear(1.64 M, 0.11% Params, 9.83 GMACs, 0.18% MACs, 217.44 us, 0.08% latency, 90.42 TFLOPS, in_features=1280, out_features=1280, bias=True)
            (out_proj): Linear(1.64 M, 0.11% Params, 9.83 GMACs, 0.18% MACs, 197.65 us, 0.08% latency, 99.47 TFLOPS, in_features=1280, out_features=1280, bias=True)
          )
          (self_attn_layer_norm): LayerNorm(2.56 k, 0.00% Params, 0 MACs, 0.00% MACs, 174.76 us, 0.07% latency, 219.73 GFLOPS, (1280,), eps=1e-05, elementwise_affine=True)
          (activation_fn): GELUActivation(0, 0.00% Params, 0 MACs, 0.00% MACs, 172.38 us, 0.07% latency, 0.0 FLOPS, )
          (fc1): Linear(6.56 M, 0.42% Params, 39.32 GMACs, 0.74% MACs, 599.86 us, 0.23% latency, 131.1 TFLOPS, in_features=1280, out_features=5120, bias=True)
          (fc2): Linear(6.55 M, 0.42% Params, 39.32 GMACs, 0.74% MACs, 712.87 us, 0.27% latency, 110.32 TFLOPS, in_features=5120, out_features=1280, bias=True)
          (final_layer_norm): LayerNorm(2.56 k, 0.00% Params, 0 MACs, 0.00% MACs, 163.32 us, 0.06% latency, 235.13 GFLOPS, (1280,), eps=1e-05, elementwise_affine=True)
        )
        (21): WhisperEncoderLayer(
          19.68 M, 1.27% Params, 141.0 GMACs, 2.64% MACs, 7.41 ms, 2.81% latency, 38.09 TFLOPS, 
          (self_attn): WhisperAttention(
            6.56 M, 0.42% Params, 62.36 GMACs, 1.17% MACs, 3.0 ms, 1.14% latency, 41.7 TFLOPS, 
            (k_proj): Linear(1.64 M, 0.11% Params, 9.83 GMACs, 0.18% MACs, 204.32 us, 0.08% latency, 96.22 TFLOPS, in_features=1280, out_features=1280, bias=False)
            (v_proj): Linear(1.64 M, 0.11% Params, 9.83 GMACs, 0.18% MACs, 187.64 us, 0.07% latency, 104.78 TFLOPS, in_features=1280, out_features=1280, bias=True)
            (q_proj): Linear(1.64 M, 0.11% Params, 9.83 GMACs, 0.18% MACs, 205.99 us, 0.08% latency, 95.44 TFLOPS, in_features=1280, out_features=1280, bias=True)
            (out_proj): Linear(1.64 M, 0.11% Params, 9.83 GMACs, 0.18% MACs, 185.25 us, 0.07% latency, 106.13 TFLOPS, in_features=1280, out_features=1280, bias=True)
          )
          (self_attn_layer_norm): LayerNorm(2.56 k, 0.00% Params, 0 MACs, 0.00% MACs, 201.46 us, 0.08% latency, 190.61 GFLOPS, (1280,), eps=1e-05, elementwise_affine=True)
          (activation_fn): GELUActivation(0, 0.00% Params, 0 MACs, 0.00% MACs, 143.05 us, 0.05% latency, 0.0 FLOPS, )
          (fc1): Linear(6.56 M, 0.42% Params, 39.32 GMACs, 0.74% MACs, 705.0 us, 0.27% latency, 111.55 TFLOPS, in_features=1280, out_features=5120, bias=True)
          (fc2): Linear(6.55 M, 0.42% Params, 39.32 GMACs, 0.74% MACs, 2.51 ms, 0.95% latency, 31.33 TFLOPS, in_features=5120, out_features=1280, bias=True)
          (final_layer_norm): LayerNorm(2.56 k, 0.00% Params, 0 MACs, 0.00% MACs, 217.91 us, 0.08% latency, 176.22 GFLOPS, (1280,), eps=1e-05, elementwise_affine=True)
        )
        (22): WhisperEncoderLayer(
          19.68 M, 1.27% Params, 141.0 GMACs, 2.64% MACs, 5.95 ms, 2.26% latency, 47.46 TFLOPS, 
          (self_attn): WhisperAttention(
            6.56 M, 0.42% Params, 62.36 GMACs, 1.17% MACs, 3.47 ms, 1.32% latency, 36.03 TFLOPS, 
            (k_proj): Linear(1.64 M, 0.11% Params, 9.83 GMACs, 0.18% MACs, 225.31 us, 0.09% latency, 87.26 TFLOPS, in_features=1280, out_features=1280, bias=False)
            (v_proj): Linear(1.64 M, 0.11% Params, 9.83 GMACs, 0.18% MACs, 189.78 us, 0.07% latency, 103.6 TFLOPS, in_features=1280, out_features=1280, bias=True)
            (q_proj): Linear(1.64 M, 0.11% Params, 9.83 GMACs, 0.18% MACs, 216.01 us, 0.08% latency, 91.02 TFLOPS, in_features=1280, out_features=1280, bias=True)
            (out_proj): Linear(1.64 M, 0.11% Params, 9.83 GMACs, 0.18% MACs, 416.04 us, 0.16% latency, 47.26 TFLOPS, in_features=1280, out_features=1280, bias=True)
          )
          (self_attn_layer_norm): LayerNorm(2.56 k, 0.00% Params, 0 MACs, 0.00% MACs, 161.17 us, 0.06% latency, 238.26 GFLOPS, (1280,), eps=1e-05, elementwise_affine=True)
          (activation_fn): GELUActivation(0, 0.00% Params, 0 MACs, 0.00% MACs, 170.71 us, 0.06% latency, 0.0 FLOPS, )
          (fc1): Linear(6.56 M, 0.42% Params, 39.32 GMACs, 0.74% MACs, 601.29 us, 0.23% latency, 130.79 TFLOPS, in_features=1280, out_features=5120, bias=True)
          (fc2): Linear(6.55 M, 0.42% Params, 39.32 GMACs, 0.74% MACs, 594.85 us, 0.23% latency, 132.21 TFLOPS, in_features=5120, out_features=1280, bias=True)
          (final_layer_norm): LayerNorm(2.56 k, 0.00% Params, 0 MACs, 0.00% MACs, 161.41 us, 0.06% latency, 237.9 GFLOPS, (1280,), eps=1e-05, elementwise_affine=True)
        )
        (23): WhisperEncoderLayer(
          19.68 M, 1.27% Params, 141.0 GMACs, 2.64% MACs, 5.42 ms, 2.06% latency, 52.08 TFLOPS, 
          (self_attn): WhisperAttention(
            6.56 M, 0.42% Params, 62.36 GMACs, 1.17% MACs, 2.9 ms, 1.10% latency, 43.14 TFLOPS, 
            (k_proj): Linear(1.64 M, 0.11% Params, 9.83 GMACs, 0.18% MACs, 224.35 us, 0.09% latency, 87.63 TFLOPS, in_features=1280, out_features=1280, bias=False)
            (v_proj): Linear(1.64 M, 0.11% Params, 9.83 GMACs, 0.18% MACs, 185.25 us, 0.07% latency, 106.13 TFLOPS, in_features=1280, out_features=1280, bias=True)
            (q_proj): Linear(1.64 M, 0.11% Params, 9.83 GMACs, 0.18% MACs, 211.72 us, 0.08% latency, 92.86 TFLOPS, in_features=1280, out_features=1280, bias=True)
            (out_proj): Linear(1.64 M, 0.11% Params, 9.83 GMACs, 0.18% MACs, 205.76 us, 0.08% latency, 95.55 TFLOPS, in_features=1280, out_features=1280, bias=True)
          )
          (self_attn_layer_norm): LayerNorm(2.56 k, 0.00% Params, 0 MACs, 0.00% MACs, 162.6 us, 0.06% latency, 236.16 GFLOPS, (1280,), eps=1e-05, elementwise_affine=True)
          (activation_fn): GELUActivation(0, 0.00% Params, 0 MACs, 0.00% MACs, 422.95 us, 0.16% latency, 0.0 FLOPS, )
          (fc1): Linear(6.56 M, 0.42% Params, 39.32 GMACs, 0.74% MACs, 599.86 us, 0.23% latency, 131.1 TFLOPS, in_features=1280, out_features=5120, bias=True)
          (fc2): Linear(6.55 M, 0.42% Params, 39.32 GMACs, 0.74% MACs, 598.19 us, 0.23% latency, 131.47 TFLOPS, in_features=5120, out_features=1280, bias=True)
          (final_layer_norm): LayerNorm(2.56 k, 0.00% Params, 0 MACs, 0.00% MACs, 166.42 us, 0.06% latency, 230.75 GFLOPS, (1280,), eps=1e-05, elementwise_affine=True)
        )
        (24): WhisperEncoderLayer(
          19.68 M, 1.27% Params, 141.0 GMACs, 2.64% MACs, 5.41 ms, 2.06% latency, 52.15 TFLOPS, 
          (self_attn): WhisperAttention(
            6.56 M, 0.42% Params, 62.36 GMACs, 1.17% MACs, 3.2 ms, 1.22% latency, 38.99 TFLOPS, 
            (k_proj): Linear(1.64 M, 0.11% Params, 9.83 GMACs, 0.18% MACs, 231.74 us, 0.09% latency, 84.84 TFLOPS, in_features=1280, out_features=1280, bias=False)
            (v_proj): Linear(1.64 M, 0.11% Params, 9.83 GMACs, 0.18% MACs, 185.25 us, 0.07% latency, 106.13 TFLOPS, in_features=1280, out_features=1280, bias=True)
            (q_proj): Linear(1.64 M, 0.11% Params, 9.83 GMACs, 0.18% MACs, 205.99 us, 0.08% latency, 95.44 TFLOPS, in_features=1280, out_features=1280, bias=True)
            (out_proj): Linear(1.64 M, 0.11% Params, 9.83 GMACs, 0.18% MACs, 196.22 us, 0.07% latency, 100.2 TFLOPS, in_features=1280, out_features=1280, bias=True)
          )
          (self_attn_layer_norm): LayerNorm(2.56 k, 0.00% Params, 0 MACs, 0.00% MACs, 168.8 us, 0.06% latency, 227.49 GFLOPS, (1280,), eps=1e-05, elementwise_affine=True)
          (activation_fn): GELUActivation(0, 0.00% Params, 0 MACs, 0.00% MACs, 144.72 us, 0.05% latency, 0.0 FLOPS, )
          (fc1): Linear(6.56 M, 0.42% Params, 39.32 GMACs, 0.74% MACs, 606.06 us, 0.23% latency, 129.76 TFLOPS, in_features=1280, out_features=5120, bias=True)
          (fc2): Linear(6.55 M, 0.42% Params, 39.32 GMACs, 0.74% MACs, 570.54 us, 0.22% latency, 137.84 TFLOPS, in_features=5120, out_features=1280, bias=True)
          (final_layer_norm): LayerNorm(2.56 k, 0.00% Params, 0 MACs, 0.00% MACs, 173.57 us, 0.07% latency, 221.24 GFLOPS, (1280,), eps=1e-05, elementwise_affine=True)
        )
        (25): WhisperEncoderLayer(
          19.68 M, 1.27% Params, 141.0 GMACs, 2.64% MACs, 5.14 ms, 1.95% latency, 54.93 TFLOPS, 
          (self_attn): WhisperAttention(
            6.56 M, 0.42% Params, 62.36 GMACs, 1.17% MACs, 2.97 ms, 1.13% latency, 42.04 TFLOPS, 
            (k_proj): Linear(1.64 M, 0.11% Params, 9.83 GMACs, 0.18% MACs, 201.94 us, 0.08% latency, 97.36 TFLOPS, in_features=1280, out_features=1280, bias=False)
            (v_proj): Linear(1.64 M, 0.11% Params, 9.83 GMACs, 0.18% MACs, 186.68 us, 0.07% latency, 105.32 TFLOPS, in_features=1280, out_features=1280, bias=True)
            (q_proj): Linear(1.64 M, 0.11% Params, 9.83 GMACs, 0.18% MACs, 207.19 us, 0.08% latency, 94.89 TFLOPS, in_features=1280, out_features=1280, bias=True)
            (out_proj): Linear(1.64 M, 0.11% Params, 9.83 GMACs, 0.18% MACs, 205.04 us, 0.08% latency, 95.89 TFLOPS, in_features=1280, out_features=1280, bias=True)
          )
          (self_attn_layer_norm): LayerNorm(2.56 k, 0.00% Params, 0 MACs, 0.00% MACs, 156.16 us, 0.06% latency, 245.9 GFLOPS, (1280,), eps=1e-05, elementwise_affine=True)
          (activation_fn): GELUActivation(0, 0.00% Params, 0 MACs, 0.00% MACs, 139.0 us, 0.05% latency, 0.0 FLOPS, )
          (fc1): Linear(6.56 M, 0.42% Params, 39.32 GMACs, 0.74% MACs, 591.52 us, 0.22% latency, 132.95 TFLOPS, in_features=1280, out_features=5120, bias=True)
          (fc2): Linear(6.55 M, 0.42% Params, 39.32 GMACs, 0.74% MACs, 574.83 us, 0.22% latency, 136.81 TFLOPS, in_features=5120, out_features=1280, bias=True)
          (final_layer_norm): LayerNorm(2.56 k, 0.00% Params, 0 MACs, 0.00% MACs, 154.73 us, 0.06% latency, 248.17 GFLOPS, (1280,), eps=1e-05, elementwise_affine=True)
        )
        (26): WhisperEncoderLayer(
          19.68 M, 1.27% Params, 141.0 GMACs, 2.64% MACs, 6.43 ms, 2.44% latency, 43.87 TFLOPS, 
          (self_attn): WhisperAttention(
            6.56 M, 0.42% Params, 62.36 GMACs, 1.17% MACs, 3.1 ms, 1.18% latency, 40.26 TFLOPS, 
            (k_proj): Linear(1.64 M, 0.11% Params, 9.83 GMACs, 0.18% MACs, 230.07 us, 0.09% latency, 85.45 TFLOPS, in_features=1280, out_features=1280, bias=False)
            (v_proj): Linear(1.64 M, 0.11% Params, 9.83 GMACs, 0.18% MACs, 181.67 us, 0.07% latency, 108.22 TFLOPS, in_features=1280, out_features=1280, bias=True)
            (q_proj): Linear(1.64 M, 0.11% Params, 9.83 GMACs, 0.18% MACs, 195.5 us, 0.07% latency, 100.57 TFLOPS, in_features=1280, out_features=1280, bias=True)
            (out_proj): Linear(1.64 M, 0.11% Params, 9.83 GMACs, 0.18% MACs, 192.88 us, 0.07% latency, 101.93 TFLOPS, in_features=1280, out_features=1280, bias=True)
          )
          (self_attn_layer_norm): LayerNorm(2.56 k, 0.00% Params, 0 MACs, 0.00% MACs, 167.37 us, 0.06% latency, 229.43 GFLOPS, (1280,), eps=1e-05, elementwise_affine=True)
          (activation_fn): GELUActivation(0, 0.00% Params, 0 MACs, 0.00% MACs, 161.65 us, 0.06% latency, 0.0 FLOPS, )
          (fc1): Linear(6.56 M, 0.42% Params, 39.32 GMACs, 0.74% MACs, 627.99 us, 0.24% latency, 125.23 TFLOPS, in_features=1280, out_features=5120, bias=True)
          (fc2): Linear(6.55 M, 0.42% Params, 39.32 GMACs, 0.74% MACs, 587.22 us, 0.22% latency, 133.92 TFLOPS, in_features=5120, out_features=1280, bias=True)
          (final_layer_norm): LayerNorm(2.56 k, 0.00% Params, 0 MACs, 0.00% MACs, 196.22 us, 0.07% latency, 195.7 GFLOPS, (1280,), eps=1e-05, elementwise_affine=True)
        )
        (27): WhisperEncoderLayer(
          19.68 M, 1.27% Params, 141.0 GMACs, 2.64% MACs, 5.52 ms, 2.10% latency, 51.11 TFLOPS, 
          (self_attn): WhisperAttention(
            6.56 M, 0.42% Params, 62.36 GMACs, 1.17% MACs, 3.19 ms, 1.21% latency, 39.16 TFLOPS, 
            (k_proj): Linear(1.64 M, 0.11% Params, 9.83 GMACs, 0.18% MACs, 225.07 us, 0.09% latency, 87.36 TFLOPS, in_features=1280, out_features=1280, bias=False)
            (v_proj): Linear(1.64 M, 0.11% Params, 9.83 GMACs, 0.18% MACs, 190.73 us, 0.07% latency, 103.08 TFLOPS, in_features=1280, out_features=1280, bias=True)
            (q_proj): Linear(1.64 M, 0.11% Params, 9.83 GMACs, 0.18% MACs, 218.39 us, 0.08% latency, 90.03 TFLOPS, in_features=1280, out_features=1280, bias=True)
            (out_proj): Linear(1.64 M, 0.11% Params, 9.83 GMACs, 0.18% MACs, 205.76 us, 0.08% latency, 95.55 TFLOPS, in_features=1280, out_features=1280, bias=True)
          )
          (self_attn_layer_norm): LayerNorm(2.56 k, 0.00% Params, 0 MACs, 0.00% MACs, 188.35 us, 0.07% latency, 203.88 GFLOPS, (1280,), eps=1e-05, elementwise_affine=True)
          (activation_fn): GELUActivation(0, 0.00% Params, 0 MACs, 0.00% MACs, 151.16 us, 0.06% latency, 0.0 FLOPS, )
          (fc1): Linear(6.56 M, 0.42% Params, 39.32 GMACs, 0.74% MACs, 596.52 us, 0.23% latency, 131.84 TFLOPS, in_features=1280, out_features=5120, bias=True)
          (fc2): Linear(6.55 M, 0.42% Params, 39.32 GMACs, 0.74% MACs, 585.79 us, 0.22% latency, 134.25 TFLOPS, in_features=5120, out_features=1280, bias=True)
          (final_layer_norm): LayerNorm(2.56 k, 0.00% Params, 0 MACs, 0.00% MACs, 276.57 us, 0.11% latency, 138.85 GFLOPS, (1280,), eps=1e-05, elementwise_affine=True)
        )
        (28): WhisperEncoderLayer(
          19.68 M, 1.27% Params, 141.0 GMACs, 2.64% MACs, 5.63 ms, 2.14% latency, 50.1 TFLOPS, 
          (self_attn): WhisperAttention(
            6.56 M, 0.42% Params, 62.36 GMACs, 1.17% MACs, 3.09 ms, 1.17% latency, 40.48 TFLOPS, 
            (k_proj): Linear(1.64 M, 0.11% Params, 9.83 GMACs, 0.18% MACs, 271.8 us, 0.10% latency, 72.34 TFLOPS, in_features=1280, out_features=1280, bias=False)
            (v_proj): Linear(1.64 M, 0.11% Params, 9.83 GMACs, 0.18% MACs, 202.18 us, 0.08% latency, 97.24 TFLOPS, in_features=1280, out_features=1280, bias=True)
            (q_proj): Linear(1.64 M, 0.11% Params, 9.83 GMACs, 0.18% MACs, 198.6 us, 0.08% latency, 99.0 TFLOPS, in_features=1280, out_features=1280, bias=True)
            (out_proj): Linear(1.64 M, 0.11% Params, 9.83 GMACs, 0.18% MACs, 231.5 us, 0.09% latency, 84.93 TFLOPS, in_features=1280, out_features=1280, bias=True)
          )
          (self_attn_layer_norm): LayerNorm(2.56 k, 0.00% Params, 0 MACs, 0.00% MACs, 166.42 us, 0.06% latency, 230.75 GFLOPS, (1280,), eps=1e-05, elementwise_affine=True)
          (activation_fn): GELUActivation(0, 0.00% Params, 0 MACs, 0.00% MACs, 149.49 us, 0.06% latency, 0.0 FLOPS, )
          (fc1): Linear(6.56 M, 0.42% Params, 39.32 GMACs, 0.74% MACs, 600.1 us, 0.23% latency, 131.05 TFLOPS, in_features=1280, out_features=5120, bias=True)
          (fc2): Linear(6.55 M, 0.42% Params, 39.32 GMACs, 0.74% MACs, 575.78 us, 0.22% latency, 136.59 TFLOPS, in_features=5120, out_features=1280, bias=True)
          (final_layer_norm): LayerNorm(2.56 k, 0.00% Params, 0 MACs, 0.00% MACs, 190.73 us, 0.07% latency, 201.33 GFLOPS, (1280,), eps=1e-05, elementwise_affine=True)
        )
        (29): WhisperEncoderLayer(
          19.68 M, 1.27% Params, 141.0 GMACs, 2.64% MACs, 5.23 ms, 1.99% latency, 53.97 TFLOPS, 
          (self_attn): WhisperAttention(
            6.56 M, 0.42% Params, 62.36 GMACs, 1.17% MACs, 2.87 ms, 1.09% latency, 43.47 TFLOPS, 
            (k_proj): Linear(1.64 M, 0.11% Params, 9.83 GMACs, 0.18% MACs, 212.19 us, 0.08% latency, 92.66 TFLOPS, in_features=1280, out_features=1280, bias=False)
            (v_proj): Linear(1.64 M, 0.11% Params, 9.83 GMACs, 0.18% MACs, 181.67 us, 0.07% latency, 108.22 TFLOPS, in_features=1280, out_features=1280, bias=True)
            (q_proj): Linear(1.64 M, 0.11% Params, 9.83 GMACs, 0.18% MACs, 225.78 us, 0.09% latency, 87.08 TFLOPS, in_features=1280, out_features=1280, bias=True)
            (out_proj): Linear(1.64 M, 0.11% Params, 9.83 GMACs, 0.18% MACs, 184.3 us, 0.07% latency, 106.68 TFLOPS, in_features=1280, out_features=1280, bias=True)
          )
          (self_attn_layer_norm): LayerNorm(2.56 k, 0.00% Params, 0 MACs, 0.00% MACs, 171.18 us, 0.06% latency, 224.32 GFLOPS, (1280,), eps=1e-05, elementwise_affine=True)
          (activation_fn): GELUActivation(0, 0.00% Params, 0 MACs, 0.00% MACs, 278.47 us, 0.11% latency, 0.0 FLOPS, )
          (fc1): Linear(6.56 M, 0.42% Params, 39.32 GMACs, 0.74% MACs, 600.34 us, 0.23% latency, 131.0 TFLOPS, in_features=1280, out_features=5120, bias=True)
          (fc2): Linear(6.55 M, 0.42% Params, 39.32 GMACs, 0.74% MACs, 592.23 us, 0.22% latency, 132.79 TFLOPS, in_features=5120, out_features=1280, bias=True)
          (final_layer_norm): LayerNorm(2.56 k, 0.00% Params, 0 MACs, 0.00% MACs, 164.27 us, 0.06% latency, 233.76 GFLOPS, (1280,), eps=1e-05, elementwise_affine=True)
        )
        (30): WhisperEncoderLayer(
          19.68 M, 1.27% Params, 141.0 GMACs, 2.64% MACs, 5.63 ms, 2.14% latency, 50.16 TFLOPS, 
          (self_attn): WhisperAttention(
            6.56 M, 0.42% Params, 62.36 GMACs, 1.17% MACs, 3.22 ms, 1.22% latency, 38.77 TFLOPS, 
            (k_proj): Linear(1.64 M, 0.11% Params, 9.83 GMACs, 0.18% MACs, 207.42 us, 0.08% latency, 94.79 TFLOPS, in_features=1280, out_features=1280, bias=False)
            (v_proj): Linear(1.64 M, 0.11% Params, 9.83 GMACs, 0.18% MACs, 353.81 us, 0.13% latency, 55.57 TFLOPS, in_features=1280, out_features=1280, bias=True)
            (q_proj): Linear(1.64 M, 0.11% Params, 9.83 GMACs, 0.18% MACs, 195.74 us, 0.07% latency, 100.44 TFLOPS, in_features=1280, out_features=1280, bias=True)
            (out_proj): Linear(1.64 M, 0.11% Params, 9.83 GMACs, 0.18% MACs, 296.83 us, 0.11% latency, 66.24 TFLOPS, in_features=1280, out_features=1280, bias=True)
          )
          (self_attn_layer_norm): LayerNorm(2.56 k, 0.00% Params, 0 MACs, 0.00% MACs, 162.84 us, 0.06% latency, 235.81 GFLOPS, (1280,), eps=1e-05, elementwise_affine=True)
          (activation_fn): GELUActivation(0, 0.00% Params, 0 MACs, 0.00% MACs, 144.24 us, 0.05% latency, 0.0 FLOPS, )
          (fc1): Linear(6.56 M, 0.42% Params, 39.32 GMACs, 0.74% MACs, 609.64 us, 0.23% latency, 129.0 TFLOPS, in_features=1280, out_features=5120, bias=True)
          (fc2): Linear(6.55 M, 0.42% Params, 39.32 GMACs, 0.74% MACs, 586.03 us, 0.22% latency, 134.2 TFLOPS, in_features=5120, out_features=1280, bias=True)
          (final_layer_norm): LayerNorm(2.56 k, 0.00% Params, 0 MACs, 0.00% MACs, 164.27 us, 0.06% latency, 233.76 GFLOPS, (1280,), eps=1e-05, elementwise_affine=True)
        )
        (31): WhisperEncoderLayer(
          19.68 M, 1.27% Params, 141.0 GMACs, 2.64% MACs, 5.25 ms, 1.99% latency, 53.76 TFLOPS, 
          (self_attn): WhisperAttention(
            6.56 M, 0.42% Params, 62.36 GMACs, 1.17% MACs, 2.94 ms, 1.12% latency, 42.46 TFLOPS, 
            (k_proj): Linear(1.64 M, 0.11% Params, 9.83 GMACs, 0.18% MACs, 204.8 us, 0.08% latency, 96.0 TFLOPS, in_features=1280, out_features=1280, bias=False)
            (v_proj): Linear(1.64 M, 0.11% Params, 9.83 GMACs, 0.18% MACs, 205.28 us, 0.08% latency, 95.78 TFLOPS, in_features=1280, out_features=1280, bias=True)
            (q_proj): Linear(1.64 M, 0.11% Params, 9.83 GMACs, 0.18% MACs, 200.99 us, 0.08% latency, 97.82 TFLOPS, in_features=1280, out_features=1280, bias=True)
            (out_proj): Linear(1.64 M, 0.11% Params, 9.83 GMACs, 0.18% MACs, 237.94 us, 0.09% latency, 82.63 TFLOPS, in_features=1280, out_features=1280, bias=True)
          )
          (self_attn_layer_norm): LayerNorm(2.56 k, 0.00% Params, 0 MACs, 0.00% MACs, 158.07 us, 0.06% latency, 242.93 GFLOPS, (1280,), eps=1e-05, elementwise_affine=True)
          (activation_fn): GELUActivation(0, 0.00% Params, 0 MACs, 0.00% MACs, 308.75 us, 0.12% latency, 0.0 FLOPS, )
          (fc1): Linear(6.56 M, 0.42% Params, 39.32 GMACs, 0.74% MACs, 594.14 us, 0.23% latency, 132.36 TFLOPS, in_features=1280, out_features=5120, bias=True)
          (fc2): Linear(6.55 M, 0.42% Params, 39.32 GMACs, 0.74% MACs, 590.09 us, 0.22% latency, 133.27 TFLOPS, in_features=5120, out_features=1280, bias=True)
          (final_layer_norm): LayerNorm(2.56 k, 0.00% Params, 0 MACs, 0.00% MACs, 164.51 us, 0.06% latency, 233.42 GFLOPS, (1280,), eps=1e-05, elementwise_affine=True)
        )
      )
      (layer_norm): LayerNorm(2.56 k, 0.00% Params, 0 MACs, 0.00% MACs, 168.8 us, 0.06% latency, 227.49 GFLOPS, (1280,), eps=1e-05, elementwise_affine=True)
    )
    (decoder): WhisperDecoder(
      906.52 M, 58.74% Params, 787.51 GMACs, 14.73% MACs, 87.99 ms, 33.41% latency, 17.9 TFLOPS, 
      (embed_tokens): Embedding(66.39 M, 4.30% Params, 0 MACs, 0.00% MACs, 62.47 us, 0.02% latency, 0.0 FLOPS, 51865, 1280, padding_idx=50257)
      (embed_positions): WhisperPositionalEmbedding(573.44 k, 0.04% Params, 0 MACs, 0.00% MACs, 20.98 us, 0.01% latency, 0.0 FLOPS, 448, 1280)
      (layers): ModuleList(
        (0): WhisperDecoderLayer(
          26.24 M, 1.70% Params, 24.61 GMACs, 0.46% MACs, 3.32 ms, 1.26% latency, 14.85 TFLOPS, 
          (self_attn): WhisperAttention(
            6.56 M, 0.42% Params, 1.23 GMACs, 0.02% MACs, 979.42 us, 0.37% latency, 2.51 TFLOPS, 
            (k_proj): Linear(1.64 M, 0.11% Params, 301.47 MMACs, 0.01% MACs, 140.19 us, 0.05% latency, 4.3 TFLOPS, in_features=1280, out_features=1280, bias=False)
            (v_proj): Linear(1.64 M, 0.11% Params, 301.47 MMACs, 0.01% MACs, 66.52 us, 0.03% latency, 9.06 TFLOPS, in_features=1280, out_features=1280, bias=True)
            (q_proj): Linear(1.64 M, 0.11% Params, 301.47 MMACs, 0.01% MACs, 135.42 us, 0.05% latency, 4.45 TFLOPS, in_features=1280, out_features=1280, bias=True)
            (out_proj): Linear(1.64 M, 0.11% Params, 301.47 MMACs, 0.01% MACs, 69.86 us, 0.03% latency, 8.63 TFLOPS, in_features=1280, out_features=1280, bias=True)
          )
          (activation_fn): GELUActivation(0, 0.00% Params, 0 MACs, 0.00% MACs, 474.21 us, 0.18% latency, 0.0 FLOPS, )
          (self_attn_layer_norm): LayerNorm(2.56 k, 0.00% Params, 0 MACs, 0.00% MACs, 45.06 us, 0.02% latency, 26.13 GFLOPS, (1280,), eps=1e-05, elementwise_affine=True)
          (encoder_attn): WhisperAttention(
            6.56 M, 0.42% Params, 20.97 GMACs, 0.39% MACs, 885.49 us, 0.34% latency, 47.37 TFLOPS, 
            (k_proj): Linear(1.64 M, 0.11% Params, 9.83 GMACs, 0.18% MACs, 200.75 us, 0.08% latency, 97.94 TFLOPS, in_features=1280, out_features=1280, bias=False)
            (v_proj): Linear(1.64 M, 0.11% Params, 9.83 GMACs, 0.18% MACs, 208.62 us, 0.08% latency, 94.24 TFLOPS, in_features=1280, out_features=1280, bias=True)
            (q_proj): Linear(1.64 M, 0.11% Params, 301.47 MMACs, 0.01% MACs, 55.07 us, 0.02% latency, 10.95 TFLOPS, in_features=1280, out_features=1280, bias=True)
            (out_proj): Linear(1.64 M, 0.11% Params, 301.47 MMACs, 0.01% MACs, 70.1 us, 0.03% latency, 8.6 TFLOPS, in_features=1280, out_features=1280, bias=True)
          )
          (encoder_attn_layer_norm): LayerNorm(2.56 k, 0.00% Params, 0 MACs, 0.00% MACs, 55.31 us, 0.02% latency, 21.29 GFLOPS, (1280,), eps=1e-05, elementwise_affine=True)
          (fc1): Linear(6.56 M, 0.42% Params, 1.21 GMACs, 0.02% MACs, 124.69 us, 0.05% latency, 19.34 TFLOPS, in_features=1280, out_features=5120, bias=True)
          (fc2): Linear(6.55 M, 0.42% Params, 1.21 GMACs, 0.02% MACs, 304.94 us, 0.12% latency, 7.91 TFLOPS, in_features=5120, out_features=1280, bias=True)
          (final_layer_norm): LayerNorm(2.56 k, 0.00% Params, 0 MACs, 0.00% MACs, 33.62 us, 0.01% latency, 35.03 GFLOPS, (1280,), eps=1e-05, elementwise_affine=True)
        )
        (1): WhisperDecoderLayer(
          26.24 M, 1.70% Params, 24.61 GMACs, 0.46% MACs, 3.6 ms, 1.37% latency, 13.68 TFLOPS, 
          (self_attn): WhisperAttention(
            6.56 M, 0.42% Params, 1.23 GMACs, 0.02% MACs, 1.27 ms, 0.48% latency, 1.94 TFLOPS, 
            (k_proj): Linear(1.64 M, 0.11% Params, 301.47 MMACs, 0.01% MACs, 125.65 us, 0.05% latency, 4.8 TFLOPS, in_features=1280, out_features=1280, bias=False)
            (v_proj): Linear(1.64 M, 0.11% Params, 301.47 MMACs, 0.01% MACs, 164.51 us, 0.06% latency, 3.67 TFLOPS, in_features=1280, out_features=1280, bias=True)
            (q_proj): Linear(1.64 M, 0.11% Params, 301.47 MMACs, 0.01% MACs, 189.3 us, 0.07% latency, 3.18 TFLOPS, in_features=1280, out_features=1280, bias=True)
            (out_proj): Linear(1.64 M, 0.11% Params, 301.47 MMACs, 0.01% MACs, 132.32 us, 0.05% latency, 4.56 TFLOPS, in_features=1280, out_features=1280, bias=True)
          )
          (activation_fn): GELUActivation(0, 0.00% Params, 0 MACs, 0.00% MACs, 89.65 us, 0.03% latency, 0.0 FLOPS, )
          (self_attn_layer_norm): LayerNorm(2.56 k, 0.00% Params, 0 MACs, 0.00% MACs, 108.96 us, 0.04% latency, 10.81 GFLOPS, (1280,), eps=1e-05, elementwise_affine=True)
          (encoder_attn): WhisperAttention(
            6.56 M, 0.42% Params, 20.97 GMACs, 0.39% MACs, 1.3 ms, 0.49% latency, 32.19 TFLOPS, 
            (k_proj): Linear(1.64 M, 0.11% Params, 9.83 GMACs, 0.18% MACs, 223.16 us, 0.08% latency, 88.1 TFLOPS, in_features=1280, out_features=1280, bias=False)
            (v_proj): Linear(1.64 M, 0.11% Params, 9.83 GMACs, 0.18% MACs, 251.29 us, 0.10% latency, 78.24 TFLOPS, in_features=1280, out_features=1280, bias=True)
            (q_proj): Linear(1.64 M, 0.11% Params, 301.47 MMACs, 0.01% MACs, 111.34 us, 0.04% latency, 5.42 TFLOPS, in_features=1280, out_features=1280, bias=True)
            (out_proj): Linear(1.64 M, 0.11% Params, 301.47 MMACs, 0.01% MACs, 118.02 us, 0.04% latency, 5.11 TFLOPS, in_features=1280, out_features=1280, bias=True)
          )
          (encoder_attn_layer_norm): LayerNorm(2.56 k, 0.00% Params, 0 MACs, 0.00% MACs, 88.69 us, 0.03% latency, 13.28 GFLOPS, (1280,), eps=1e-05, elementwise_affine=True)
          (fc1): Linear(6.56 M, 0.42% Params, 1.21 GMACs, 0.02% MACs, 90.84 us, 0.03% latency, 26.55 TFLOPS, in_features=1280, out_features=5120, bias=True)
          (fc2): Linear(6.55 M, 0.42% Params, 1.21 GMACs, 0.02% MACs, 138.28 us, 0.05% latency, 17.44 TFLOPS, in_features=5120, out_features=1280, bias=True)
          (final_layer_norm): LayerNorm(2.56 k, 0.00% Params, 0 MACs, 0.00% MACs, 87.5 us, 0.03% latency, 13.46 GFLOPS, (1280,), eps=1e-05, elementwise_affine=True)
        )
        (2): WhisperDecoderLayer(
          26.24 M, 1.70% Params, 24.61 GMACs, 0.46% MACs, 3.37 ms, 1.28% latency, 14.59 TFLOPS, 
          (self_attn): WhisperAttention(
            6.56 M, 0.42% Params, 1.23 GMACs, 0.02% MACs, 1.06 ms, 0.40% latency, 2.32 TFLOPS, 
            (k_proj): Linear(1.64 M, 0.11% Params, 301.47 MMACs, 0.01% MACs, 138.52 us, 0.05% latency, 4.35 TFLOPS, in_features=1280, out_features=1280, bias=False)
            (v_proj): Linear(1.64 M, 0.11% Params, 301.47 MMACs, 0.01% MACs, 112.06 us, 0.04% latency, 5.38 TFLOPS, in_features=1280, out_features=1280, bias=True)
            (q_proj): Linear(1.64 M, 0.11% Params, 301.47 MMACs, 0.01% MACs, 75.82 us, 0.03% latency, 7.95 TFLOPS, in_features=1280, out_features=1280, bias=True)
            (out_proj): Linear(1.64 M, 0.11% Params, 301.47 MMACs, 0.01% MACs, 114.92 us, 0.04% latency, 5.25 TFLOPS, in_features=1280, out_features=1280, bias=True)
          )
          (activation_fn): GELUActivation(0, 0.00% Params, 0 MACs, 0.00% MACs, 76.06 us, 0.03% latency, 0.0 FLOPS, )
          (self_attn_layer_norm): LayerNorm(2.56 k, 0.00% Params, 0 MACs, 0.00% MACs, 89.41 us, 0.03% latency, 13.17 GFLOPS, (1280,), eps=1e-05, elementwise_affine=True)
          (encoder_attn): WhisperAttention(
            6.56 M, 0.42% Params, 20.97 GMACs, 0.39% MACs, 1.29 ms, 0.49% latency, 32.5 TFLOPS, 
            (k_proj): Linear(1.64 M, 0.11% Params, 9.83 GMACs, 0.18% MACs, 257.73 us, 0.10% latency, 76.28 TFLOPS, in_features=1280, out_features=1280, bias=False)
            (v_proj): Linear(1.64 M, 0.11% Params, 9.83 GMACs, 0.18% MACs, 256.54 us, 0.10% latency, 76.64 TFLOPS, in_features=1280, out_features=1280, bias=True)
            (q_proj): Linear(1.64 M, 0.11% Params, 301.47 MMACs, 0.01% MACs, 102.76 us, 0.04% latency, 5.87 TFLOPS, in_features=1280, out_features=1280, bias=True)
            (out_proj): Linear(1.64 M, 0.11% Params, 301.47 MMACs, 0.01% MACs, 90.36 us, 0.03% latency, 6.67 TFLOPS, in_features=1280, out_features=1280, bias=True)
          )
          (encoder_attn_layer_norm): LayerNorm(2.56 k, 0.00% Params, 0 MACs, 0.00% MACs, 53.64 us, 0.02% latency, 21.95 GFLOPS, (1280,), eps=1e-05, elementwise_affine=True)
          (fc1): Linear(6.56 M, 0.42% Params, 1.21 GMACs, 0.02% MACs, 115.16 us, 0.04% latency, 20.94 TFLOPS, in_features=1280, out_features=5120, bias=True)
          (fc2): Linear(6.55 M, 0.42% Params, 1.21 GMACs, 0.02% MACs, 172.14 us, 0.07% latency, 14.01 TFLOPS, in_features=5120, out_features=1280, bias=True)
          (final_layer_norm): LayerNorm(2.56 k, 0.00% Params, 0 MACs, 0.00% MACs, 54.12 us, 0.02% latency, 21.76 GFLOPS, (1280,), eps=1e-05, elementwise_affine=True)
        )
        (3): WhisperDecoderLayer(
          26.24 M, 1.70% Params, 24.61 GMACs, 0.46% MACs, 3.5 ms, 1.33% latency, 14.05 TFLOPS, 
          (self_attn): WhisperAttention(
            6.56 M, 0.42% Params, 1.23 GMACs, 0.02% MACs, 1.18 ms, 0.45% latency, 2.09 TFLOPS, 
            (k_proj): Linear(1.64 M, 0.11% Params, 301.47 MMACs, 0.01% MACs, 116.11 us, 0.04% latency, 5.19 TFLOPS, in_features=1280, out_features=1280, bias=False)
            (v_proj): Linear(1.64 M, 0.11% Params, 301.47 MMACs, 0.01% MACs, 116.59 us, 0.04% latency, 5.17 TFLOPS, in_features=1280, out_features=1280, bias=True)
            (q_proj): Linear(1.64 M, 0.11% Params, 301.47 MMACs, 0.01% MACs, 122.79 us, 0.05% latency, 4.91 TFLOPS, in_features=1280, out_features=1280, bias=True)
            (out_proj): Linear(1.64 M, 0.11% Params, 301.47 MMACs, 0.01% MACs, 111.34 us, 0.04% latency, 5.42 TFLOPS, in_features=1280, out_features=1280, bias=True)
          )
          (activation_fn): GELUActivation(0, 0.00% Params, 0 MACs, 0.00% MACs, 76.53 us, 0.03% latency, 0.0 FLOPS, )
          (self_attn_layer_norm): LayerNorm(2.56 k, 0.00% Params, 0 MACs, 0.00% MACs, 125.41 us, 0.05% latency, 9.39 GFLOPS, (1280,), eps=1e-05, elementwise_affine=True)
          (encoder_attn): WhisperAttention(
            6.56 M, 0.42% Params, 20.97 GMACs, 0.39% MACs, 1.3 ms, 0.49% latency, 32.31 TFLOPS, 
            (k_proj): Linear(1.64 M, 0.11% Params, 9.83 GMACs, 0.18% MACs, 283.96 us, 0.11% latency, 69.24 TFLOPS, in_features=1280, out_features=1280, bias=False)
            (v_proj): Linear(1.64 M, 0.11% Params, 9.83 GMACs, 0.18% MACs, 280.38 us, 0.11% latency, 70.12 TFLOPS, in_features=1280, out_features=1280, bias=True)
            (q_proj): Linear(1.64 M, 0.11% Params, 301.47 MMACs, 0.01% MACs, 79.87 us, 0.03% latency, 7.55 TFLOPS, in_features=1280, out_features=1280, bias=True)
            (out_proj): Linear(1.64 M, 0.11% Params, 301.47 MMACs, 0.01% MACs, 123.26 us, 0.05% latency, 4.89 TFLOPS, in_features=1280, out_features=1280, bias=True)
          )
          (encoder_attn_layer_norm): LayerNorm(2.56 k, 0.00% Params, 0 MACs, 0.00% MACs, 90.36 us, 0.03% latency, 13.03 GFLOPS, (1280,), eps=1e-05, elementwise_affine=True)
          (fc1): Linear(6.56 M, 0.42% Params, 1.21 GMACs, 0.02% MACs, 119.45 us, 0.05% latency, 20.19 TFLOPS, in_features=1280, out_features=5120, bias=True)
          (fc2): Linear(6.55 M, 0.42% Params, 1.21 GMACs, 0.02% MACs, 151.16 us, 0.06% latency, 15.96 TFLOPS, in_features=5120, out_features=1280, bias=True)
          (final_layer_norm): LayerNorm(2.56 k, 0.00% Params, 0 MACs, 0.00% MACs, 79.39 us, 0.03% latency, 14.83 GFLOPS, (1280,), eps=1e-05, elementwise_affine=True)
        )
        (4): WhisperDecoderLayer(
          26.24 M, 1.70% Params, 24.61 GMACs, 0.46% MACs, 3.46 ms, 1.31% latency, 14.23 TFLOPS, 
          (self_attn): WhisperAttention(
            6.56 M, 0.42% Params, 1.23 GMACs, 0.02% MACs, 1.18 ms, 0.45% latency, 2.08 TFLOPS, 
            (k_proj): Linear(1.64 M, 0.11% Params, 301.47 MMACs, 0.01% MACs, 141.86 us, 0.05% latency, 4.25 TFLOPS, in_features=1280, out_features=1280, bias=False)
            (v_proj): Linear(1.64 M, 0.11% Params, 301.47 MMACs, 0.01% MACs, 110.39 us, 0.04% latency, 5.46 TFLOPS, in_features=1280, out_features=1280, bias=True)
            (q_proj): Linear(1.64 M, 0.11% Params, 301.47 MMACs, 0.01% MACs, 119.21 us, 0.05% latency, 5.06 TFLOPS, in_features=1280, out_features=1280, bias=True)
            (out_proj): Linear(1.64 M, 0.11% Params, 301.47 MMACs, 0.01% MACs, 197.65 us, 0.08% latency, 3.05 TFLOPS, in_features=1280, out_features=1280, bias=True)
          )
          (activation_fn): GELUActivation(0, 0.00% Params, 0 MACs, 0.00% MACs, 82.25 us, 0.03% latency, 0.0 FLOPS, )
          (self_attn_layer_norm): LayerNorm(2.56 k, 0.00% Params, 0 MACs, 0.00% MACs, 87.5 us, 0.03% latency, 13.46 GFLOPS, (1280,), eps=1e-05, elementwise_affine=True)
          (encoder_attn): WhisperAttention(
            6.56 M, 0.42% Params, 20.97 GMACs, 0.39% MACs, 1.28 ms, 0.49% latency, 32.67 TFLOPS, 
            (k_proj): Linear(1.64 M, 0.11% Params, 9.83 GMACs, 0.18% MACs, 223.16 us, 0.08% latency, 88.1 TFLOPS, in_features=1280, out_features=1280, bias=False)
            (v_proj): Linear(1.64 M, 0.11% Params, 9.83 GMACs, 0.18% MACs, 210.05 us, 0.08% latency, 93.6 TFLOPS, in_features=1280, out_features=1280, bias=True)
            (q_proj): Linear(1.64 M, 0.11% Params, 301.47 MMACs, 0.01% MACs, 112.3 us, 0.04% latency, 5.37 TFLOPS, in_features=1280, out_features=1280, bias=True)
            (out_proj): Linear(1.64 M, 0.11% Params, 301.47 MMACs, 0.01% MACs, 164.03 us, 0.06% latency, 3.68 TFLOPS, in_features=1280, out_features=1280, bias=True)
          )
          (encoder_attn_layer_norm): LayerNorm(2.56 k, 0.00% Params, 0 MACs, 0.00% MACs, 91.08 us, 0.03% latency, 12.93 GFLOPS, (1280,), eps=1e-05, elementwise_affine=True)
          (fc1): Linear(6.56 M, 0.42% Params, 1.21 GMACs, 0.02% MACs, 128.75 us, 0.05% latency, 18.73 TFLOPS, in_features=1280, out_features=5120, bias=True)
          (fc2): Linear(6.55 M, 0.42% Params, 1.21 GMACs, 0.02% MACs, 127.79 us, 0.05% latency, 18.87 TFLOPS, in_features=5120, out_features=1280, bias=True)
          (final_layer_norm): LayerNorm(2.56 k, 0.00% Params, 0 MACs, 0.00% MACs, 80.35 us, 0.03% latency, 14.66 GFLOPS, (1280,), eps=1e-05, elementwise_affine=True)
        )
        (5): WhisperDecoderLayer(
          26.24 M, 1.70% Params, 24.61 GMACs, 0.46% MACs, 3.52 ms, 1.34% latency, 13.98 TFLOPS, 
          (self_attn): WhisperAttention(
            6.56 M, 0.42% Params, 1.23 GMACs, 0.02% MACs, 1.19 ms, 0.45% latency, 2.07 TFLOPS, 
            (k_proj): Linear(1.64 M, 0.11% Params, 301.47 MMACs, 0.01% MACs, 120.16 us, 0.05% latency, 5.02 TFLOPS, in_features=1280, out_features=1280, bias=False)
            (v_proj): Linear(1.64 M, 0.11% Params, 301.47 MMACs, 0.01% MACs, 118.97 us, 0.05% latency, 5.07 TFLOPS, in_features=1280, out_features=1280, bias=True)
            (q_proj): Linear(1.64 M, 0.11% Params, 301.47 MMACs, 0.01% MACs, 124.93 us, 0.05% latency, 4.83 TFLOPS, in_features=1280, out_features=1280, bias=True)
            (out_proj): Linear(1.64 M, 0.11% Params, 301.47 MMACs, 0.01% MACs, 116.35 us, 0.04% latency, 5.18 TFLOPS, in_features=1280, out_features=1280, bias=True)
          )
          (activation_fn): GELUActivation(0, 0.00% Params, 0 MACs, 0.00% MACs, 79.87 us, 0.03% latency, 0.0 FLOPS, )
          (self_attn_layer_norm): LayerNorm(2.56 k, 0.00% Params, 0 MACs, 0.00% MACs, 92.98 us, 0.04% latency, 12.66 GFLOPS, (1280,), eps=1e-05, elementwise_affine=True)
          (encoder_attn): WhisperAttention(
            6.56 M, 0.42% Params, 20.97 GMACs, 0.39% MACs, 1.31 ms, 0.50% latency, 31.99 TFLOPS, 
            (k_proj): Linear(1.64 M, 0.11% Params, 9.83 GMACs, 0.18% MACs, 256.54 us, 0.10% latency, 76.64 TFLOPS, in_features=1280, out_features=1280, bias=False)
            (v_proj): Linear(1.64 M, 0.11% Params, 9.83 GMACs, 0.18% MACs, 257.97 us, 0.10% latency, 76.21 TFLOPS, in_features=1280, out_features=1280, bias=True)
            (q_proj): Linear(1.64 M, 0.11% Params, 301.47 MMACs, 0.01% MACs, 117.3 us, 0.04% latency, 5.14 TFLOPS, in_features=1280, out_features=1280, bias=True)
            (out_proj): Linear(1.64 M, 0.11% Params, 301.47 MMACs, 0.01% MACs, 120.4 us, 0.05% latency, 5.01 TFLOPS, in_features=1280, out_features=1280, bias=True)
          )
          (encoder_attn_layer_norm): LayerNorm(2.56 k, 0.00% Params, 0 MACs, 0.00% MACs, 91.55 us, 0.03% latency, 12.86 GFLOPS, (1280,), eps=1e-05, elementwise_affine=True)
          (fc1): Linear(6.56 M, 0.42% Params, 1.21 GMACs, 0.02% MACs, 145.2 us, 0.06% latency, 16.61 TFLOPS, in_features=1280, out_features=5120, bias=True)
          (fc2): Linear(6.55 M, 0.42% Params, 1.21 GMACs, 0.02% MACs, 144.48 us, 0.05% latency, 16.69 TFLOPS, in_features=5120, out_features=1280, bias=True)
          (final_layer_norm): LayerNorm(2.56 k, 0.00% Params, 0 MACs, 0.00% MACs, 102.28 us, 0.04% latency, 11.51 GFLOPS, (1280,), eps=1e-05, elementwise_affine=True)
        )
        (6): WhisperDecoderLayer(
          26.24 M, 1.70% Params, 24.61 GMACs, 0.46% MACs, 3.46 ms, 1.31% latency, 14.24 TFLOPS, 
          (self_attn): WhisperAttention(
            6.56 M, 0.42% Params, 1.23 GMACs, 0.02% MACs, 1.13 ms, 0.43% latency, 2.17 TFLOPS, 
            (k_proj): Linear(1.64 M, 0.11% Params, 301.47 MMACs, 0.01% MACs, 143.77 us, 0.05% latency, 4.19 TFLOPS, in_features=1280, out_features=1280, bias=False)
            (v_proj): Linear(1.64 M, 0.11% Params, 301.47 MMACs, 0.01% MACs, 118.02 us, 0.04% latency, 5.11 TFLOPS, in_features=1280, out_features=1280, bias=True)
            (q_proj): Linear(1.64 M, 0.11% Params, 301.47 MMACs, 0.01% MACs, 151.4 us, 0.06% latency, 3.98 TFLOPS, in_features=1280, out_features=1280, bias=True)
            (out_proj): Linear(1.64 M, 0.11% Params, 301.47 MMACs, 0.01% MACs, 113.01 us, 0.04% latency, 5.34 TFLOPS, in_features=1280, out_features=1280, bias=True)
          )
          (activation_fn): GELUActivation(0, 0.00% Params, 0 MACs, 0.00% MACs, 83.21 us, 0.03% latency, 0.0 FLOPS, )
          (self_attn_layer_norm): LayerNorm(2.56 k, 0.00% Params, 0 MACs, 0.00% MACs, 88.93 us, 0.03% latency, 13.24 GFLOPS, (1280,), eps=1e-05, elementwise_affine=True)
          (encoder_attn): WhisperAttention(
            6.56 M, 0.42% Params, 20.97 GMACs, 0.39% MACs, 1.37 ms, 0.52% latency, 30.51 TFLOPS, 
            (k_proj): Linear(1.64 M, 0.11% Params, 9.83 GMACs, 0.18% MACs, 277.76 us, 0.11% latency, 70.78 TFLOPS, in_features=1280, out_features=1280, bias=False)
            (v_proj): Linear(1.64 M, 0.11% Params, 9.83 GMACs, 0.18% MACs, 240.09 us, 0.09% latency, 81.89 TFLOPS, in_features=1280, out_features=1280, bias=True)
            (q_proj): Linear(1.64 M, 0.11% Params, 301.47 MMACs, 0.01% MACs, 110.86 us, 0.04% latency, 5.44 TFLOPS, in_features=1280, out_features=1280, bias=True)
            (out_proj): Linear(1.64 M, 0.11% Params, 301.47 MMACs, 0.01% MACs, 124.93 us, 0.05% latency, 4.83 TFLOPS, in_features=1280, out_features=1280, bias=True)
          )
          (encoder_attn_layer_norm): LayerNorm(2.56 k, 0.00% Params, 0 MACs, 0.00% MACs, 87.74 us, 0.03% latency, 13.42 GFLOPS, (1280,), eps=1e-05, elementwise_affine=True)
          (fc1): Linear(6.56 M, 0.42% Params, 1.21 GMACs, 0.02% MACs, 120.4 us, 0.05% latency, 20.03 TFLOPS, in_features=1280, out_features=5120, bias=True)
          (fc2): Linear(6.55 M, 0.42% Params, 1.21 GMACs, 0.02% MACs, 153.78 us, 0.06% latency, 15.68 TFLOPS, in_features=5120, out_features=1280, bias=True)
          (final_layer_norm): LayerNorm(2.56 k, 0.00% Params, 0 MACs, 0.00% MACs, 115.87 us, 0.04% latency, 10.16 GFLOPS, (1280,), eps=1e-05, elementwise_affine=True)
        )
        (7): WhisperDecoderLayer(
          26.24 M, 1.70% Params, 24.61 GMACs, 0.46% MACs, 3.44 ms, 1.31% latency, 14.29 TFLOPS, 
          (self_attn): WhisperAttention(
            6.56 M, 0.42% Params, 1.23 GMACs, 0.02% MACs, 1.09 ms, 0.42% latency, 2.24 TFLOPS, 
            (k_proj): Linear(1.64 M, 0.11% Params, 301.47 MMACs, 0.01% MACs, 115.87 us, 0.04% latency, 5.2 TFLOPS, in_features=1280, out_features=1280, bias=False)
            (v_proj): Linear(1.64 M, 0.11% Params, 301.47 MMACs, 0.01% MACs, 148.3 us, 0.06% latency, 4.07 TFLOPS, in_features=1280, out_features=1280, bias=True)
            (q_proj): Linear(1.64 M, 0.11% Params, 301.47 MMACs, 0.01% MACs, 118.97 us, 0.05% latency, 5.07 TFLOPS, in_features=1280, out_features=1280, bias=True)
            (out_proj): Linear(1.64 M, 0.11% Params, 301.47 MMACs, 0.01% MACs, 113.25 us, 0.04% latency, 5.32 TFLOPS, in_features=1280, out_features=1280, bias=True)
          )
          (activation_fn): GELUActivation(0, 0.00% Params, 0 MACs, 0.00% MACs, 84.88 us, 0.03% latency, 0.0 FLOPS, )
          (self_attn_layer_norm): LayerNorm(2.56 k, 0.00% Params, 0 MACs, 0.00% MACs, 92.27 us, 0.04% latency, 12.76 GFLOPS, (1280,), eps=1e-05, elementwise_affine=True)
          (encoder_attn): WhisperAttention(
            6.56 M, 0.42% Params, 20.97 GMACs, 0.39% MACs, 1.29 ms, 0.49% latency, 32.47 TFLOPS, 
            (k_proj): Linear(1.64 M, 0.11% Params, 9.83 GMACs, 0.18% MACs, 256.3 us, 0.10% latency, 76.71 TFLOPS, in_features=1280, out_features=1280, bias=False)
            (v_proj): Linear(1.64 M, 0.11% Params, 9.83 GMACs, 0.18% MACs, 245.81 us, 0.09% latency, 79.98 TFLOPS, in_features=1280, out_features=1280, bias=True)
            (q_proj): Linear(1.64 M, 0.11% Params, 301.47 MMACs, 0.01% MACs, 111.82 us, 0.04% latency, 5.39 TFLOPS, in_features=1280, out_features=1280, bias=True)
            (out_proj): Linear(1.64 M, 0.11% Params, 301.47 MMACs, 0.01% MACs, 127.79 us, 0.05% latency, 4.72 TFLOPS, in_features=1280, out_features=1280, bias=True)
          )
          (encoder_attn_layer_norm): LayerNorm(2.56 k, 0.00% Params, 0 MACs, 0.00% MACs, 85.59 us, 0.03% latency, 13.76 GFLOPS, (1280,), eps=1e-05, elementwise_affine=True)
          (fc1): Linear(6.56 M, 0.42% Params, 1.21 GMACs, 0.02% MACs, 187.87 us, 0.07% latency, 12.84 TFLOPS, in_features=1280, out_features=5120, bias=True)
          (fc2): Linear(6.55 M, 0.42% Params, 1.21 GMACs, 0.02% MACs, 156.4 us, 0.06% latency, 15.42 TFLOPS, in_features=5120, out_features=1280, bias=True)
          (final_layer_norm): LayerNorm(2.56 k, 0.00% Params, 0 MACs, 0.00% MACs, 85.35 us, 0.03% latency, 13.8 GFLOPS, (1280,), eps=1e-05, elementwise_affine=True)
        )
        (8): WhisperDecoderLayer(
          26.24 M, 1.70% Params, 24.61 GMACs, 0.46% MACs, 3.32 ms, 1.26% latency, 14.83 TFLOPS, 
          (self_attn): WhisperAttention(
            6.56 M, 0.42% Params, 1.23 GMACs, 0.02% MACs, 1.02 ms, 0.39% latency, 2.4 TFLOPS, 
            (k_proj): Linear(1.64 M, 0.11% Params, 301.47 MMACs, 0.01% MACs, 141.62 us, 0.05% latency, 4.26 TFLOPS, in_features=1280, out_features=1280, bias=False)
            (v_proj): Linear(1.64 M, 0.11% Params, 301.47 MMACs, 0.01% MACs, 106.57 us, 0.04% latency, 5.66 TFLOPS, in_features=1280, out_features=1280, bias=True)
            (q_proj): Linear(1.64 M, 0.11% Params, 301.47 MMACs, 0.01% MACs, 119.45 us, 0.05% latency, 5.05 TFLOPS, in_features=1280, out_features=1280, bias=True)
            (out_proj): Linear(1.64 M, 0.11% Params, 301.47 MMACs, 0.01% MACs, 78.2 us, 0.03% latency, 7.71 TFLOPS, in_features=1280, out_features=1280, bias=True)
          )
          (activation_fn): GELUActivation(0, 0.00% Params, 0 MACs, 0.00% MACs, 78.68 us, 0.03% latency, 0.0 FLOPS, )
          (self_attn_layer_norm): LayerNorm(2.56 k, 0.00% Params, 0 MACs, 0.00% MACs, 86.07 us, 0.03% latency, 13.68 GFLOPS, (1280,), eps=1e-05, elementwise_affine=True)
          (encoder_attn): WhisperAttention(
            6.56 M, 0.42% Params, 20.97 GMACs, 0.39% MACs, 1.33 ms, 0.51% latency, 31.44 TFLOPS, 
            (k_proj): Linear(1.64 M, 0.11% Params, 9.83 GMACs, 0.18% MACs, 260.11 us, 0.10% latency, 75.59 TFLOPS, in_features=1280, out_features=1280, bias=False)
            (v_proj): Linear(1.64 M, 0.11% Params, 9.83 GMACs, 0.18% MACs, 248.67 us, 0.09% latency, 79.06 TFLOPS, in_features=1280, out_features=1280, bias=True)
            (q_proj): Linear(1.64 M, 0.11% Params, 301.47 MMACs, 0.01% MACs, 105.62 us, 0.04% latency, 5.71 TFLOPS, in_features=1280, out_features=1280, bias=True)
            (out_proj): Linear(1.64 M, 0.11% Params, 301.47 MMACs, 0.01% MACs, 124.69 us, 0.05% latency, 4.84 TFLOPS, in_features=1280, out_features=1280, bias=True)
          )
          (encoder_attn_layer_norm): LayerNorm(2.56 k, 0.00% Params, 0 MACs, 0.00% MACs, 55.55 us, 0.02% latency, 21.2 GFLOPS, (1280,), eps=1e-05, elementwise_affine=True)
          (fc1): Linear(6.56 M, 0.42% Params, 1.21 GMACs, 0.02% MACs, 79.39 us, 0.03% latency, 30.38 TFLOPS, in_features=1280, out_features=5120, bias=True)
          (fc2): Linear(6.55 M, 0.42% Params, 1.21 GMACs, 0.02% MACs, 153.06 us, 0.06% latency, 15.76 TFLOPS, in_features=5120, out_features=1280, bias=True)
          (final_layer_norm): LayerNorm(2.56 k, 0.00% Params, 0 MACs, 0.00% MACs, 84.4 us, 0.03% latency, 13.95 GFLOPS, (1280,), eps=1e-05, elementwise_affine=True)
        )
        (9): WhisperDecoderLayer(
          26.24 M, 1.70% Params, 24.61 GMACs, 0.46% MACs, 3.62 ms, 1.37% latency, 13.61 TFLOPS, 
          (self_attn): WhisperAttention(
            6.56 M, 0.42% Params, 1.23 GMACs, 0.02% MACs, 1.19 ms, 0.45% latency, 2.06 TFLOPS, 
            (k_proj): Linear(1.64 M, 0.11% Params, 301.47 MMACs, 0.01% MACs, 123.02 us, 0.05% latency, 4.9 TFLOPS, in_features=1280, out_features=1280, bias=False)
            (v_proj): Linear(1.64 M, 0.11% Params, 301.47 MMACs, 0.01% MACs, 110.63 us, 0.04% latency, 5.45 TFLOPS, in_features=1280, out_features=1280, bias=True)
            (q_proj): Linear(1.64 M, 0.11% Params, 301.47 MMACs, 0.01% MACs, 116.11 us, 0.04% latency, 5.19 TFLOPS, in_features=1280, out_features=1280, bias=True)
            (out_proj): Linear(1.64 M, 0.11% Params, 301.47 MMACs, 0.01% MACs, 144.72 us, 0.05% latency, 4.17 TFLOPS, in_features=1280, out_features=1280, bias=True)
          )
          (activation_fn): GELUActivation(0, 0.00% Params, 0 MACs, 0.00% MACs, 80.11 us, 0.03% latency, 0.0 FLOPS, )
          (self_attn_layer_norm): LayerNorm(2.56 k, 0.00% Params, 0 MACs, 0.00% MACs, 54.84 us, 0.02% latency, 21.47 GFLOPS, (1280,), eps=1e-05, elementwise_affine=True)
          (encoder_attn): WhisperAttention(
            6.56 M, 0.42% Params, 20.97 GMACs, 0.39% MACs, 1.27 ms, 0.48% latency, 33.05 TFLOPS, 
            (k_proj): Linear(1.64 M, 0.11% Params, 9.83 GMACs, 0.18% MACs, 242.71 us, 0.09% latency, 81.01 TFLOPS, in_features=1280, out_features=1280, bias=False)
            (v_proj): Linear(1.64 M, 0.11% Params, 9.83 GMACs, 0.18% MACs, 246.52 us, 0.09% latency, 79.75 TFLOPS, in_features=1280, out_features=1280, bias=True)
            (q_proj): Linear(1.64 M, 0.11% Params, 301.47 MMACs, 0.01% MACs, 85.35 us, 0.03% latency, 7.06 TFLOPS, in_features=1280, out_features=1280, bias=True)
            (out_proj): Linear(1.64 M, 0.11% Params, 301.47 MMACs, 0.01% MACs, 115.87 us, 0.04% latency, 5.2 TFLOPS, in_features=1280, out_features=1280, bias=True)
          )
          (encoder_attn_layer_norm): LayerNorm(2.56 k, 0.00% Params, 0 MACs, 0.00% MACs, 93.94 us, 0.04% latency, 12.54 GFLOPS, (1280,), eps=1e-05, elementwise_affine=True)
          (fc1): Linear(6.56 M, 0.42% Params, 1.21 GMACs, 0.02% MACs, 130.65 us, 0.05% latency, 18.46 TFLOPS, in_features=1280, out_features=5120, bias=True)
          (fc2): Linear(6.55 M, 0.42% Params, 1.21 GMACs, 0.02% MACs, 142.57 us, 0.05% latency, 16.92 TFLOPS, in_features=5120, out_features=1280, bias=True)
          (final_layer_norm): LayerNorm(2.56 k, 0.00% Params, 0 MACs, 0.00% MACs, 86.31 us, 0.03% latency, 13.64 GFLOPS, (1280,), eps=1e-05, elementwise_affine=True)
        )
        (10): WhisperDecoderLayer(
          26.24 M, 1.70% Params, 24.61 GMACs, 0.46% MACs, 3.28 ms, 1.25% latency, 15.0 TFLOPS, 
          (self_attn): WhisperAttention(
            6.56 M, 0.42% Params, 1.23 GMACs, 0.02% MACs, 1.08 ms, 0.41% latency, 2.28 TFLOPS, 
            (k_proj): Linear(1.64 M, 0.11% Params, 301.47 MMACs, 0.01% MACs, 111.1 us, 0.04% latency, 5.43 TFLOPS, in_features=1280, out_features=1280, bias=False)
            (v_proj): Linear(1.64 M, 0.11% Params, 301.47 MMACs, 0.01% MACs, 104.43 us, 0.04% latency, 5.77 TFLOPS, in_features=1280, out_features=1280, bias=True)
            (q_proj): Linear(1.64 M, 0.11% Params, 301.47 MMACs, 0.01% MACs, 109.91 us, 0.04% latency, 5.49 TFLOPS, in_features=1280, out_features=1280, bias=True)
            (out_proj): Linear(1.64 M, 0.11% Params, 301.47 MMACs, 0.01% MACs, 113.01 us, 0.04% latency, 5.34 TFLOPS, in_features=1280, out_features=1280, bias=True)
          )
          (activation_fn): GELUActivation(0, 0.00% Params, 0 MACs, 0.00% MACs, 88.21 us, 0.03% latency, 0.0 FLOPS, )
          (self_attn_layer_norm): LayerNorm(2.56 k, 0.00% Params, 0 MACs, 0.00% MACs, 55.55 us, 0.02% latency, 21.2 GFLOPS, (1280,), eps=1e-05, elementwise_affine=True)
          (encoder_attn): WhisperAttention(
            6.56 M, 0.42% Params, 20.97 GMACs, 0.39% MACs, 1.26 ms, 0.48% latency, 33.35 TFLOPS, 
            (k_proj): Linear(1.64 M, 0.11% Params, 9.83 GMACs, 0.18% MACs, 222.44 us, 0.08% latency, 88.39 TFLOPS, in_features=1280, out_features=1280, bias=False)
            (v_proj): Linear(1.64 M, 0.11% Params, 9.83 GMACs, 0.18% MACs, 245.81 us, 0.09% latency, 79.98 TFLOPS, in_features=1280, out_features=1280, bias=True)
            (q_proj): Linear(1.64 M, 0.11% Params, 301.47 MMACs, 0.01% MACs, 112.77 us, 0.04% latency, 5.35 TFLOPS, in_features=1280, out_features=1280, bias=True)
            (out_proj): Linear(1.64 M, 0.11% Params, 301.47 MMACs, 0.01% MACs, 122.55 us, 0.05% latency, 4.92 TFLOPS, in_features=1280, out_features=1280, bias=True)
          )
          (encoder_attn_layer_norm): LayerNorm(2.56 k, 0.00% Params, 0 MACs, 0.00% MACs, 94.41 us, 0.04% latency, 12.47 GFLOPS, (1280,), eps=1e-05, elementwise_affine=True)
          (fc1): Linear(6.56 M, 0.42% Params, 1.21 GMACs, 0.02% MACs, 118.26 us, 0.04% latency, 20.39 TFLOPS, in_features=1280, out_features=5120, bias=True)
          (fc2): Linear(6.55 M, 0.42% Params, 1.21 GMACs, 0.02% MACs, 145.67 us, 0.06% latency, 16.56 TFLOPS, in_features=5120, out_features=1280, bias=True)
          (final_layer_norm): LayerNorm(2.56 k, 0.00% Params, 0 MACs, 0.00% MACs, 88.45 us, 0.03% latency, 13.31 GFLOPS, (1280,), eps=1e-05, elementwise_affine=True)
        )
        (11): WhisperDecoderLayer(
          26.24 M, 1.70% Params, 24.61 GMACs, 0.46% MACs, 3.2 ms, 1.22% latency, 15.38 TFLOPS, 
          (self_attn): WhisperAttention(
            6.56 M, 0.42% Params, 1.23 GMACs, 0.02% MACs, 962.73 us, 0.37% latency, 2.55 TFLOPS, 
            (k_proj): Linear(1.64 M, 0.11% Params, 301.47 MMACs, 0.01% MACs, 83.68 us, 0.03% latency, 7.2 TFLOPS, in_features=1280, out_features=1280, bias=False)
            (v_proj): Linear(1.64 M, 0.11% Params, 301.47 MMACs, 0.01% MACs, 103.71 us, 0.04% latency, 5.81 TFLOPS, in_features=1280, out_features=1280, bias=True)
            (q_proj): Linear(1.64 M, 0.11% Params, 301.47 MMACs, 0.01% MACs, 109.2 us, 0.04% latency, 5.52 TFLOPS, in_features=1280, out_features=1280, bias=True)
            (out_proj): Linear(1.64 M, 0.11% Params, 301.47 MMACs, 0.01% MACs, 103.24 us, 0.04% latency, 5.84 TFLOPS, in_features=1280, out_features=1280, bias=True)
          )
          (activation_fn): GELUActivation(0, 0.00% Params, 0 MACs, 0.00% MACs, 83.92 us, 0.03% latency, 0.0 FLOPS, )
          (self_attn_layer_norm): LayerNorm(2.56 k, 0.00% Params, 0 MACs, 0.00% MACs, 56.03 us, 0.02% latency, 21.02 GFLOPS, (1280,), eps=1e-05, elementwise_affine=True)
          (encoder_attn): WhisperAttention(
            6.56 M, 0.42% Params, 20.97 GMACs, 0.39% MACs, 1.27 ms, 0.48% latency, 32.97 TFLOPS, 
            (k_proj): Linear(1.64 M, 0.11% Params, 9.83 GMACs, 0.18% MACs, 286.1 us, 0.11% latency, 68.72 TFLOPS, in_features=1280, out_features=1280, bias=False)
            (v_proj): Linear(1.64 M, 0.11% Params, 9.83 GMACs, 0.18% MACs, 223.16 us, 0.08% latency, 88.1 TFLOPS, in_features=1280, out_features=1280, bias=True)
            (q_proj): Linear(1.64 M, 0.11% Params, 301.47 MMACs, 0.01% MACs, 104.9 us, 0.04% latency, 5.75 TFLOPS, in_features=1280, out_features=1280, bias=True)
            (out_proj): Linear(1.64 M, 0.11% Params, 301.47 MMACs, 0.01% MACs, 122.55 us, 0.05% latency, 4.92 TFLOPS, in_features=1280, out_features=1280, bias=True)
          )
          (encoder_attn_layer_norm): LayerNorm(2.56 k, 0.00% Params, 0 MACs, 0.00% MACs, 89.65 us, 0.03% latency, 13.14 GFLOPS, (1280,), eps=1e-05, elementwise_affine=True)
          (fc1): Linear(6.56 M, 0.42% Params, 1.21 GMACs, 0.02% MACs, 122.55 us, 0.05% latency, 19.68 TFLOPS, in_features=1280, out_features=5120, bias=True)
          (fc2): Linear(6.55 M, 0.42% Params, 1.21 GMACs, 0.02% MACs, 144.0 us, 0.05% latency, 16.75 TFLOPS, in_features=5120, out_features=1280, bias=True)
          (final_layer_norm): LayerNorm(2.56 k, 0.00% Params, 0 MACs, 0.00% MACs, 88.45 us, 0.03% latency, 13.31 GFLOPS, (1280,), eps=1e-05, elementwise_affine=True)
        )
        (12): WhisperDecoderLayer(
          26.24 M, 1.70% Params, 24.61 GMACs, 0.46% MACs, 3.4 ms, 1.29% latency, 14.49 TFLOPS, 
          (self_attn): WhisperAttention(
            6.56 M, 0.42% Params, 1.23 GMACs, 0.02% MACs, 1.07 ms, 0.41% latency, 2.29 TFLOPS, 
            (k_proj): Linear(1.64 M, 0.11% Params, 301.47 MMACs, 0.01% MACs, 113.73 us, 0.04% latency, 5.3 TFLOPS, in_features=1280, out_features=1280, bias=False)
            (v_proj): Linear(1.64 M, 0.11% Params, 301.47 MMACs, 0.01% MACs, 110.39 us, 0.04% latency, 5.46 TFLOPS, in_features=1280, out_features=1280, bias=True)
            (q_proj): Linear(1.64 M, 0.11% Params, 301.47 MMACs, 0.01% MACs, 113.96 us, 0.04% latency, 5.29 TFLOPS, in_features=1280, out_features=1280, bias=True)
            (out_proj): Linear(1.64 M, 0.11% Params, 301.47 MMACs, 0.01% MACs, 110.86 us, 0.04% latency, 5.44 TFLOPS, in_features=1280, out_features=1280, bias=True)
          )
          (activation_fn): GELUActivation(0, 0.00% Params, 0 MACs, 0.00% MACs, 83.92 us, 0.03% latency, 0.0 FLOPS, )
          (self_attn_layer_norm): LayerNorm(2.56 k, 0.00% Params, 0 MACs, 0.00% MACs, 89.41 us, 0.03% latency, 13.17 GFLOPS, (1280,), eps=1e-05, elementwise_affine=True)
          (encoder_attn): WhisperAttention(
            6.56 M, 0.42% Params, 20.97 GMACs, 0.39% MACs, 1.32 ms, 0.50% latency, 31.68 TFLOPS, 
            (k_proj): Linear(1.64 M, 0.11% Params, 9.83 GMACs, 0.18% MACs, 222.68 us, 0.08% latency, 88.29 TFLOPS, in_features=1280, out_features=1280, bias=False)
            (v_proj): Linear(1.64 M, 0.11% Params, 9.83 GMACs, 0.18% MACs, 236.99 us, 0.09% latency, 82.96 TFLOPS, in_features=1280, out_features=1280, bias=True)
            (q_proj): Linear(1.64 M, 0.11% Params, 301.47 MMACs, 0.01% MACs, 110.63 us, 0.04% latency, 5.45 TFLOPS, in_features=1280, out_features=1280, bias=True)
            (out_proj): Linear(1.64 M, 0.11% Params, 301.47 MMACs, 0.01% MACs, 123.5 us, 0.05% latency, 4.88 TFLOPS, in_features=1280, out_features=1280, bias=True)
          )
          (encoder_attn_layer_norm): LayerNorm(2.56 k, 0.00% Params, 0 MACs, 0.00% MACs, 85.59 us, 0.03% latency, 13.76 GFLOPS, (1280,), eps=1e-05, elementwise_affine=True)
          (fc1): Linear(6.56 M, 0.42% Params, 1.21 GMACs, 0.02% MACs, 118.73 us, 0.05% latency, 20.31 TFLOPS, in_features=1280, out_features=5120, bias=True)
          (fc2): Linear(6.55 M, 0.42% Params, 1.21 GMACs, 0.02% MACs, 147.1 us, 0.06% latency, 16.39 TFLOPS, in_features=5120, out_features=1280, bias=True)
          (final_layer_norm): LayerNorm(2.56 k, 0.00% Params, 0 MACs, 0.00% MACs, 87.98 us, 0.03% latency, 13.39 GFLOPS, (1280,), eps=1e-05, elementwise_affine=True)
        )
        (13): WhisperDecoderLayer(
          26.24 M, 1.70% Params, 24.61 GMACs, 0.46% MACs, 3.76 ms, 1.43% latency, 13.11 TFLOPS, 
          (self_attn): WhisperAttention(
            6.56 M, 0.42% Params, 1.23 GMACs, 0.02% MACs, 1.12 ms, 0.42% latency, 2.2 TFLOPS, 
            (k_proj): Linear(1.64 M, 0.11% Params, 301.47 MMACs, 0.01% MACs, 114.68 us, 0.04% latency, 5.26 TFLOPS, in_features=1280, out_features=1280, bias=False)
            (v_proj): Linear(1.64 M, 0.11% Params, 301.47 MMACs, 0.01% MACs, 115.63 us, 0.04% latency, 5.21 TFLOPS, in_features=1280, out_features=1280, bias=True)
            (q_proj): Linear(1.64 M, 0.11% Params, 301.47 MMACs, 0.01% MACs, 123.5 us, 0.05% latency, 4.88 TFLOPS, in_features=1280, out_features=1280, bias=True)
            (out_proj): Linear(1.64 M, 0.11% Params, 301.47 MMACs, 0.01% MACs, 103.0 us, 0.04% latency, 5.85 TFLOPS, in_features=1280, out_features=1280, bias=True)
          )
          (activation_fn): GELUActivation(0, 0.00% Params, 0 MACs, 0.00% MACs, 303.75 us, 0.12% latency, 0.0 FLOPS, )
          (self_attn_layer_norm): LayerNorm(2.56 k, 0.00% Params, 0 MACs, 0.00% MACs, 90.36 us, 0.03% latency, 13.03 GFLOPS, (1280,), eps=1e-05, elementwise_affine=True)
          (encoder_attn): WhisperAttention(
            6.56 M, 0.42% Params, 20.97 GMACs, 0.39% MACs, 1.31 ms, 0.50% latency, 31.99 TFLOPS, 
            (k_proj): Linear(1.64 M, 0.11% Params, 9.83 GMACs, 0.18% MACs, 221.25 us, 0.08% latency, 88.86 TFLOPS, in_features=1280, out_features=1280, bias=False)
            (v_proj): Linear(1.64 M, 0.11% Params, 9.83 GMACs, 0.18% MACs, 254.39 us, 0.10% latency, 77.29 TFLOPS, in_features=1280, out_features=1280, bias=True)
            (q_proj): Linear(1.64 M, 0.11% Params, 301.47 MMACs, 0.01% MACs, 108.0 us, 0.04% latency, 5.58 TFLOPS, in_features=1280, out_features=1280, bias=True)
            (out_proj): Linear(1.64 M, 0.11% Params, 301.47 MMACs, 0.01% MACs, 93.94 us, 0.04% latency, 6.42 TFLOPS, in_features=1280, out_features=1280, bias=True)
          )
          (encoder_attn_layer_norm): LayerNorm(2.56 k, 0.00% Params, 0 MACs, 0.00% MACs, 113.49 us, 0.04% latency, 10.38 GFLOPS, (1280,), eps=1e-05, elementwise_affine=True)
          (fc1): Linear(6.56 M, 0.42% Params, 1.21 GMACs, 0.02% MACs, 141.86 us, 0.05% latency, 17.0 TFLOPS, in_features=1280, out_features=5120, bias=True)
          (fc2): Linear(6.55 M, 0.42% Params, 1.21 GMACs, 0.02% MACs, 186.2 us, 0.07% latency, 12.95 TFLOPS, in_features=5120, out_features=1280, bias=True)
          (final_layer_norm): LayerNorm(2.56 k, 0.00% Params, 0 MACs, 0.00% MACs, 85.83 us, 0.03% latency, 13.72 GFLOPS, (1280,), eps=1e-05, elementwise_affine=True)
        )
        (14): WhisperDecoderLayer(
          26.24 M, 1.70% Params, 24.61 GMACs, 0.46% MACs, 2.1 ms, 0.80% latency, 23.44 TFLOPS, 
          (self_attn): WhisperAttention(
            6.56 M, 0.42% Params, 1.23 GMACs, 0.02% MACs, 674.01 us, 0.26% latency, 3.64 TFLOPS, 
            (k_proj): Linear(1.64 M, 0.11% Params, 301.47 MMACs, 0.01% MACs, 91.31 us, 0.03% latency, 6.6 TFLOPS, in_features=1280, out_features=1280, bias=False)
            (v_proj): Linear(1.64 M, 0.11% Params, 301.47 MMACs, 0.01% MACs, 64.85 us, 0.02% latency, 9.3 TFLOPS, in_features=1280, out_features=1280, bias=True)
            (q_proj): Linear(1.64 M, 0.11% Params, 301.47 MMACs, 0.01% MACs, 128.03 us, 0.05% latency, 4.71 TFLOPS, in_features=1280, out_features=1280, bias=True)
            (out_proj): Linear(1.64 M, 0.11% Params, 301.47 MMACs, 0.01% MACs, 63.18 us, 0.02% latency, 9.54 TFLOPS, in_features=1280, out_features=1280, bias=True)
          )
          (activation_fn): GELUActivation(0, 0.00% Params, 0 MACs, 0.00% MACs, 43.63 us, 0.02% latency, 0.0 FLOPS, )
          (self_attn_layer_norm): LayerNorm(2.56 k, 0.00% Params, 0 MACs, 0.00% MACs, 71.29 us, 0.03% latency, 16.52 GFLOPS, (1280,), eps=1e-05, elementwise_affine=True)
          (encoder_attn): WhisperAttention(
            6.56 M, 0.42% Params, 20.97 GMACs, 0.39% MACs, 840.19 us, 0.32% latency, 49.92 TFLOPS, 
            (k_proj): Linear(1.64 M, 0.11% Params, 9.83 GMACs, 0.18% MACs, 207.42 us, 0.08% latency, 94.79 TFLOPS, in_features=1280, out_features=1280, bias=False)
            (v_proj): Linear(1.64 M, 0.11% Params, 9.83 GMACs, 0.18% MACs, 200.03 us, 0.08% latency, 98.29 TFLOPS, in_features=1280, out_features=1280, bias=True)
            (q_proj): Linear(1.64 M, 0.11% Params, 301.47 MMACs, 0.01% MACs, 59.84 us, 0.02% latency, 10.08 TFLOPS, in_features=1280, out_features=1280, bias=True)
            (out_proj): Linear(1.64 M, 0.11% Params, 301.47 MMACs, 0.01% MACs, 73.43 us, 0.03% latency, 8.21 TFLOPS, in_features=1280, out_features=1280, bias=True)
          )
          (encoder_attn_layer_norm): LayerNorm(2.56 k, 0.00% Params, 0 MACs, 0.00% MACs, 50.07 us, 0.02% latency, 23.52 GFLOPS, (1280,), eps=1e-05, elementwise_affine=True)
          (fc1): Linear(6.56 M, 0.42% Params, 1.21 GMACs, 0.02% MACs, 71.53 us, 0.03% latency, 33.72 TFLOPS, in_features=1280, out_features=5120, bias=True)
          (fc2): Linear(6.55 M, 0.42% Params, 1.21 GMACs, 0.02% MACs, 111.82 us, 0.04% latency, 21.57 TFLOPS, in_features=5120, out_features=1280, bias=True)
          (final_layer_norm): LayerNorm(2.56 k, 0.00% Params, 0 MACs, 0.00% MACs, 45.06 us, 0.02% latency, 26.13 GFLOPS, (1280,), eps=1e-05, elementwise_affine=True)
        )
        (15): WhisperDecoderLayer(
          26.24 M, 1.70% Params, 24.61 GMACs, 0.46% MACs, 1.96 ms, 0.74% latency, 25.16 TFLOPS, 
          (self_attn): WhisperAttention(
            6.56 M, 0.42% Params, 1.23 GMACs, 0.02% MACs, 499.25 us, 0.19% latency, 4.92 TFLOPS, 
            (k_proj): Linear(1.64 M, 0.11% Params, 301.47 MMACs, 0.01% MACs, 65.09 us, 0.02% latency, 9.26 TFLOPS, in_features=1280, out_features=1280, bias=False)
            (v_proj): Linear(1.64 M, 0.11% Params, 301.47 MMACs, 0.01% MACs, 59.6 us, 0.02% latency, 10.12 TFLOPS, in_features=1280, out_features=1280, bias=True)
            (q_proj): Linear(1.64 M, 0.11% Params, 301.47 MMACs, 0.01% MACs, 65.33 us, 0.02% latency, 9.23 TFLOPS, in_features=1280, out_features=1280, bias=True)
            (out_proj): Linear(1.64 M, 0.11% Params, 301.47 MMACs, 0.01% MACs, 62.23 us, 0.02% latency, 9.69 TFLOPS, in_features=1280, out_features=1280, bias=True)
          )
          (activation_fn): GELUActivation(0, 0.00% Params, 0 MACs, 0.00% MACs, 44.35 us, 0.02% latency, 0.0 FLOPS, )
          (self_attn_layer_norm): LayerNorm(2.56 k, 0.00% Params, 0 MACs, 0.00% MACs, 47.45 us, 0.02% latency, 24.82 GFLOPS, (1280,), eps=1e-05, elementwise_affine=True)
          (encoder_attn): WhisperAttention(
            6.56 M, 0.42% Params, 20.97 GMACs, 0.39% MACs, 824.93 us, 0.31% latency, 50.85 TFLOPS, 
            (k_proj): Linear(1.64 M, 0.11% Params, 9.83 GMACs, 0.18% MACs, 208.62 us, 0.08% latency, 94.24 TFLOPS, in_features=1280, out_features=1280, bias=False)
            (v_proj): Linear(1.64 M, 0.11% Params, 9.83 GMACs, 0.18% MACs, 202.42 us, 0.08% latency, 97.13 TFLOPS, in_features=1280, out_features=1280, bias=True)
            (q_proj): Linear(1.64 M, 0.11% Params, 301.47 MMACs, 0.01% MACs, 55.31 us, 0.02% latency, 10.9 TFLOPS, in_features=1280, out_features=1280, bias=True)
            (out_proj): Linear(1.64 M, 0.11% Params, 301.47 MMACs, 0.01% MACs, 82.73 us, 0.03% latency, 7.29 TFLOPS, in_features=1280, out_features=1280, bias=True)
          )
          (encoder_attn_layer_norm): LayerNorm(2.56 k, 0.00% Params, 0 MACs, 0.00% MACs, 44.11 us, 0.02% latency, 26.7 GFLOPS, (1280,), eps=1e-05, elementwise_affine=True)
          (fc1): Linear(6.56 M, 0.42% Params, 1.21 GMACs, 0.02% MACs, 89.41 us, 0.03% latency, 26.97 TFLOPS, in_features=1280, out_features=5120, bias=True)
          (fc2): Linear(6.55 M, 0.42% Params, 1.21 GMACs, 0.02% MACs, 165.22 us, 0.06% latency, 14.6 TFLOPS, in_features=5120, out_features=1280, bias=True)
          (final_layer_norm): LayerNorm(2.56 k, 0.00% Params, 0 MACs, 0.00% MACs, 45.3 us, 0.02% latency, 26.0 GFLOPS, (1280,), eps=1e-05, elementwise_affine=True)
        )
        (16): WhisperDecoderLayer(
          26.24 M, 1.70% Params, 24.61 GMACs, 0.46% MACs, 1.79 ms, 0.68% latency, 27.5 TFLOPS, 
          (self_attn): WhisperAttention(
            6.56 M, 0.42% Params, 1.23 GMACs, 0.02% MACs, 484.23 us, 0.18% latency, 5.07 TFLOPS, 
            (k_proj): Linear(1.64 M, 0.11% Params, 301.47 MMACs, 0.01% MACs, 63.66 us, 0.02% latency, 9.47 TFLOPS, in_features=1280, out_features=1280, bias=False)
            (v_proj): Linear(1.64 M, 0.11% Params, 301.47 MMACs, 0.01% MACs, 53.88 us, 0.02% latency, 11.19 TFLOPS, in_features=1280, out_features=1280, bias=True)
            (q_proj): Linear(1.64 M, 0.11% Params, 301.47 MMACs, 0.01% MACs, 67.0 us, 0.03% latency, 9.0 TFLOPS, in_features=1280, out_features=1280, bias=True)
            (out_proj): Linear(1.64 M, 0.11% Params, 301.47 MMACs, 0.01% MACs, 58.65 us, 0.02% latency, 10.28 TFLOPS, in_features=1280, out_features=1280, bias=True)
          )
          (activation_fn): GELUActivation(0, 0.00% Params, 0 MACs, 0.00% MACs, 41.01 us, 0.02% latency, 0.0 FLOPS, )
          (self_attn_layer_norm): LayerNorm(2.56 k, 0.00% Params, 0 MACs, 0.00% MACs, 45.54 us, 0.02% latency, 25.86 GFLOPS, (1280,), eps=1e-05, elementwise_affine=True)
          (encoder_attn): WhisperAttention(
            6.56 M, 0.42% Params, 20.97 GMACs, 0.39% MACs, 782.97 us, 0.30% latency, 53.57 TFLOPS, 
            (k_proj): Linear(1.64 M, 0.11% Params, 9.83 GMACs, 0.18% MACs, 205.52 us, 0.08% latency, 95.67 TFLOPS, in_features=1280, out_features=1280, bias=False)
            (v_proj): Linear(1.64 M, 0.11% Params, 9.83 GMACs, 0.18% MACs, 195.26 us, 0.07% latency, 100.69 TFLOPS, in_features=1280, out_features=1280, bias=True)
            (q_proj): Linear(1.64 M, 0.11% Params, 301.47 MMACs, 0.01% MACs, 57.46 us, 0.02% latency, 10.49 TFLOPS, in_features=1280, out_features=1280, bias=True)
            (out_proj): Linear(1.64 M, 0.11% Params, 301.47 MMACs, 0.01% MACs, 72.96 us, 0.03% latency, 8.26 TFLOPS, in_features=1280, out_features=1280, bias=True)
          )
          (encoder_attn_layer_norm): LayerNorm(2.56 k, 0.00% Params, 0 MACs, 0.00% MACs, 38.86 us, 0.01% latency, 30.3 GFLOPS, (1280,), eps=1e-05, elementwise_affine=True)
          (fc1): Linear(6.56 M, 0.42% Params, 1.21 GMACs, 0.02% MACs, 65.8 us, 0.02% latency, 36.65 TFLOPS, in_features=1280, out_features=5120, bias=True)
          (fc2): Linear(6.55 M, 0.42% Params, 1.21 GMACs, 0.02% MACs, 106.81 us, 0.04% latency, 22.58 TFLOPS, in_features=5120, out_features=1280, bias=True)
          (final_layer_norm): LayerNorm(2.56 k, 0.00% Params, 0 MACs, 0.00% MACs, 39.82 us, 0.02% latency, 29.58 GFLOPS, (1280,), eps=1e-05, elementwise_affine=True)
        )
        (17): WhisperDecoderLayer(
          26.24 M, 1.70% Params, 24.61 GMACs, 0.46% MACs, 1.78 ms, 0.68% latency, 27.62 TFLOPS, 
          (self_attn): WhisperAttention(
            6.56 M, 0.42% Params, 1.23 GMACs, 0.02% MACs, 479.46 us, 0.18% latency, 5.12 TFLOPS, 
            (k_proj): Linear(1.64 M, 0.11% Params, 301.47 MMACs, 0.01% MACs, 62.7 us, 0.02% latency, 9.62 TFLOPS, in_features=1280, out_features=1280, bias=False)
            (v_proj): Linear(1.64 M, 0.11% Params, 301.47 MMACs, 0.01% MACs, 56.27 us, 0.02% latency, 10.72 TFLOPS, in_features=1280, out_features=1280, bias=True)
            (q_proj): Linear(1.64 M, 0.11% Params, 301.47 MMACs, 0.01% MACs, 63.9 us, 0.02% latency, 9.44 TFLOPS, in_features=1280, out_features=1280, bias=True)
            (out_proj): Linear(1.64 M, 0.11% Params, 301.47 MMACs, 0.01% MACs, 62.23 us, 0.02% latency, 9.69 TFLOPS, in_features=1280, out_features=1280, bias=True)
          )
          (activation_fn): GELUActivation(0, 0.00% Params, 0 MACs, 0.00% MACs, 46.01 us, 0.02% latency, 0.0 FLOPS, )
          (self_attn_layer_norm): LayerNorm(2.56 k, 0.00% Params, 0 MACs, 0.00% MACs, 45.54 us, 0.02% latency, 25.86 GFLOPS, (1280,), eps=1e-05, elementwise_affine=True)
          (encoder_attn): WhisperAttention(
            6.56 M, 0.42% Params, 20.97 GMACs, 0.39% MACs, 786.78 us, 0.30% latency, 53.31 TFLOPS, 
            (k_proj): Linear(1.64 M, 0.11% Params, 9.83 GMACs, 0.18% MACs, 206.71 us, 0.08% latency, 95.11 TFLOPS, in_features=1280, out_features=1280, bias=False)
            (v_proj): Linear(1.64 M, 0.11% Params, 9.83 GMACs, 0.18% MACs, 196.93 us, 0.07% latency, 99.83 TFLOPS, in_features=1280, out_features=1280, bias=True)
            (q_proj): Linear(1.64 M, 0.11% Params, 301.47 MMACs, 0.01% MACs, 58.17 us, 0.02% latency, 10.36 TFLOPS, in_features=1280, out_features=1280, bias=True)
            (out_proj): Linear(1.64 M, 0.11% Params, 301.47 MMACs, 0.01% MACs, 69.14 us, 0.03% latency, 8.72 TFLOPS, in_features=1280, out_features=1280, bias=True)
          )
          (encoder_attn_layer_norm): LayerNorm(2.56 k, 0.00% Params, 0 MACs, 0.00% MACs, 38.62 us, 0.01% latency, 30.49 GFLOPS, (1280,), eps=1e-05, elementwise_affine=True)
          (fc1): Linear(6.56 M, 0.42% Params, 1.21 GMACs, 0.02% MACs, 63.66 us, 0.02% latency, 37.89 TFLOPS, in_features=1280, out_features=5120, bias=True)
          (fc2): Linear(6.55 M, 0.42% Params, 1.21 GMACs, 0.02% MACs, 110.15 us, 0.04% latency, 21.9 TFLOPS, in_features=5120, out_features=1280, bias=True)
          (final_layer_norm): LayerNorm(2.56 k, 0.00% Params, 0 MACs, 0.00% MACs, 39.34 us, 0.01% latency, 29.93 GFLOPS, (1280,), eps=1e-05, elementwise_affine=True)
        )
        (18): WhisperDecoderLayer(
          26.24 M, 1.70% Params, 24.61 GMACs, 0.46% MACs, 1.78 ms, 0.68% latency, 27.6 TFLOPS, 
          (self_attn): WhisperAttention(
            6.56 M, 0.42% Params, 1.23 GMACs, 0.02% MACs, 476.6 us, 0.18% latency, 5.15 TFLOPS, 
            (k_proj): Linear(1.64 M, 0.11% Params, 301.47 MMACs, 0.01% MACs, 64.13 us, 0.02% latency, 9.4 TFLOPS, in_features=1280, out_features=1280, bias=False)
            (v_proj): Linear(1.64 M, 0.11% Params, 301.47 MMACs, 0.01% MACs, 55.79 us, 0.02% latency, 10.81 TFLOPS, in_features=1280, out_features=1280, bias=True)
            (q_proj): Linear(1.64 M, 0.11% Params, 301.47 MMACs, 0.01% MACs, 61.75 us, 0.02% latency, 9.76 TFLOPS, in_features=1280, out_features=1280, bias=True)
            (out_proj): Linear(1.64 M, 0.11% Params, 301.47 MMACs, 0.01% MACs, 57.46 us, 0.02% latency, 10.49 TFLOPS, in_features=1280, out_features=1280, bias=True)
          )
          (activation_fn): GELUActivation(0, 0.00% Params, 0 MACs, 0.00% MACs, 40.29 us, 0.02% latency, 0.0 FLOPS, )
          (self_attn_layer_norm): LayerNorm(2.56 k, 0.00% Params, 0 MACs, 0.00% MACs, 44.82 us, 0.02% latency, 26.27 GFLOPS, (1280,), eps=1e-05, elementwise_affine=True)
          (encoder_attn): WhisperAttention(
            6.56 M, 0.42% Params, 20.97 GMACs, 0.39% MACs, 801.8 us, 0.30% latency, 52.31 TFLOPS, 
            (k_proj): Linear(1.64 M, 0.11% Params, 9.83 GMACs, 0.18% MACs, 204.8 us, 0.08% latency, 96.0 TFLOPS, in_features=1280, out_features=1280, bias=False)
            (v_proj): Linear(1.64 M, 0.11% Params, 9.83 GMACs, 0.18% MACs, 193.83 us, 0.07% latency, 101.43 TFLOPS, in_features=1280, out_features=1280, bias=True)
            (q_proj): Linear(1.64 M, 0.11% Params, 301.47 MMACs, 0.01% MACs, 61.04 us, 0.02% latency, 9.88 TFLOPS, in_features=1280, out_features=1280, bias=True)
            (out_proj): Linear(1.64 M, 0.11% Params, 301.47 MMACs, 0.01% MACs, 72.96 us, 0.03% latency, 8.26 TFLOPS, in_features=1280, out_features=1280, bias=True)
          )
          (encoder_attn_layer_norm): LayerNorm(2.56 k, 0.00% Params, 0 MACs, 0.00% MACs, 39.1 us, 0.01% latency, 30.12 GFLOPS, (1280,), eps=1e-05, elementwise_affine=True)
          (fc1): Linear(6.56 M, 0.42% Params, 1.21 GMACs, 0.02% MACs, 59.13 us, 0.02% latency, 40.79 TFLOPS, in_features=1280, out_features=5120, bias=True)
          (fc2): Linear(6.55 M, 0.42% Params, 1.21 GMACs, 0.02% MACs, 111.1 us, 0.04% latency, 21.71 TFLOPS, in_features=5120, out_features=1280, bias=True)
          (final_layer_norm): LayerNorm(2.56 k, 0.00% Params, 0 MACs, 0.00% MACs, 41.25 us, 0.02% latency, 28.55 GFLOPS, (1280,), eps=1e-05, elementwise_affine=True)
        )
        (19): WhisperDecoderLayer(
          26.24 M, 1.70% Params, 24.61 GMACs, 0.46% MACs, 1.82 ms, 0.69% latency, 27.11 TFLOPS, 
          (self_attn): WhisperAttention(
            6.56 M, 0.42% Params, 1.23 GMACs, 0.02% MACs, 462.77 us, 0.18% latency, 5.31 TFLOPS, 
            (k_proj): Linear(1.64 M, 0.11% Params, 301.47 MMACs, 0.01% MACs, 55.79 us, 0.02% latency, 10.81 TFLOPS, in_features=1280, out_features=1280, bias=False)
            (v_proj): Linear(1.64 M, 0.11% Params, 301.47 MMACs, 0.01% MACs, 53.41 us, 0.02% latency, 11.29 TFLOPS, in_features=1280, out_features=1280, bias=True)
            (q_proj): Linear(1.64 M, 0.11% Params, 301.47 MMACs, 0.01% MACs, 61.75 us, 0.02% latency, 9.76 TFLOPS, in_features=1280, out_features=1280, bias=True)
            (out_proj): Linear(1.64 M, 0.11% Params, 301.47 MMACs, 0.01% MACs, 58.41 us, 0.02% latency, 10.32 TFLOPS, in_features=1280, out_features=1280, bias=True)
          )
          (activation_fn): GELUActivation(0, 0.00% Params, 0 MACs, 0.00% MACs, 41.48 us, 0.02% latency, 0.0 FLOPS, )
          (self_attn_layer_norm): LayerNorm(2.56 k, 0.00% Params, 0 MACs, 0.00% MACs, 42.2 us, 0.02% latency, 27.91 GFLOPS, (1280,), eps=1e-05, elementwise_affine=True)
          (encoder_attn): WhisperAttention(
            6.56 M, 0.42% Params, 20.97 GMACs, 0.39% MACs, 787.5 us, 0.30% latency, 53.27 TFLOPS, 
            (k_proj): Linear(1.64 M, 0.11% Params, 9.83 GMACs, 0.18% MACs, 206.23 us, 0.08% latency, 95.33 TFLOPS, in_features=1280, out_features=1280, bias=False)
            (v_proj): Linear(1.64 M, 0.11% Params, 9.83 GMACs, 0.18% MACs, 188.35 us, 0.07% latency, 104.38 TFLOPS, in_features=1280, out_features=1280, bias=True)
            (q_proj): Linear(1.64 M, 0.11% Params, 301.47 MMACs, 0.01% MACs, 55.31 us, 0.02% latency, 10.9 TFLOPS, in_features=1280, out_features=1280, bias=True)
            (out_proj): Linear(1.64 M, 0.11% Params, 301.47 MMACs, 0.01% MACs, 69.62 us, 0.03% latency, 8.66 TFLOPS, in_features=1280, out_features=1280, bias=True)
          )
          (encoder_attn_layer_norm): LayerNorm(2.56 k, 0.00% Params, 0 MACs, 0.00% MACs, 38.86 us, 0.01% latency, 30.3 GFLOPS, (1280,), eps=1e-05, elementwise_affine=True)
          (fc1): Linear(6.56 M, 0.42% Params, 1.21 GMACs, 0.02% MACs, 75.58 us, 0.03% latency, 31.91 TFLOPS, in_features=1280, out_features=5120, bias=True)
          (fc2): Linear(6.55 M, 0.42% Params, 1.21 GMACs, 0.02% MACs, 106.1 us, 0.04% latency, 22.73 TFLOPS, in_features=5120, out_features=1280, bias=True)
          (final_layer_norm): LayerNorm(2.56 k, 0.00% Params, 0 MACs, 0.00% MACs, 81.54 us, 0.03% latency, 14.44 GFLOPS, (1280,), eps=1e-05, elementwise_affine=True)
        )
        (20): WhisperDecoderLayer(
          26.24 M, 1.70% Params, 24.61 GMACs, 0.46% MACs, 1.79 ms, 0.68% latency, 27.48 TFLOPS, 
          (self_attn): WhisperAttention(
            6.56 M, 0.42% Params, 1.23 GMACs, 0.02% MACs, 487.33 us, 0.19% latency, 5.04 TFLOPS, 
            (k_proj): Linear(1.64 M, 0.11% Params, 301.47 MMACs, 0.01% MACs, 68.43 us, 0.03% latency, 8.81 TFLOPS, in_features=1280, out_features=1280, bias=False)
            (v_proj): Linear(1.64 M, 0.11% Params, 301.47 MMACs, 0.01% MACs, 58.17 us, 0.02% latency, 10.36 TFLOPS, in_features=1280, out_features=1280, bias=True)
            (q_proj): Linear(1.64 M, 0.11% Params, 301.47 MMACs, 0.01% MACs, 62.7 us, 0.02% latency, 9.62 TFLOPS, in_features=1280, out_features=1280, bias=True)
            (out_proj): Linear(1.64 M, 0.11% Params, 301.47 MMACs, 0.01% MACs, 57.46 us, 0.02% latency, 10.49 TFLOPS, in_features=1280, out_features=1280, bias=True)
          )
          (activation_fn): GELUActivation(0, 0.00% Params, 0 MACs, 0.00% MACs, 43.63 us, 0.02% latency, 0.0 FLOPS, )
          (self_attn_layer_norm): LayerNorm(2.56 k, 0.00% Params, 0 MACs, 0.00% MACs, 44.58 us, 0.02% latency, 26.41 GFLOPS, (1280,), eps=1e-05, elementwise_affine=True)
          (encoder_attn): WhisperAttention(
            6.56 M, 0.42% Params, 20.97 GMACs, 0.39% MACs, 784.64 us, 0.30% latency, 53.46 TFLOPS, 
            (k_proj): Linear(1.64 M, 0.11% Params, 9.83 GMACs, 0.18% MACs, 208.14 us, 0.08% latency, 94.46 TFLOPS, in_features=1280, out_features=1280, bias=False)
            (v_proj): Linear(1.64 M, 0.11% Params, 9.83 GMACs, 0.18% MACs, 195.74 us, 0.07% latency, 100.44 TFLOPS, in_features=1280, out_features=1280, bias=True)
            (q_proj): Linear(1.64 M, 0.11% Params, 301.47 MMACs, 0.01% MACs, 58.41 us, 0.02% latency, 10.32 TFLOPS, in_features=1280, out_features=1280, bias=True)
            (out_proj): Linear(1.64 M, 0.11% Params, 301.47 MMACs, 0.01% MACs, 67.95 us, 0.03% latency, 8.87 TFLOPS, in_features=1280, out_features=1280, bias=True)
          )
          (encoder_attn_layer_norm): LayerNorm(2.56 k, 0.00% Params, 0 MACs, 0.00% MACs, 41.72 us, 0.02% latency, 28.22 GFLOPS, (1280,), eps=1e-05, elementwise_affine=True)
          (fc1): Linear(6.56 M, 0.42% Params, 1.21 GMACs, 0.02% MACs, 66.04 us, 0.03% latency, 36.52 TFLOPS, in_features=1280, out_features=5120, bias=True)
          (fc2): Linear(6.55 M, 0.42% Params, 1.21 GMACs, 0.02% MACs, 108.48 us, 0.04% latency, 22.23 TFLOPS, in_features=5120, out_features=1280, bias=True)
          (final_layer_norm): LayerNorm(2.56 k, 0.00% Params, 0 MACs, 0.00% MACs, 40.53 us, 0.02% latency, 29.05 GFLOPS, (1280,), eps=1e-05, elementwise_affine=True)
        )
        (21): WhisperDecoderLayer(
          26.24 M, 1.70% Params, 24.61 GMACs, 0.46% MACs, 1.92 ms, 0.73% latency, 25.58 TFLOPS, 
          (self_attn): WhisperAttention(
            6.56 M, 0.42% Params, 1.23 GMACs, 0.02% MACs, 479.7 us, 0.18% latency, 5.12 TFLOPS, 
            (k_proj): Linear(1.64 M, 0.11% Params, 301.47 MMACs, 0.01% MACs, 61.27 us, 0.02% latency, 9.84 TFLOPS, in_features=1280, out_features=1280, bias=False)
            (v_proj): Linear(1.64 M, 0.11% Params, 301.47 MMACs, 0.01% MACs, 56.03 us, 0.02% latency, 10.76 TFLOPS, in_features=1280, out_features=1280, bias=True)
            (q_proj): Linear(1.64 M, 0.11% Params, 301.47 MMACs, 0.01% MACs, 66.04 us, 0.03% latency, 9.13 TFLOPS, in_features=1280, out_features=1280, bias=True)
            (out_proj): Linear(1.64 M, 0.11% Params, 301.47 MMACs, 0.01% MACs, 59.6 us, 0.02% latency, 10.12 TFLOPS, in_features=1280, out_features=1280, bias=True)
          )
          (activation_fn): GELUActivation(0, 0.00% Params, 0 MACs, 0.00% MACs, 52.69 us, 0.02% latency, 0.0 FLOPS, )
          (self_attn_layer_norm): LayerNorm(2.56 k, 0.00% Params, 0 MACs, 0.00% MACs, 44.11 us, 0.02% latency, 26.7 GFLOPS, (1280,), eps=1e-05, elementwise_affine=True)
          (encoder_attn): WhisperAttention(
            6.56 M, 0.42% Params, 20.97 GMACs, 0.39% MACs, 835.18 us, 0.32% latency, 50.22 TFLOPS, 
            (k_proj): Linear(1.64 M, 0.11% Params, 9.83 GMACs, 0.18% MACs, 204.32 us, 0.08% latency, 96.22 TFLOPS, in_features=1280, out_features=1280, bias=False)
            (v_proj): Linear(1.64 M, 0.11% Params, 9.83 GMACs, 0.18% MACs, 196.7 us, 0.07% latency, 99.96 TFLOPS, in_features=1280, out_features=1280, bias=True)
            (q_proj): Linear(1.64 M, 0.11% Params, 301.47 MMACs, 0.01% MACs, 57.22 us, 0.02% latency, 10.54 TFLOPS, in_features=1280, out_features=1280, bias=True)
            (out_proj): Linear(1.64 M, 0.11% Params, 301.47 MMACs, 0.01% MACs, 84.64 us, 0.03% latency, 7.12 TFLOPS, in_features=1280, out_features=1280, bias=True)
          )
          (encoder_attn_layer_norm): LayerNorm(2.56 k, 0.00% Params, 0 MACs, 0.00% MACs, 46.25 us, 0.02% latency, 25.46 GFLOPS, (1280,), eps=1e-05, elementwise_affine=True)
          (fc1): Linear(6.56 M, 0.42% Params, 1.21 GMACs, 0.02% MACs, 82.73 us, 0.03% latency, 29.15 TFLOPS, in_features=1280, out_features=5120, bias=True)
          (fc2): Linear(6.55 M, 0.42% Params, 1.21 GMACs, 0.02% MACs, 121.59 us, 0.05% latency, 19.83 TFLOPS, in_features=5120, out_features=1280, bias=True)
          (final_layer_norm): LayerNorm(2.56 k, 0.00% Params, 0 MACs, 0.00% MACs, 52.69 us, 0.02% latency, 22.35 GFLOPS, (1280,), eps=1e-05, elementwise_affine=True)
        )
        (22): WhisperDecoderLayer(
          26.24 M, 1.70% Params, 24.61 GMACs, 0.46% MACs, 2.23 ms, 0.85% latency, 22.06 TFLOPS, 
          (self_attn): WhisperAttention(
            6.56 M, 0.42% Params, 1.23 GMACs, 0.02% MACs, 633.48 us, 0.24% latency, 3.88 TFLOPS, 
            (k_proj): Linear(1.64 M, 0.11% Params, 301.47 MMACs, 0.01% MACs, 72.0 us, 0.03% latency, 8.37 TFLOPS, in_features=1280, out_features=1280, bias=False)
            (v_proj): Linear(1.64 M, 0.11% Params, 301.47 MMACs, 0.01% MACs, 69.62 us, 0.03% latency, 8.66 TFLOPS, in_features=1280, out_features=1280, bias=True)
            (q_proj): Linear(1.64 M, 0.11% Params, 301.47 MMACs, 0.01% MACs, 92.51 us, 0.04% latency, 6.52 TFLOPS, in_features=1280, out_features=1280, bias=True)
            (out_proj): Linear(1.64 M, 0.11% Params, 301.47 MMACs, 0.01% MACs, 73.67 us, 0.03% latency, 8.18 TFLOPS, in_features=1280, out_features=1280, bias=True)
          )
          (activation_fn): GELUActivation(0, 0.00% Params, 0 MACs, 0.00% MACs, 55.55 us, 0.02% latency, 0.0 FLOPS, )
          (self_attn_layer_norm): LayerNorm(2.56 k, 0.00% Params, 0 MACs, 0.00% MACs, 89.17 us, 0.03% latency, 13.21 GFLOPS, (1280,), eps=1e-05, elementwise_affine=True)
          (encoder_attn): WhisperAttention(
            6.56 M, 0.42% Params, 20.97 GMACs, 0.39% MACs, 903.13 us, 0.34% latency, 46.45 TFLOPS, 
            (k_proj): Linear(1.64 M, 0.11% Params, 9.83 GMACs, 0.18% MACs, 222.68 us, 0.08% latency, 88.29 TFLOPS, in_features=1280, out_features=1280, bias=False)
            (v_proj): Linear(1.64 M, 0.11% Params, 9.83 GMACs, 0.18% MACs, 210.52 us, 0.08% latency, 93.39 TFLOPS, in_features=1280, out_features=1280, bias=True)
            (q_proj): Linear(1.64 M, 0.11% Params, 301.47 MMACs, 0.01% MACs, 77.25 us, 0.03% latency, 7.81 TFLOPS, in_features=1280, out_features=1280, bias=True)
            (out_proj): Linear(1.64 M, 0.11% Params, 301.47 MMACs, 0.01% MACs, 83.68 us, 0.03% latency, 7.2 TFLOPS, in_features=1280, out_features=1280, bias=True)
          )
          (encoder_attn_layer_norm): LayerNorm(2.56 k, 0.00% Params, 0 MACs, 0.00% MACs, 52.93 us, 0.02% latency, 22.25 GFLOPS, (1280,), eps=1e-05, elementwise_affine=True)
          (fc1): Linear(6.56 M, 0.42% Params, 1.21 GMACs, 0.02% MACs, 82.97 us, 0.03% latency, 29.07 TFLOPS, in_features=1280, out_features=5120, bias=True)
          (fc2): Linear(6.55 M, 0.42% Params, 1.21 GMACs, 0.02% MACs, 116.35 us, 0.04% latency, 20.73 TFLOPS, in_features=5120, out_features=1280, bias=True)
          (final_layer_norm): LayerNorm(2.56 k, 0.00% Params, 0 MACs, 0.00% MACs, 51.74 us, 0.02% latency, 22.76 GFLOPS, (1280,), eps=1e-05, elementwise_affine=True)
        )
        (23): WhisperDecoderLayer(
          26.24 M, 1.70% Params, 24.61 GMACs, 0.46% MACs, 1.9 ms, 0.72% latency, 25.94 TFLOPS, 
          (self_attn): WhisperAttention(
            6.56 M, 0.42% Params, 1.23 GMACs, 0.02% MACs, 484.47 us, 0.18% latency, 5.07 TFLOPS, 
            (k_proj): Linear(1.64 M, 0.11% Params, 301.47 MMACs, 0.01% MACs, 66.04 us, 0.03% latency, 9.13 TFLOPS, in_features=1280, out_features=1280, bias=False)
            (v_proj): Linear(1.64 M, 0.11% Params, 301.47 MMACs, 0.01% MACs, 56.27 us, 0.02% latency, 10.72 TFLOPS, in_features=1280, out_features=1280, bias=True)
            (q_proj): Linear(1.64 M, 0.11% Params, 301.47 MMACs, 0.01% MACs, 62.94 us, 0.02% latency, 9.58 TFLOPS, in_features=1280, out_features=1280, bias=True)
            (out_proj): Linear(1.64 M, 0.11% Params, 301.47 MMACs, 0.01% MACs, 68.43 us, 0.03% latency, 8.81 TFLOPS, in_features=1280, out_features=1280, bias=True)
          )
          (activation_fn): GELUActivation(0, 0.00% Params, 0 MACs, 0.00% MACs, 44.11 us, 0.02% latency, 0.0 FLOPS, )
          (self_attn_layer_norm): LayerNorm(2.56 k, 0.00% Params, 0 MACs, 0.00% MACs, 45.3 us, 0.02% latency, 26.0 GFLOPS, (1280,), eps=1e-05, elementwise_affine=True)
          (encoder_attn): WhisperAttention(
            6.56 M, 0.42% Params, 20.97 GMACs, 0.39% MACs, 837.33 us, 0.32% latency, 50.1 TFLOPS, 
            (k_proj): Linear(1.64 M, 0.11% Params, 9.83 GMACs, 0.18% MACs, 206.71 us, 0.08% latency, 95.11 TFLOPS, in_features=1280, out_features=1280, bias=False)
            (v_proj): Linear(1.64 M, 0.11% Params, 9.83 GMACs, 0.18% MACs, 197.89 us, 0.08% latency, 99.35 TFLOPS, in_features=1280, out_features=1280, bias=True)
            (q_proj): Linear(1.64 M, 0.11% Params, 301.47 MMACs, 0.01% MACs, 54.6 us, 0.02% latency, 11.04 TFLOPS, in_features=1280, out_features=1280, bias=True)
            (out_proj): Linear(1.64 M, 0.11% Params, 301.47 MMACs, 0.01% MACs, 79.39 us, 0.03% latency, 7.59 TFLOPS, in_features=1280, out_features=1280, bias=True)
          )
          (encoder_attn_layer_norm): LayerNorm(2.56 k, 0.00% Params, 0 MACs, 0.00% MACs, 74.86 us, 0.03% latency, 15.73 GFLOPS, (1280,), eps=1e-05, elementwise_affine=True)
          (fc1): Linear(6.56 M, 0.42% Params, 1.21 GMACs, 0.02% MACs, 70.81 us, 0.03% latency, 34.06 TFLOPS, in_features=1280, out_features=5120, bias=True)
          (fc2): Linear(6.55 M, 0.42% Params, 1.21 GMACs, 0.02% MACs, 109.67 us, 0.04% latency, 21.99 TFLOPS, in_features=5120, out_features=1280, bias=True)
          (final_layer_norm): LayerNorm(2.56 k, 0.00% Params, 0 MACs, 0.00% MACs, 45.06 us, 0.02% latency, 26.13 GFLOPS, (1280,), eps=1e-05, elementwise_affine=True)
        )
        (24): WhisperDecoderLayer(
          26.24 M, 1.70% Params, 24.61 GMACs, 0.46% MACs, 1.85 ms, 0.70% latency, 26.55 TFLOPS, 
          (self_attn): WhisperAttention(
            6.56 M, 0.42% Params, 1.23 GMACs, 0.02% MACs, 471.59 us, 0.18% latency, 5.21 TFLOPS, 
            (k_proj): Linear(1.64 M, 0.11% Params, 301.47 MMACs, 0.01% MACs, 61.99 us, 0.02% latency, 9.73 TFLOPS, in_features=1280, out_features=1280, bias=False)
            (v_proj): Linear(1.64 M, 0.11% Params, 301.47 MMACs, 0.01% MACs, 56.27 us, 0.02% latency, 10.72 TFLOPS, in_features=1280, out_features=1280, bias=True)
            (q_proj): Linear(1.64 M, 0.11% Params, 301.47 MMACs, 0.01% MACs, 61.04 us, 0.02% latency, 9.88 TFLOPS, in_features=1280, out_features=1280, bias=True)
            (out_proj): Linear(1.64 M, 0.11% Params, 301.47 MMACs, 0.01% MACs, 60.56 us, 0.02% latency, 9.96 TFLOPS, in_features=1280, out_features=1280, bias=True)
          )
          (activation_fn): GELUActivation(0, 0.00% Params, 0 MACs, 0.00% MACs, 41.48 us, 0.02% latency, 0.0 FLOPS, )
          (self_attn_layer_norm): LayerNorm(2.56 k, 0.00% Params, 0 MACs, 0.00% MACs, 44.58 us, 0.02% latency, 26.41 GFLOPS, (1280,), eps=1e-05, elementwise_affine=True)
          (encoder_attn): WhisperAttention(
            6.56 M, 0.42% Params, 20.97 GMACs, 0.39% MACs, 803.95 us, 0.31% latency, 52.18 TFLOPS, 
            (k_proj): Linear(1.64 M, 0.11% Params, 9.83 GMACs, 0.18% MACs, 209.33 us, 0.08% latency, 93.92 TFLOPS, in_features=1280, out_features=1280, bias=False)
            (v_proj): Linear(1.64 M, 0.11% Params, 9.83 GMACs, 0.18% MACs, 196.7 us, 0.07% latency, 99.96 TFLOPS, in_features=1280, out_features=1280, bias=True)
            (q_proj): Linear(1.64 M, 0.11% Params, 301.47 MMACs, 0.01% MACs, 61.75 us, 0.02% latency, 9.76 TFLOPS, in_features=1280, out_features=1280, bias=True)
            (out_proj): Linear(1.64 M, 0.11% Params, 301.47 MMACs, 0.01% MACs, 75.82 us, 0.03% latency, 7.95 TFLOPS, in_features=1280, out_features=1280, bias=True)
          )
          (encoder_attn_layer_norm): LayerNorm(2.56 k, 0.00% Params, 0 MACs, 0.00% MACs, 37.19 us, 0.01% latency, 31.66 GFLOPS, (1280,), eps=1e-05, elementwise_affine=True)
          (fc1): Linear(6.56 M, 0.42% Params, 1.21 GMACs, 0.02% MACs, 82.02 us, 0.03% latency, 29.41 TFLOPS, in_features=1280, out_features=5120, bias=True)
          (fc2): Linear(6.55 M, 0.42% Params, 1.21 GMACs, 0.02% MACs, 106.1 us, 0.04% latency, 22.73 TFLOPS, in_features=5120, out_features=1280, bias=True)
          (final_layer_norm): LayerNorm(2.56 k, 0.00% Params, 0 MACs, 0.00% MACs, 66.04 us, 0.03% latency, 17.83 GFLOPS, (1280,), eps=1e-05, elementwise_affine=True)
        )
        (25): WhisperDecoderLayer(
          26.24 M, 1.70% Params, 24.61 GMACs, 0.46% MACs, 1.81 ms, 0.69% latency, 27.15 TFLOPS, 
          (self_attn): WhisperAttention(
            6.56 M, 0.42% Params, 1.23 GMACs, 0.02% MACs, 489.23 us, 0.19% latency, 5.02 TFLOPS, 
            (k_proj): Linear(1.64 M, 0.11% Params, 301.47 MMACs, 0.01% MACs, 65.09 us, 0.02% latency, 9.26 TFLOPS, in_features=1280, out_features=1280, bias=False)
            (v_proj): Linear(1.64 M, 0.11% Params, 301.47 MMACs, 0.01% MACs, 59.13 us, 0.02% latency, 10.2 TFLOPS, in_features=1280, out_features=1280, bias=True)
            (q_proj): Linear(1.64 M, 0.11% Params, 301.47 MMACs, 0.01% MACs, 66.04 us, 0.03% latency, 9.13 TFLOPS, in_features=1280, out_features=1280, bias=True)
            (out_proj): Linear(1.64 M, 0.11% Params, 301.47 MMACs, 0.01% MACs, 57.7 us, 0.02% latency, 10.45 TFLOPS, in_features=1280, out_features=1280, bias=True)
          )
          (activation_fn): GELUActivation(0, 0.00% Params, 0 MACs, 0.00% MACs, 59.13 us, 0.02% latency, 0.0 FLOPS, )
          (self_attn_layer_norm): LayerNorm(2.56 k, 0.00% Params, 0 MACs, 0.00% MACs, 50.31 us, 0.02% latency, 23.41 GFLOPS, (1280,), eps=1e-05, elementwise_affine=True)
          (encoder_attn): WhisperAttention(
            6.56 M, 0.42% Params, 20.97 GMACs, 0.39% MACs, 784.4 us, 0.30% latency, 53.48 TFLOPS, 
            (k_proj): Linear(1.64 M, 0.11% Params, 9.83 GMACs, 0.18% MACs, 211.24 us, 0.08% latency, 93.07 TFLOPS, in_features=1280, out_features=1280, bias=False)
            (v_proj): Linear(1.64 M, 0.11% Params, 9.83 GMACs, 0.18% MACs, 195.26 us, 0.07% latency, 100.69 TFLOPS, in_features=1280, out_features=1280, bias=True)
            (q_proj): Linear(1.64 M, 0.11% Params, 301.47 MMACs, 0.01% MACs, 56.74 us, 0.02% latency, 10.63 TFLOPS, in_features=1280, out_features=1280, bias=True)
            (out_proj): Linear(1.64 M, 0.11% Params, 301.47 MMACs, 0.01% MACs, 74.15 us, 0.03% latency, 8.13 TFLOPS, in_features=1280, out_features=1280, bias=True)
          )
          (encoder_attn_layer_norm): LayerNorm(2.56 k, 0.00% Params, 0 MACs, 0.00% MACs, 45.06 us, 0.02% latency, 26.13 GFLOPS, (1280,), eps=1e-05, elementwise_affine=True)
          (fc1): Linear(6.56 M, 0.42% Params, 1.21 GMACs, 0.02% MACs, 56.98 us, 0.02% latency, 42.32 TFLOPS, in_features=1280, out_features=5120, bias=True)
          (fc2): Linear(6.55 M, 0.42% Params, 1.21 GMACs, 0.02% MACs, 105.86 us, 0.04% latency, 22.78 TFLOPS, in_features=5120, out_features=1280, bias=True)
          (final_layer_norm): LayerNorm(2.56 k, 0.00% Params, 0 MACs, 0.00% MACs, 55.55 us, 0.02% latency, 21.2 GFLOPS, (1280,), eps=1e-05, elementwise_affine=True)
        )
        (26): WhisperDecoderLayer(
          26.24 M, 1.70% Params, 24.61 GMACs, 0.46% MACs, 1.83 ms, 0.69% latency, 26.96 TFLOPS, 
          (self_attn): WhisperAttention(
            6.56 M, 0.42% Params, 1.23 GMACs, 0.02% MACs, 460.39 us, 0.17% latency, 5.33 TFLOPS, 
            (k_proj): Linear(1.64 M, 0.11% Params, 301.47 MMACs, 0.01% MACs, 61.27 us, 0.02% latency, 9.84 TFLOPS, in_features=1280, out_features=1280, bias=False)
            (v_proj): Linear(1.64 M, 0.11% Params, 301.47 MMACs, 0.01% MACs, 56.27 us, 0.02% latency, 10.72 TFLOPS, in_features=1280, out_features=1280, bias=True)
            (q_proj): Linear(1.64 M, 0.11% Params, 301.47 MMACs, 0.01% MACs, 54.36 us, 0.02% latency, 11.09 TFLOPS, in_features=1280, out_features=1280, bias=True)
            (out_proj): Linear(1.64 M, 0.11% Params, 301.47 MMACs, 0.01% MACs, 59.37 us, 0.02% latency, 10.16 TFLOPS, in_features=1280, out_features=1280, bias=True)
          )
          (activation_fn): GELUActivation(0, 0.00% Params, 0 MACs, 0.00% MACs, 53.17 us, 0.02% latency, 0.0 FLOPS, )
          (self_attn_layer_norm): LayerNorm(2.56 k, 0.00% Params, 0 MACs, 0.00% MACs, 42.2 us, 0.02% latency, 27.91 GFLOPS, (1280,), eps=1e-05, elementwise_affine=True)
          (encoder_attn): WhisperAttention(
            6.56 M, 0.42% Params, 20.97 GMACs, 0.39% MACs, 789.4 us, 0.30% latency, 53.14 TFLOPS, 
            (k_proj): Linear(1.64 M, 0.11% Params, 9.83 GMACs, 0.18% MACs, 207.66 us, 0.08% latency, 94.68 TFLOPS, in_features=1280, out_features=1280, bias=False)
            (v_proj): Linear(1.64 M, 0.11% Params, 9.83 GMACs, 0.18% MACs, 186.68 us, 0.07% latency, 105.32 TFLOPS, in_features=1280, out_features=1280, bias=True)
            (q_proj): Linear(1.64 M, 0.11% Params, 301.47 MMACs, 0.01% MACs, 46.97 us, 0.02% latency, 12.84 TFLOPS, in_features=1280, out_features=1280, bias=True)
            (out_proj): Linear(1.64 M, 0.11% Params, 301.47 MMACs, 0.01% MACs, 79.39 us, 0.03% latency, 7.59 TFLOPS, in_features=1280, out_features=1280, bias=True)
          )
          (encoder_attn_layer_norm): LayerNorm(2.56 k, 0.00% Params, 0 MACs, 0.00% MACs, 40.29 us, 0.02% latency, 29.23 GFLOPS, (1280,), eps=1e-05, elementwise_affine=True)
          (fc1): Linear(6.56 M, 0.42% Params, 1.21 GMACs, 0.02% MACs, 76.77 us, 0.03% latency, 31.41 TFLOPS, in_features=1280, out_features=5120, bias=True)
          (fc2): Linear(6.55 M, 0.42% Params, 1.21 GMACs, 0.02% MACs, 118.73 us, 0.05% latency, 20.31 TFLOPS, in_features=5120, out_features=1280, bias=True)
          (final_layer_norm): LayerNorm(2.56 k, 0.00% Params, 0 MACs, 0.00% MACs, 52.21 us, 0.02% latency, 22.55 GFLOPS, (1280,), eps=1e-05, elementwise_affine=True)
        )
        (27): WhisperDecoderLayer(
          26.24 M, 1.70% Params, 24.61 GMACs, 0.46% MACs, 1.9 ms, 0.72% latency, 25.93 TFLOPS, 
          (self_attn): WhisperAttention(
            6.56 M, 0.42% Params, 1.23 GMACs, 0.02% MACs, 544.31 us, 0.21% latency, 4.51 TFLOPS, 
            (k_proj): Linear(1.64 M, 0.11% Params, 301.47 MMACs, 0.01% MACs, 73.67 us, 0.03% latency, 8.18 TFLOPS, in_features=1280, out_features=1280, bias=False)
            (v_proj): Linear(1.64 M, 0.11% Params, 301.47 MMACs, 0.01% MACs, 62.7 us, 0.02% latency, 9.62 TFLOPS, in_features=1280, out_features=1280, bias=True)
            (q_proj): Linear(1.64 M, 0.11% Params, 301.47 MMACs, 0.01% MACs, 75.34 us, 0.03% latency, 8.0 TFLOPS, in_features=1280, out_features=1280, bias=True)
            (out_proj): Linear(1.64 M, 0.11% Params, 301.47 MMACs, 0.01% MACs, 68.19 us, 0.03% latency, 8.84 TFLOPS, in_features=1280, out_features=1280, bias=True)
          )
          (activation_fn): GELUActivation(0, 0.00% Params, 0 MACs, 0.00% MACs, 38.15 us, 0.01% latency, 0.0 FLOPS, )
          (self_attn_layer_norm): LayerNorm(2.56 k, 0.00% Params, 0 MACs, 0.00% MACs, 54.36 us, 0.02% latency, 21.66 GFLOPS, (1280,), eps=1e-05, elementwise_affine=True)
          (encoder_attn): WhisperAttention(
            6.56 M, 0.42% Params, 20.97 GMACs, 0.39% MACs, 809.67 us, 0.31% latency, 51.81 TFLOPS, 
            (k_proj): Linear(1.64 M, 0.11% Params, 9.83 GMACs, 0.18% MACs, 212.19 us, 0.08% latency, 92.66 TFLOPS, in_features=1280, out_features=1280, bias=False)
            (v_proj): Linear(1.64 M, 0.11% Params, 9.83 GMACs, 0.18% MACs, 196.7 us, 0.07% latency, 99.96 TFLOPS, in_features=1280, out_features=1280, bias=True)
            (q_proj): Linear(1.64 M, 0.11% Params, 301.47 MMACs, 0.01% MACs, 65.8 us, 0.02% latency, 9.16 TFLOPS, in_features=1280, out_features=1280, bias=True)
            (out_proj): Linear(1.64 M, 0.11% Params, 301.47 MMACs, 0.01% MACs, 71.53 us, 0.03% latency, 8.43 TFLOPS, in_features=1280, out_features=1280, bias=True)
          )
          (encoder_attn_layer_norm): LayerNorm(2.56 k, 0.00% Params, 0 MACs, 0.00% MACs, 51.74 us, 0.02% latency, 22.76 GFLOPS, (1280,), eps=1e-05, elementwise_affine=True)
          (fc1): Linear(6.56 M, 0.42% Params, 1.21 GMACs, 0.02% MACs, 63.9 us, 0.02% latency, 37.74 TFLOPS, in_features=1280, out_features=5120, bias=True)
          (fc2): Linear(6.55 M, 0.42% Params, 1.21 GMACs, 0.02% MACs, 113.25 us, 0.04% latency, 21.3 TFLOPS, in_features=5120, out_features=1280, bias=True)
          (final_layer_norm): LayerNorm(2.56 k, 0.00% Params, 0 MACs, 0.00% MACs, 37.91 us, 0.01% latency, 31.06 GFLOPS, (1280,), eps=1e-05, elementwise_affine=True)
        )
        (28): WhisperDecoderLayer(
          26.24 M, 1.70% Params, 24.61 GMACs, 0.46% MACs, 1.8 ms, 0.68% latency, 27.32 TFLOPS, 
          (self_attn): WhisperAttention(
            6.56 M, 0.42% Params, 1.23 GMACs, 0.02% MACs, 464.68 us, 0.18% latency, 5.28 TFLOPS, 
            (k_proj): Linear(1.64 M, 0.11% Params, 301.47 MMACs, 0.01% MACs, 62.47 us, 0.02% latency, 9.65 TFLOPS, in_features=1280, out_features=1280, bias=False)
            (v_proj): Linear(1.64 M, 0.11% Params, 301.47 MMACs, 0.01% MACs, 55.31 us, 0.02% latency, 10.9 TFLOPS, in_features=1280, out_features=1280, bias=True)
            (q_proj): Linear(1.64 M, 0.11% Params, 301.47 MMACs, 0.01% MACs, 60.56 us, 0.02% latency, 9.96 TFLOPS, in_features=1280, out_features=1280, bias=True)
            (out_proj): Linear(1.64 M, 0.11% Params, 301.47 MMACs, 0.01% MACs, 57.22 us, 0.02% latency, 10.54 TFLOPS, in_features=1280, out_features=1280, bias=True)
          )
          (activation_fn): GELUActivation(0, 0.00% Params, 0 MACs, 0.00% MACs, 39.58 us, 0.02% latency, 0.0 FLOPS, )
          (self_attn_layer_norm): LayerNorm(2.56 k, 0.00% Params, 0 MACs, 0.00% MACs, 51.5 us, 0.02% latency, 22.87 GFLOPS, (1280,), eps=1e-05, elementwise_affine=True)
          (encoder_attn): WhisperAttention(
            6.56 M, 0.42% Params, 20.97 GMACs, 0.39% MACs, 785.59 us, 0.30% latency, 53.39 TFLOPS, 
            (k_proj): Linear(1.64 M, 0.11% Params, 9.83 GMACs, 0.18% MACs, 205.76 us, 0.08% latency, 95.55 TFLOPS, in_features=1280, out_features=1280, bias=False)
            (v_proj): Linear(1.64 M, 0.11% Params, 9.83 GMACs, 0.18% MACs, 197.17 us, 0.07% latency, 99.71 TFLOPS, in_features=1280, out_features=1280, bias=True)
            (q_proj): Linear(1.64 M, 0.11% Params, 301.47 MMACs, 0.01% MACs, 55.31 us, 0.02% latency, 10.9 TFLOPS, in_features=1280, out_features=1280, bias=True)
            (out_proj): Linear(1.64 M, 0.11% Params, 301.47 MMACs, 0.01% MACs, 69.62 us, 0.03% latency, 8.66 TFLOPS, in_features=1280, out_features=1280, bias=True)
          )
          (encoder_attn_layer_norm): LayerNorm(2.56 k, 0.00% Params, 0 MACs, 0.00% MACs, 49.11 us, 0.02% latency, 23.98 GFLOPS, (1280,), eps=1e-05, elementwise_affine=True)
          (fc1): Linear(6.56 M, 0.42% Params, 1.21 GMACs, 0.02% MACs, 68.66 us, 0.03% latency, 35.12 TFLOPS, in_features=1280, out_features=5120, bias=True)
          (fc2): Linear(6.55 M, 0.42% Params, 1.21 GMACs, 0.02% MACs, 119.21 us, 0.05% latency, 20.23 TFLOPS, in_features=5120, out_features=1280, bias=True)
          (final_layer_norm): LayerNorm(2.56 k, 0.00% Params, 0 MACs, 0.00% MACs, 40.05 us, 0.02% latency, 29.4 GFLOPS, (1280,), eps=1e-05, elementwise_affine=True)
        )
        (29): WhisperDecoderLayer(
          26.24 M, 1.70% Params, 24.61 GMACs, 0.46% MACs, 4.4 ms, 1.67% latency, 11.18 TFLOPS, 
          (self_attn): WhisperAttention(
            6.56 M, 0.42% Params, 1.23 GMACs, 0.02% MACs, 480.65 us, 0.18% latency, 5.11 TFLOPS, 
            (k_proj): Linear(1.64 M, 0.11% Params, 301.47 MMACs, 0.01% MACs, 59.84 us, 0.02% latency, 10.08 TFLOPS, in_features=1280, out_features=1280, bias=False)
            (v_proj): Linear(1.64 M, 0.11% Params, 301.47 MMACs, 0.01% MACs, 54.36 us, 0.02% latency, 11.09 TFLOPS, in_features=1280, out_features=1280, bias=True)
            (q_proj): Linear(1.64 M, 0.11% Params, 301.47 MMACs, 0.01% MACs, 61.27 us, 0.02% latency, 9.84 TFLOPS, in_features=1280, out_features=1280, bias=True)
            (out_proj): Linear(1.64 M, 0.11% Params, 301.47 MMACs, 0.01% MACs, 60.8 us, 0.02% latency, 9.92 TFLOPS, in_features=1280, out_features=1280, bias=True)
          )
          (activation_fn): GELUActivation(0, 0.00% Params, 0 MACs, 0.00% MACs, 58.17 us, 0.02% latency, 0.0 FLOPS, )
          (self_attn_layer_norm): LayerNorm(2.56 k, 0.00% Params, 0 MACs, 0.00% MACs, 42.68 us, 0.02% latency, 27.59 GFLOPS, (1280,), eps=1e-05, elementwise_affine=True)
          (encoder_attn): WhisperAttention(
            6.56 M, 0.42% Params, 20.97 GMACs, 0.39% MACs, 922.2 us, 0.35% latency, 45.48 TFLOPS, 
            (k_proj): Linear(1.64 M, 0.11% Params, 9.83 GMACs, 0.18% MACs, 211.48 us, 0.08% latency, 92.97 TFLOPS, in_features=1280, out_features=1280, bias=False)
            (v_proj): Linear(1.64 M, 0.11% Params, 9.83 GMACs, 0.18% MACs, 225.54 us, 0.09% latency, 87.17 TFLOPS, in_features=1280, out_features=1280, bias=True)
            (q_proj): Linear(1.64 M, 0.11% Params, 301.47 MMACs, 0.01% MACs, 59.37 us, 0.02% latency, 10.16 TFLOPS, in_features=1280, out_features=1280, bias=True)
            (out_proj): Linear(1.64 M, 0.11% Params, 301.47 MMACs, 0.01% MACs, 80.35 us, 0.03% latency, 7.5 TFLOPS, in_features=1280, out_features=1280, bias=True)
          )
          (encoder_attn_layer_norm): LayerNorm(2.56 k, 0.00% Params, 0 MACs, 0.00% MACs, 40.77 us, 0.02% latency, 28.88 GFLOPS, (1280,), eps=1e-05, elementwise_affine=True)
          (fc1): Linear(6.56 M, 0.42% Params, 1.21 GMACs, 0.02% MACs, 2.44 ms, 0.93% latency, 987.26 GFLOPS, in_features=1280, out_features=5120, bias=True)
          (fc2): Linear(6.55 M, 0.42% Params, 1.21 GMACs, 0.02% MACs, 131.37 us, 0.05% latency, 18.36 TFLOPS, in_features=5120, out_features=1280, bias=True)
          (final_layer_norm): LayerNorm(2.56 k, 0.00% Params, 0 MACs, 0.00% MACs, 56.51 us, 0.02% latency, 20.84 GFLOPS, (1280,), eps=1e-05, elementwise_affine=True)
        )
        (30): WhisperDecoderLayer(
          26.24 M, 1.70% Params, 24.61 GMACs, 0.46% MACs, 2.1 ms, 0.80% latency, 23.43 TFLOPS, 
          (self_attn): WhisperAttention(
            6.56 M, 0.42% Params, 1.23 GMACs, 0.02% MACs, 627.99 us, 0.24% latency, 3.91 TFLOPS, 
            (k_proj): Linear(1.64 M, 0.11% Params, 301.47 MMACs, 0.01% MACs, 67.95 us, 0.03% latency, 8.87 TFLOPS, in_features=1280, out_features=1280, bias=False)
            (v_proj): Linear(1.64 M, 0.11% Params, 301.47 MMACs, 0.01% MACs, 63.66 us, 0.02% latency, 9.47 TFLOPS, in_features=1280, out_features=1280, bias=True)
            (q_proj): Linear(1.64 M, 0.11% Params, 301.47 MMACs, 0.01% MACs, 80.11 us, 0.03% latency, 7.53 TFLOPS, in_features=1280, out_features=1280, bias=True)
            (out_proj): Linear(1.64 M, 0.11% Params, 301.47 MMACs, 0.01% MACs, 69.62 us, 0.03% latency, 8.66 TFLOPS, in_features=1280, out_features=1280, bias=True)
          )
          (activation_fn): GELUActivation(0, 0.00% Params, 0 MACs, 0.00% MACs, 45.06 us, 0.02% latency, 0.0 FLOPS, )
          (self_attn_layer_norm): LayerNorm(2.56 k, 0.00% Params, 0 MACs, 0.00% MACs, 58.17 us, 0.02% latency, 20.24 GFLOPS, (1280,), eps=1e-05, elementwise_affine=True)
          (encoder_attn): WhisperAttention(
            6.56 M, 0.42% Params, 20.97 GMACs, 0.39% MACs, 887.87 us, 0.34% latency, 47.24 TFLOPS, 
            (k_proj): Linear(1.64 M, 0.11% Params, 9.83 GMACs, 0.18% MACs, 214.34 us, 0.08% latency, 91.73 TFLOPS, in_features=1280, out_features=1280, bias=False)
            (v_proj): Linear(1.64 M, 0.11% Params, 9.83 GMACs, 0.18% MACs, 205.52 us, 0.08% latency, 95.67 TFLOPS, in_features=1280, out_features=1280, bias=True)
            (q_proj): Linear(1.64 M, 0.11% Params, 301.47 MMACs, 0.01% MACs, 65.33 us, 0.02% latency, 9.23 TFLOPS, in_features=1280, out_features=1280, bias=True)
            (out_proj): Linear(1.64 M, 0.11% Params, 301.47 MMACs, 0.01% MACs, 89.41 us, 0.03% latency, 6.74 TFLOPS, in_features=1280, out_features=1280, bias=True)
          )
          (encoder_attn_layer_norm): LayerNorm(2.56 k, 0.00% Params, 0 MACs, 0.00% MACs, 45.06 us, 0.02% latency, 26.13 GFLOPS, (1280,), eps=1e-05, elementwise_affine=True)
          (fc1): Linear(6.56 M, 0.42% Params, 1.21 GMACs, 0.02% MACs, 73.91 us, 0.03% latency, 32.63 TFLOPS, in_features=1280, out_features=5120, bias=True)
          (fc2): Linear(6.55 M, 0.42% Params, 1.21 GMACs, 0.02% MACs, 113.73 us, 0.04% latency, 21.21 TFLOPS, in_features=5120, out_features=1280, bias=True)
          (final_layer_norm): LayerNorm(2.56 k, 0.00% Params, 0 MACs, 0.00% MACs, 47.21 us, 0.02% latency, 24.95 GFLOPS, (1280,), eps=1e-05, elementwise_affine=True)
        )
        (31): WhisperDecoderLayer(
          26.24 M, 1.70% Params, 24.61 GMACs, 0.46% MACs, 1.96 ms, 0.75% latency, 25.07 TFLOPS, 
          (self_attn): WhisperAttention(
            6.56 M, 0.42% Params, 1.23 GMACs, 0.02% MACs, 540.97 us, 0.21% latency, 4.54 TFLOPS, 
            (k_proj): Linear(1.64 M, 0.11% Params, 301.47 MMACs, 0.01% MACs, 67.71 us, 0.03% latency, 8.9 TFLOPS, in_features=1280, out_features=1280, bias=False)
            (v_proj): Linear(1.64 M, 0.11% Params, 301.47 MMACs, 0.01% MACs, 62.7 us, 0.02% latency, 9.62 TFLOPS, in_features=1280, out_features=1280, bias=True)
            (q_proj): Linear(1.64 M, 0.11% Params, 301.47 MMACs, 0.01% MACs, 71.29 us, 0.03% latency, 8.46 TFLOPS, in_features=1280, out_features=1280, bias=True)
            (out_proj): Linear(1.64 M, 0.11% Params, 301.47 MMACs, 0.01% MACs, 65.33 us, 0.02% latency, 9.23 TFLOPS, in_features=1280, out_features=1280, bias=True)
          )
          (activation_fn): GELUActivation(0, 0.00% Params, 0 MACs, 0.00% MACs, 51.02 us, 0.02% latency, 0.0 FLOPS, )
          (self_attn_layer_norm): LayerNorm(2.56 k, 0.00% Params, 0 MACs, 0.00% MACs, 49.83 us, 0.02% latency, 23.63 GFLOPS, (1280,), eps=1e-05, elementwise_affine=True)
          (encoder_attn): WhisperAttention(
            6.56 M, 0.42% Params, 20.97 GMACs, 0.39% MACs, 859.26 us, 0.33% latency, 48.82 TFLOPS, 
            (k_proj): Linear(1.64 M, 0.11% Params, 9.83 GMACs, 0.18% MACs, 213.38 us, 0.08% latency, 92.14 TFLOPS, in_features=1280, out_features=1280, bias=False)
            (v_proj): Linear(1.64 M, 0.11% Params, 9.83 GMACs, 0.18% MACs, 196.22 us, 0.07% latency, 100.2 TFLOPS, in_features=1280, out_features=1280, bias=True)
            (q_proj): Linear(1.64 M, 0.11% Params, 301.47 MMACs, 0.01% MACs, 70.81 us, 0.03% latency, 8.51 TFLOPS, in_features=1280, out_features=1280, bias=True)
            (out_proj): Linear(1.64 M, 0.11% Params, 301.47 MMACs, 0.01% MACs, 69.38 us, 0.03% latency, 8.69 TFLOPS, in_features=1280, out_features=1280, bias=True)
          )
          (encoder_attn_layer_norm): LayerNorm(2.56 k, 0.00% Params, 0 MACs, 0.00% MACs, 41.72 us, 0.02% latency, 28.22 GFLOPS, (1280,), eps=1e-05, elementwise_affine=True)
          (fc1): Linear(6.56 M, 0.42% Params, 1.21 GMACs, 0.02% MACs, 66.28 us, 0.03% latency, 36.39 TFLOPS, in_features=1280, out_features=5120, bias=True)
          (fc2): Linear(6.55 M, 0.42% Params, 1.21 GMACs, 0.02% MACs, 109.67 us, 0.04% latency, 21.99 TFLOPS, in_features=5120, out_features=1280, bias=True)
          (final_layer_norm): LayerNorm(2.56 k, 0.00% Params, 0 MACs, 0.00% MACs, 37.67 us, 0.01% latency, 31.26 GFLOPS, (1280,), eps=1e-05, elementwise_affine=True)
        )
      )
      (layer_norm): LayerNorm(2.56 k, 0.00% Params, 0 MACs, 0.00% MACs, 49.83 us, 0.02% latency, 23.63 GFLOPS, (1280,), eps=1e-05, elementwise_affine=True)
    )
  )
  (proj_out): Linear(66.39 M, 4.30% Params, 12.22 GMACs, 0.23% MACs, 400.54 us, 0.15% latency, 60.99 TFLOPS, in_features=1280, out_features=51865, bias=False)
)
------------------------------------------------------------------------------
