…
2. Number of floating-point operations is a theoretical estimation, thus FLOPS computed using that could be larger than the maximum system throughput.
3. The fwd latency listed in the top module's profile is directly captured at the module forward function in PyTorch, thus it's less than the fwd latency shown above which is captured in DeepSpeed.

WhisperForConditionalGeneration(
  1543.3 M, 100.00% Params, 5356.22 GMACs, 100.00% MACs, 238.79 ms, 100.00% latency, 44.9 TFLOPS, 
  (model): WhisperModel(
    1543.3 M, 100.00% Params, 5343.21 GMACs, 99.76% MACs, 238.0 ms, 99.67% latency, 44.94 TFLOPS, 
    (encoder): WhisperEncoder(
      636.78 M, 41.26% Params, 4545.33 GMACs, 84.86% MACs, 178.03 ms, 74.55% latency, 51.11 TFLOPS, 
      (conv1): Conv1d(308.48 k, 0.02% Params, 3.69 GMACs, 0.07% MACs, 294.45 us, 0.12% latency, 25.09 TFLOPS, 80, 1280, kernel_size=(3,), stride=(1,), padding=(1,))
      (conv2): Conv1d(4.92 M, 0.32% Params, 29.49 GMACs, 0.55% MACs, 577.21 us, 0.24% latency, 102.2 TFLOPS, 1280, 1280, kernel_size=(3,), stride=(2,), padding=(1,))
      (embed_positions): Embedding(1.92 M, 0.12% Params, 0 MACs, 0.00% MACs, 0, 0.00% latency, 0.0 FLOPS, 1500, 1280)
      (layers): ModuleList(
        (0): WhisperEncoderLayer(
          19.68 M, 1.27% Params, 141.0 GMACs, 2.63% MACs, 5.1 ms, 2.14% latency, 55.3 TFLOPS, 
          (self_attn): WhisperAttention(
            6.56 M, 0.42% Params, 62.36 GMACs, 1.16% MACs, 2.93 ms, 1.23% latency, 42.59 TFLOPS, 
            (k_proj): Linear(1.64 M, 0.11% Params, 9.83 GMACs, 0.18% MACs, 219.58 us, 0.09% latency, 89.54 TFLOPS, in_features=1280, out_features=1280, bias=False)
            (v_proj): Linear(1.64 M, 0.11% Params, 9.83 GMACs, 0.18% MACs, 182.39 us, 0.08% latency, 107.8 TFLOPS, in_features=1280, out_features=1280, bias=True)
            (q_proj): Linear(1.64 M, 0.11% Params, 9.83 GMACs, 0.18% MACs, 244.38 us, 0.10% latency, 80.45 TFLOPS, in_features=1280, out_features=1280, bias=True)
            (out_proj): Linear(1.64 M, 0.11% Params, 9.83 GMACs, 0.18% MACs, 196.46 us, 0.08% latency, 100.08 TFLOPS, in_features=1280, out_features=1280, bias=True)
          )
          (self_attn_layer_norm): LayerNorm(2.56 k, 0.00% Params, 0 MACs, 0.00% MACs, 193.83 us, 0.08% latency, 198.11 GFLOPS, (1280,), eps=1e-05, elementwise_affine=True)
          (activation_fn): GELUActivation(0, 0.00% Params, 0 MACs, 0.00% MACs, 141.62 us, 0.06% latency, 0.0 FLOPS, )
          (fc1): Linear(6.56 M, 0.42% Params, 39.32 GMACs, 0.73% MACs, 578.17 us, 0.24% latency, 136.02 TFLOPS, in_features=1280, out_features=5120, bias=True)
          (fc2): Linear(6.55 M, 0.42% Params, 39.32 GMACs, 0.73% MACs, 565.29 us, 0.24% latency, 139.12 TFLOPS, in_features=5120, out_features=1280, bias=True)
          (final_layer_norm): LayerNorm(2.56 k, 0.00% Params, 0 MACs, 0.00% MACs, 177.62 us, 0.07% latency, 216.19 GFLOPS, (1280,), eps=1e-05, elementwise_affine=True)
        )
        (1): WhisperEncoderLayer(
          19.68 M, 1.27% Params, 141.0 GMACs, 2.63% MACs, 5.01 ms, 2.10% latency, 56.34 TFLOPS, 
          (self_attn): WhisperAttention(
            6.56 M, 0.42% Params, 62.36 GMACs, 1.16% MACs, 2.86 ms, 1.20% latency, 43.73 TFLOPS, 
            (k_proj): Linear(1.64 M, 0.11% Params, 9.83 GMACs, 0.18% MACs, 237.23 us, 0.10% latency, 82.88 TFLOPS, in_features=1280, out_features=1280, bias=False)
            (v_proj): Linear(1.64 M, 0.11% Params, 9.83 GMACs, 0.18% MACs, 184.06 us, 0.08% latency, 106.82 TFLOPS, in_features=1280, out_features=1280, bias=True)
            (q_proj): Linear(1.64 M, 0.11% Params, 9.83 GMACs, 0.18% MACs, 194.79 us, 0.08% latency, 100.93 TFLOPS, in_features=1280, out_features=1280, bias=True)
            (out_proj): Linear(1.64 M, 0.11% Params, 9.83 GMACs, 0.18% MACs, 196.46 us, 0.08% latency, 100.08 TFLOPS, in_features=1280, out_features=1280, bias=True)
          )
          (self_attn_layer_norm): LayerNorm(2.56 k, 0.00% Params, 0 MACs, 0.00% MACs, 183.11 us, 0.08% latency, 209.72 GFLOPS, (1280,), eps=1e-05, elementwise_affine=True)
          (activation_fn): GELUActivation(0, 0.00% Params, 0 MACs, 0.00% MACs, 140.43 us, 0.06% latency, 0.0 FLOPS, )
          (fc1): Linear(6.56 M, 0.42% Params, 39.32 GMACs, 0.73% MACs, 579.36 us, 0.24% latency, 135.74 TFLOPS, in_features=1280, out_features=5120, bias=True)
          (fc2): Linear(6.55 M, 0.42% Params, 39.32 GMACs, 0.73% MACs, 559.33 us, 0.23% latency, 140.6 TFLOPS, in_features=5120, out_features=1280, bias=True)
          (final_layer_norm): LayerNorm(2.56 k, 0.00% Params, 0 MACs, 0.00% MACs, 173.57 us, 0.07% latency, 221.24 GFLOPS, (1280,), eps=1e-05, elementwise_affine=True)
        )
        (2): WhisperEncoderLayer(
          19.68 M, 1.27% Params, 141.0 GMACs, 2.63% MACs, 5.03 ms, 2.11% latency, 56.15 TFLOPS, 
          (self_attn): WhisperAttention(
            6.56 M, 0.42% Params, 62.36 GMACs, 1.16% MACs, 2.87 ms, 1.20% latency, 43.58 TFLOPS, 
            (k_proj): Linear(1.64 M, 0.11% Params, 9.83 GMACs, 0.18% MACs, 232.93 us, 0.10% latency, 84.4 TFLOPS, in_features=1280, out_features=1280, bias=False)
            (v_proj): Linear(1.64 M, 0.11% Params, 9.83 GMACs, 0.18% MACs, 182.63 us, 0.08% latency, 107.65 TFLOPS, in_features=1280, out_features=1280, bias=True)
            (q_proj): Linear(1.64 M, 0.11% Params, 9.83 GMACs, 0.18% MACs, 188.11 us, 0.08% latency, 104.52 TFLOPS, in_features=1280, out_features=1280, bias=True)
            (out_proj): Linear(1.64 M, 0.11% Params, 9.83 GMACs, 0.18% MACs, 198.36 us, 0.08% latency, 99.11 TFLOPS, in_features=1280, out_features=1280, bias=True)
          )
          (self_attn_layer_norm): LayerNorm(2.56 k, 0.00% Params, 0 MACs, 0.00% MACs, 171.42 us, 0.07% latency, 224.01 GFLOPS, (1280,), eps=1e-05, elementwise_affine=True)
          (activation_fn): GELUActivation(0, 0.00% Params, 0 MACs, 0.00% MACs, 144.24 us, 0.06% latency, 0.0 FLOPS, )
          (fc1): Linear(6.56 M, 0.42% Params, 39.32 GMACs, 0.73% MACs, 577.93 us, 0.24% latency, 136.08 TFLOPS, in_features=1280, out_features=5120, bias=True)
          (fc2): Linear(6.55 M, 0.42% Params, 39.32 GMACs, 0.73% MACs, 571.97 us, 0.24% latency, 137.5 TFLOPS, in_features=5120, out_features=1280, bias=True)
          (final_layer_norm): LayerNorm(2.56 k, 0.00% Params, 0 MACs, 0.00% MACs, 194.79 us, 0.08% latency, 197.14 GFLOPS, (1280,), eps=1e-05, elementwise_affine=True)
        )
        (3): WhisperEncoderLayer(
          19.68 M, 1.27% Params, 141.0 GMACs, 2.63% MACs, 4.98 ms, 2.09% latency, 56.63 TFLOPS, 
          (self_attn): WhisperAttention(
            6.56 M, 0.42% Params, 62.36 GMACs, 1.16% MACs, 2.86 ms, 1.20% latency, 43.73 TFLOPS, 
            (k_proj): Linear(1.64 M, 0.11% Params, 9.83 GMACs, 0.18% MACs, 206.47 us, 0.09% latency, 95.22 TFLOPS, in_features=1280, out_features=1280, bias=False)
            (v_proj): Linear(1.64 M, 0.11% Params, 9.83 GMACs, 0.18% MACs, 193.6 us, 0.08% latency, 101.56 TFLOPS, in_features=1280, out_features=1280, bias=True)
            (q_proj): Linear(1.64 M, 0.11% Params, 9.83 GMACs, 0.18% MACs, 227.69 us, 0.10% latency, 86.35 TFLOPS, in_features=1280, out_features=1280, bias=True)
            (out_proj): Linear(1.64 M, 0.11% Params, 9.83 GMACs, 0.18% MACs, 187.16 us, 0.08% latency, 105.05 TFLOPS, in_features=1280, out_features=1280, bias=True)
          )
          (self_attn_layer_norm): LayerNorm(2.56 k, 0.00% Params, 0 MACs, 0.00% MACs, 169.04 us, 0.07% latency, 227.17 GFLOPS, (1280,), eps=1e-05, elementwise_affine=True)
          (activation_fn): GELUActivation(0, 0.00% Params, 0 MACs, 0.00% MACs, 138.28 us, 0.06% latency, 0.0 FLOPS, )
          (fc1): Linear(6.56 M, 0.42% Params, 39.32 GMACs, 0.73% MACs, 579.36 us, 0.24% latency, 135.74 TFLOPS, in_features=1280, out_features=5120, bias=True)
          (fc2): Linear(6.55 M, 0.42% Params, 39.32 GMACs, 0.73% MACs, 566.01 us, 0.24% latency, 138.94 TFLOPS, in_features=5120, out_features=1280, bias=True)
          (final_layer_norm): LayerNorm(2.56 k, 0.00% Params, 0 MACs, 0.00% MACs, 173.33 us, 0.07% latency, 221.54 GFLOPS, (1280,), eps=1e-05, elementwise_affine=True)
        )
        (4): WhisperEncoderLayer(
          19.68 M, 1.27% Params, 141.0 GMACs, 2.63% MACs, 4.96 ms, 2.08% latency, 56.89 TFLOPS, 
          (self_attn): WhisperAttention(
            6.56 M, 0.42% Params, 62.36 GMACs, 1.16% MACs, 2.82 ms, 1.18% latency, 44.24 TFLOPS, 
            (k_proj): Linear(1.64 M, 0.11% Params, 9.83 GMACs, 0.18% MACs, 206.95 us, 0.09% latency, 95.0 TFLOPS, in_features=1280, out_features=1280, bias=False)
            (v_proj): Linear(1.64 M, 0.11% Params, 9.83 GMACs, 0.18% MACs, 181.2 us, 0.08% latency, 108.5 TFLOPS, in_features=1280, out_features=1280, bias=True)
            (q_proj): Linear(1.64 M, 0.11% Params, 9.83 GMACs, 0.18% MACs, 190.97 us, 0.08% latency, 102.95 TFLOPS, in_features=1280, out_features=1280, bias=True)
            (out_proj): Linear(1.64 M, 0.11% Params, 9.83 GMACs, 0.18% MACs, 189.78 us, 0.08% latency, 103.6 TFLOPS, in_features=1280, out_features=1280, bias=True)
          )
          (self_attn_layer_norm): LayerNorm(2.56 k, 0.00% Params, 0 MACs, 0.00% MACs, 168.8 us, 0.07% latency, 227.49 GFLOPS, (1280,), eps=1e-05, elementwise_affine=True)
          (activation_fn): GELUActivation(0, 0.00% Params, 0 MACs, 0.00% MACs, 139.47 us, 0.06% latency, 0.0 FLOPS, )
          (fc1): Linear(6.56 M, 0.42% Params, 39.32 GMACs, 0.73% MACs, 579.6 us, 0.24% latency, 135.69 TFLOPS, in_features=1280, out_features=5120, bias=True)
          (fc2): Linear(6.55 M, 0.42% Params, 39.32 GMACs, 0.73% MACs, 560.28 us, 0.23% latency, 140.36 TFLOPS, in_features=5120, out_features=1280, bias=True)
          (final_layer_norm): LayerNorm(2.56 k, 0.00% Params, 0 MACs, 0.00% MACs, 175.71 us, 0.07% latency, 218.54 GFLOPS, (1280,), eps=1e-05, elementwise_affine=True)
        )
        (5): WhisperEncoderLayer(
          19.68 M, 1.27% Params, 141.0 GMACs, 2.63% MACs, 4.93 ms, 2.07% latency, 57.24 TFLOPS, 
          (self_attn): WhisperAttention(
            6.56 M, 0.42% Params, 62.36 GMACs, 1.16% MACs, 2.79 ms, 1.17% latency, 44.71 TFLOPS, 
            (k_proj): Linear(1.64 M, 0.11% Params, 9.83 GMACs, 0.18% MACs, 203.85 us, 0.09% latency, 96.45 TFLOPS, in_features=1280, out_features=1280, bias=False)
            (v_proj): Linear(1.64 M, 0.11% Params, 9.83 GMACs, 0.18% MACs, 171.9 us, 0.07% latency, 114.37 TFLOPS, in_features=1280, out_features=1280, bias=True)
            (q_proj): Linear(1.64 M, 0.11% Params, 9.83 GMACs, 0.18% MACs, 186.44 us, 0.08% latency, 105.45 TFLOPS, in_features=1280, out_features=1280, bias=True)
            (out_proj): Linear(1.64 M, 0.11% Params, 9.83 GMACs, 0.18% MACs, 193.12 us, 0.08% latency, 101.81 TFLOPS, in_features=1280, out_features=1280, bias=True)
          )
          (self_attn_layer_norm): LayerNorm(2.56 k, 0.00% Params, 0 MACs, 0.00% MACs, 179.05 us, 0.07% latency, 214.46 GFLOPS, (1280,), eps=1e-05, elementwise_affine=True)
          (activation_fn): GELUActivation(0, 0.00% Params, 0 MACs, 0.00% MACs, 146.63 us, 0.06% latency, 0.0 FLOPS, )
          (fc1): Linear(6.56 M, 0.42% Params, 39.32 GMACs, 0.73% MACs, 576.5 us, 0.24% latency, 136.42 TFLOPS, in_features=1280, out_features=5120, bias=True)
          (fc2): Linear(6.55 M, 0.42% Params, 39.32 GMACs, 0.73% MACs, 564.1 us, 0.24% latency, 139.41 TFLOPS, in_features=5120, out_features=1280, bias=True)
          (final_layer_norm): LayerNorm(2.56 k, 0.00% Params, 0 MACs, 0.00% MACs, 173.33 us, 0.07% latency, 221.54 GFLOPS, (1280,), eps=1e-05, elementwise_affine=True)
        )
        (6): WhisperEncoderLayer(
          19.68 M, 1.27% Params, 141.0 GMACs, 2.63% MACs, 4.93 ms, 2.06% latency, 57.27 TFLOPS, 
          (self_attn): WhisperAttention(
            6.56 M, 0.42% Params, 62.36 GMACs, 1.16% MACs, 2.8 ms, 1.17% latency, 44.67 TFLOPS, 
            (k_proj): Linear(1.64 M, 0.11% Params, 9.83 GMACs, 0.18% MACs, 203.37 us, 0.09% latency, 96.67 TFLOPS, in_features=1280, out_features=1280, bias=False)
            (v_proj): Linear(1.64 M, 0.11% Params, 9.83 GMACs, 0.18% MACs, 179.77 us, 0.08% latency, 109.37 TFLOPS, in_features=1280, out_features=1280, bias=True)
            (q_proj): Linear(1.64 M, 0.11% Params, 9.83 GMACs, 0.18% MACs, 186.44 us, 0.08% latency, 105.45 TFLOPS, in_features=1280, out_features=1280, bias=True)
            (out_proj): Linear(1.64 M, 0.11% Params, 9.83 GMACs, 0.18% MACs, 194.79 us, 0.08% latency, 100.93 TFLOPS, in_features=1280, out_features=1280, bias=True)
          )
          (self_attn_layer_norm): LayerNorm(2.56 k, 0.00% Params, 0 MACs, 0.00% MACs, 166.18 us, 0.07% latency, 231.08 GFLOPS, (1280,), eps=1e-05, elementwise_affine=True)
          (activation_fn): GELUActivation(0, 0.00% Params, 0 MACs, 0.00% MACs, 142.1 us, 0.06% latency, 0.0 FLOPS, )
          (fc1): Linear(6.56 M, 0.42% Params, 39.32 GMACs, 0.73% MACs, 578.4 us, 0.24% latency, 135.97 TFLOPS, in_features=1280, out_features=5120, bias=True)
          (fc2): Linear(6.55 M, 0.42% Params, 39.32 GMACs, 0.73% MACs, 568.39 us, 0.24% latency, 138.36 TFLOPS, in_features=5120, out_features=1280, bias=True)
          (final_layer_norm): LayerNorm(2.56 k, 0.00% Params, 0 MACs, 0.00% MACs, 176.43 us, 0.07% latency, 217.65 GFLOPS, (1280,), eps=1e-05, elementwise_affine=True)
        )
        (7): WhisperEncoderLayer(
          19.68 M, 1.27% Params, 141.0 GMACs, 2.63% MACs, 4.94 ms, 2.07% latency, 57.18 TFLOPS, 
          (self_attn): WhisperAttention(
            6.56 M, 0.42% Params, 62.36 GMACs, 1.16% MACs, 2.8 ms, 1.17% latency, 44.67 TFLOPS, 
            (k_proj): Linear(1.64 M, 0.11% Params, 9.83 GMACs, 0.18% MACs, 212.19 us, 0.09% latency, 92.66 TFLOPS, in_features=1280, out_features=1280, bias=False)
            (v_proj): Linear(1.64 M, 0.11% Params, 9.83 GMACs, 0.18% MACs, 182.15 us, 0.08% latency, 107.94 TFLOPS, in_features=1280, out_features=1280, bias=True)
            (q_proj): Linear(1.64 M, 0.11% Params, 9.83 GMACs, 0.18% MACs, 186.44 us, 0.08% latency, 105.45 TFLOPS, in_features=1280, out_features=1280, bias=True)
            (out_proj): Linear(1.64 M, 0.11% Params, 9.83 GMACs, 0.18% MACs, 190.97 us, 0.08% latency, 102.95 TFLOPS, in_features=1280, out_features=1280, bias=True)
          )
          (self_attn_layer_norm): LayerNorm(2.56 k, 0.00% Params, 0 MACs, 0.00% MACs, 172.14 us, 0.07% latency, 223.08 GFLOPS, (1280,), eps=1e-05, elementwise_affine=True)
          (activation_fn): GELUActivation(0, 0.00% Params, 0 MACs, 0.00% MACs, 152.83 us, 0.06% latency, 0.0 FLOPS, )
          (fc1): Linear(6.56 M, 0.42% Params, 39.32 GMACs, 0.73% MACs, 572.44 us, 0.24% latency, 137.38 TFLOPS, in_features=1280, out_features=5120, bias=True)
          (fc2): Linear(6.55 M, 0.42% Params, 39.32 GMACs, 0.73% MACs, 566.72 us, 0.24% latency, 138.77 TFLOPS, in_features=5120, out_features=1280, bias=True)
          (final_layer_norm): LayerNorm(2.56 k, 0.00% Params, 0 MACs, 0.00% MACs, 172.14 us, 0.07% latency, 223.08 GFLOPS, (1280,), eps=1e-05, elementwise_affine=True)
        )
        (8): WhisperEncoderLayer(
          19.68 M, 1.27% Params, 141.0 GMACs, 2.63% MACs, 4.99 ms, 2.09% latency, 56.54 TFLOPS, 
          (self_attn): WhisperAttention(
            6.56 M, 0.42% Params, 62.36 GMACs, 1.16% MACs, 2.81 ms, 1.18% latency, 44.46 TFLOPS, 
            (k_proj): Linear(1.64 M, 0.11% Params, 9.83 GMACs, 0.18% MACs, 207.66 us, 0.09% latency, 94.68 TFLOPS, in_features=1280, out_features=1280, bias=False)
            (v_proj): Linear(1.64 M, 0.11% Params, 9.83 GMACs, 0.18% MACs, 181.2 us, 0.08% latency, 108.5 TFLOPS, in_features=1280, out_features=1280, bias=True)
            (q_proj): Linear(1.64 M, 0.11% Params, 9.83 GMACs, 0.18% MACs, 187.4 us, 0.08% latency, 104.92 TFLOPS, in_features=1280, out_features=1280, bias=True)
            (out_proj): Linear(1.64 M, 0.11% Params, 9.83 GMACs, 0.18% MACs, 189.07 us, 0.08% latency, 103.99 TFLOPS, in_features=1280, out_features=1280, bias=True)
          )
          (self_attn_layer_norm): LayerNorm(2.56 k, 0.00% Params, 0 MACs, 0.00% MACs, 173.57 us, 0.07% latency, 221.24 GFLOPS, (1280,), eps=1e-05, elementwise_affine=True)
          (activation_fn): GELUActivation(0, 0.00% Params, 0 MACs, 0.00% MACs, 139.47 us, 0.06% latency, 0.0 FLOPS, )
          (fc1): Linear(6.56 M, 0.42% Params, 39.32 GMACs, 0.73% MACs, 581.98 us, 0.24% latency, 135.13 TFLOPS, in_features=1280, out_features=5120, bias=True)
          (fc2): Linear(6.55 M, 0.42% Params, 39.32 GMACs, 0.73% MACs, 559.81 us, 0.23% latency, 140.48 TFLOPS, in_features=5120, out_features=1280, bias=True)
          (final_layer_norm): LayerNorm(2.56 k, 0.00% Params, 0 MACs, 0.00% MACs, 175.24 us, 0.07% latency, 219.13 GFLOPS, (1280,), eps=1e-05, elementwise_affine=True)
        )
        (9): WhisperEncoderLayer(
          19.68 M, 1.27% Params, 141.0 GMACs, 2.63% MACs, 5.01 ms, 2.10% latency, 56.37 TFLOPS, 
          (self_attn): WhisperAttention(
            6.56 M, 0.42% Params, 62.36 GMACs, 1.16% MACs, 2.85 ms, 1.19% latency, 43.88 TFLOPS, 
            (k_proj): Linear(1.64 M, 0.11% Params, 9.83 GMACs, 0.18% MACs, 210.05 us, 0.09% latency, 93.6 TFLOPS, in_features=1280, out_features=1280, bias=False)
            (v_proj): Linear(1.64 M, 0.11% Params, 9.83 GMACs, 0.18% MACs, 182.63 us, 0.08% latency, 107.65 TFLOPS, in_features=1280, out_features=1280, bias=True)
            (q_proj): Linear(1.64 M, 0.11% Params, 9.83 GMACs, 0.18% MACs, 189.3 us, 0.08% latency, 103.86 TFLOPS, in_features=1280, out_features=1280, bias=True)
            (out_proj): Linear(1.64 M, 0.11% Params, 9.83 GMACs, 0.18% MACs, 190.26 us, 0.08% latency, 103.34 TFLOPS, in_features=1280, out_features=1280, bias=True)
          )
          (self_attn_layer_norm): LayerNorm(2.56 k, 0.00% Params, 0 MACs, 0.00% MACs, 178.1 us, 0.07% latency, 215.61 GFLOPS, (1280,), eps=1e-05, elementwise_affine=True)
          (activation_fn): GELUActivation(0, 0.00% Params, 0 MACs, 0.00% MACs, 156.16 us, 0.07% latency, 0.0 FLOPS, )
          (fc1): Linear(6.56 M, 0.42% Params, 39.32 GMACs, 0.73% MACs, 580.07 us, 0.24% latency, 135.57 TFLOPS, in_features=1280, out_features=5120, bias=True)
          (fc2): Linear(6.55 M, 0.42% Params, 39.32 GMACs, 0.73% MACs, 570.06 us, 0.24% latency, 137.96 TFLOPS, in_features=5120, out_features=1280, bias=True)
          (final_layer_norm): LayerNorm(2.56 k, 0.00% Params, 0 MACs, 0.00% MACs, 170.71 us, 0.07% latency, 224.95 GFLOPS, (1280,), eps=1e-05, elementwise_affine=True)
        )
        (10): WhisperEncoderLayer(
          19.68 M, 1.27% Params, 141.0 GMACs, 2.63% MACs, 4.99 ms, 2.09% latency, 56.56 TFLOPS, 
          (self_attn): WhisperAttention(
            6.56 M, 0.42% Params, 62.36 GMACs, 1.16% MACs, 2.85 ms, 1.19% latency, 43.78 TFLOPS, 
            (k_proj): Linear(1.64 M, 0.11% Params, 9.83 GMACs, 0.18% MACs, 196.7 us, 0.08% latency, 99.96 TFLOPS, in_features=1280, out_features=1280, bias=False)
            (v_proj): Linear(1.64 M, 0.11% Params, 9.83 GMACs, 0.18% MACs, 177.86 us, 0.07% latency, 110.54 TFLOPS, in_features=1280, out_features=1280, bias=True)
            (q_proj): Linear(1.64 M, 0.11% Params, 9.83 GMACs, 0.18% MACs, 190.5 us, 0.08% latency, 103.21 TFLOPS, in_features=1280, out_features=1280, bias=True)
            (out_proj): Linear(1.64 M, 0.11% Params, 9.83 GMACs, 0.18% MACs, 194.07 us, 0.08% latency, 101.31 TFLOPS, in_features=1280, out_features=1280, bias=True)
          )
          (self_attn_layer_norm): LayerNorm(2.56 k, 0.00% Params, 0 MACs, 0.00% MACs, 172.14 us, 0.07% latency, 223.08 GFLOPS, (1280,), eps=1e-05, elementwise_affine=True)
          (activation_fn): GELUActivation(0, 0.00% Params, 0 MACs, 0.00% MACs, 141.86 us, 0.06% latency, 0.0 FLOPS, )
          (fc1): Linear(6.56 M, 0.42% Params, 39.32 GMACs, 0.73% MACs, 578.88 us, 0.24% latency, 135.85 TFLOPS, in_features=1280, out_features=5120, bias=True)
          (fc2): Linear(6.55 M, 0.42% Params, 39.32 GMACs, 0.73% MACs, 561.71 us, 0.24% latency, 140.01 TFLOPS, in_features=5120, out_features=1280, bias=True)
          (final_layer_norm): LayerNorm(2.56 k, 0.00% Params, 0 MACs, 0.00% MACs, 171.18 us, 0.07% latency, 224.32 GFLOPS, (1280,), eps=1e-05, elementwise_affine=True)
        )
        (11): WhisperEncoderLayer(
          19.68 M, 1.27% Params, 141.0 GMACs, 2.63% MACs, 4.93 ms, 2.06% latency, 57.26 TFLOPS, 
          (self_attn): WhisperAttention(
            6.56 M, 0.42% Params, 62.36 GMACs, 1.16% MACs, 2.79 ms, 1.17% latency, 44.73 TFLOPS, 
            (k_proj): Linear(1.64 M, 0.11% Params, 9.83 GMACs, 0.18% MACs, 201.23 us, 0.08% latency, 97.71 TFLOPS, in_features=1280, out_features=1280, bias=False)
            (v_proj): Linear(1.64 M, 0.11% Params, 9.83 GMACs, 0.18% MACs, 180.01 us, 0.08% latency, 109.22 TFLOPS, in_features=1280, out_features=1280, bias=True)
            (q_proj): Linear(1.64 M, 0.11% Params, 9.83 GMACs, 0.18% MACs, 194.55 us, 0.08% latency, 101.06 TFLOPS, in_features=1280, out_features=1280, bias=True)
            (out_proj): Linear(1.64 M, 0.11% Params, 9.83 GMACs, 0.18% MACs, 188.35 us, 0.08% latency, 104.38 TFLOPS, in_features=1280, out_features=1280, bias=True)
          )
          (self_attn_layer_norm): LayerNorm(2.56 k, 0.00% Params, 0 MACs, 0.00% MACs, 180.72 us, 0.08% latency, 212.48 GFLOPS, (1280,), eps=1e-05, elementwise_affine=True)
          (activation_fn): GELUActivation(0, 0.00% Params, 0 MACs, 0.00% MACs, 136.14 us, 0.06% latency, 0.0 FLOPS, )
          (fc1): Linear(6.56 M, 0.42% Params, 39.32 GMACs, 0.73% MACs, 579.6 us, 0.24% latency, 135.69 TFLOPS, in_features=1280, out_features=5120, bias=True)
          (fc2): Linear(6.55 M, 0.42% Params, 39.32 GMACs, 0.73% MACs, 571.25 us, 0.24% latency, 137.67 TFLOPS, in_features=5120, out_features=1280, bias=True)
          (final_layer_norm): LayerNorm(2.56 k, 0.00% Params, 0 MACs, 0.00% MACs, 169.99 us, 0.07% latency, 225.89 GFLOPS, (1280,), eps=1e-05, elementwise_affine=True)
        )
        (12): WhisperEncoderLayer(
          19.68 M, 1.27% Params, 141.0 GMACs, 2.63% MACs, 4.94 ms, 2.07% latency, 57.09 TFLOPS, 
          (self_attn): WhisperAttention(
            6.56 M, 0.42% Params, 62.36 GMACs, 1.16% MACs, 2.82 ms, 1.18% latency, 44.28 TFLOPS, 
            (k_proj): Linear(1.64 M, 0.11% Params, 9.83 GMACs, 0.18% MACs, 213.15 us, 0.09% latency, 92.24 TFLOPS, in_features=1280, out_features=1280, bias=False)
            (v_proj): Linear(1.64 M, 0.11% Params, 9.83 GMACs, 0.18% MACs, 179.77 us, 0.08% latency, 109.37 TFLOPS, in_features=1280, out_features=1280, bias=True)
            (q_proj): Linear(1.64 M, 0.11% Params, 9.83 GMACs, 0.18% MACs, 187.87 us, 0.08% latency, 104.65 TFLOPS, in_features=1280, out_features=1280, bias=True)
            (out_proj): Linear(1.64 M, 0.11% Params, 9.83 GMACs, 0.18% MACs, 187.64 us, 0.08% latency, 104.78 TFLOPS, in_features=1280, out_features=1280, bias=True)
          )
          (self_attn_layer_norm): LayerNorm(2.56 k, 0.00% Params, 0 MACs, 0.00% MACs, 174.52 us, 0.07% latency, 220.03 GFLOPS, (1280,), eps=1e-05, elementwise_affine=True)
          (activation_fn): GELUActivation(0, 0.00% Params, 0 MACs, 0.00% MACs, 141.38 us, 0.06% latency, 0.0 FLOPS, )
          (fc1): Linear(6.56 M, 0.42% Params, 39.32 GMACs, 0.73% MACs, 577.93 us, 0.24% latency, 136.08 TFLOPS, in_features=1280, out_features=5120, bias=True)
          (fc2): Linear(6.55 M, 0.42% Params, 39.32 GMACs, 0.73% MACs, 564.1 us, 0.24% latency, 139.41 TFLOPS, in_features=5120, out_features=1280, bias=True)
          (final_layer_norm): LayerNorm(2.56 k, 0.00% Params, 0 MACs, 0.00% MACs, 171.66 us, 0.07% latency, 223.7 GFLOPS, (1280,), eps=1e-05, elementwise_affine=True)
        )
        (13): WhisperEncoderLayer(
          19.68 M, 1.27% Params, 141.0 GMACs, 2.63% MACs, 4.97 ms, 2.08% latency, 56.76 TFLOPS, 
          (self_attn): WhisperAttention(
            6.56 M, 0.42% Params, 62.36 GMACs, 1.16% MACs, 2.84 ms, 1.19% latency, 43.99 TFLOPS, 
            (k_proj): Linear(1.64 M, 0.11% Params, 9.83 GMACs, 0.18% MACs, 205.52 us, 0.09% latency, 95.67 TFLOPS, in_features=1280, out_features=1280, bias=False)
            (v_proj): Linear(1.64 M, 0.11% Params, 9.83 GMACs, 0.18% MACs, 180.48 us, 0.08% latency, 108.93 TFLOPS, in_features=1280, out_features=1280, bias=True)
            (q_proj): Linear(1.64 M, 0.11% Params, 9.83 GMACs, 0.18% MACs, 194.31 us, 0.08% latency, 101.18 TFLOPS, in_features=1280, out_features=1280, bias=True)
            (out_proj): Linear(1.64 M, 0.11% Params, 9.83 GMACs, 0.18% MACs, 187.4 us, 0.08% latency, 104.92 TFLOPS, in_features=1280, out_features=1280, bias=True)
          )
          (self_attn_layer_norm): LayerNorm(2.56 k, 0.00% Params, 0 MACs, 0.00% MACs, 170.71 us, 0.07% latency, 224.95 GFLOPS, (1280,), eps=1e-05, elementwise_affine=True)
          (activation_fn): GELUActivation(0, 0.00% Params, 0 MACs, 0.00% MACs, 140.91 us, 0.06% latency, 0.0 FLOPS, )
          (fc1): Linear(6.56 M, 0.42% Params, 39.32 GMACs, 0.73% MACs, 577.21 us, 0.24% latency, 136.25 TFLOPS, in_features=1280, out_features=5120, bias=True)
          (fc2): Linear(6.55 M, 0.42% Params, 39.32 GMACs, 0.73% MACs, 564.1 us, 0.24% latency, 139.41 TFLOPS, in_features=5120, out_features=1280, bias=True)
          (final_layer_norm): LayerNorm(2.56 k, 0.00% Params, 0 MACs, 0.00% MACs, 170.95 us, 0.07% latency, 224.63 GFLOPS, (1280,), eps=1e-05, elementwise_affine=True)
        )
        (14): WhisperEncoderLayer(
          19.68 M, 1.27% Params, 141.0 GMACs, 2.63% MACs, 4.99 ms, 2.09% latency, 56.58 TFLOPS, 
          (self_attn): WhisperAttention(
            6.56 M, 0.42% Params, 62.36 GMACs, 1.16% MACs, 2.83 ms, 1.18% latency, 44.19 TFLOPS, 
            (k_proj): Linear(1.64 M, 0.11% Params, 9.83 GMACs, 0.18% MACs, 201.23 us, 0.08% latency, 97.71 TFLOPS, in_features=1280, out_features=1280, bias=False)
            (v_proj): Linear(1.64 M, 0.11% Params, 9.83 GMACs, 0.18% MACs, 181.44 us, 0.08% latency, 108.36 TFLOPS, in_features=1280, out_features=1280, bias=True)
            (q_proj): Linear(1.64 M, 0.11% Params, 9.83 GMACs, 0.18% MACs, 189.07 us, 0.08% latency, 103.99 TFLOPS, in_features=1280, out_features=1280, bias=True)
            (out_proj): Linear(1.64 M, 0.11% Params, 9.83 GMACs, 0.18% MACs, 193.6 us, 0.08% latency, 101.56 TFLOPS, in_features=1280, out_features=1280, bias=True)
          )
          (self_attn_layer_norm): LayerNorm(2.56 k, 0.00% Params, 0 MACs, 0.00% MACs, 170.95 us, 0.07% latency, 224.63 GFLOPS, (1280,), eps=1e-05, elementwise_affine=True)
          (activation_fn): GELUActivation(0, 0.00% Params, 0 MACs, 0.00% MACs, 137.57 us, 0.06% latency, 0.0 FLOPS, )
          (fc1): Linear(6.56 M, 0.42% Params, 39.32 GMACs, 0.73% MACs, 578.64 us, 0.24% latency, 135.91 TFLOPS, in_features=1280, out_features=5120, bias=True)
          (fc2): Linear(6.55 M, 0.42% Params, 39.32 GMACs, 0.73% MACs, 589.37 us, 0.25% latency, 133.44 TFLOPS, in_features=5120, out_features=1280, bias=True)
          (final_layer_norm): LayerNorm(2.56 k, 0.00% Params, 0 MACs, 0.00% MACs, 170.71 us, 0.07% latency, 224.95 GFLOPS, (1280,), eps=1e-05, elementwise_affine=True)
        )
        (15): WhisperEncoderLayer(
          19.68 M, 1.27% Params, 141.0 GMACs, 2.63% MACs, 4.94 ms, 2.07% latency, 57.1 TFLOPS, 
          (self_attn): WhisperAttention(
            6.56 M, 0.42% Params, 62.36 GMACs, 1.16% MACs, 2.82 ms, 1.18% latency, 44.35 TFLOPS, 
            (k_proj): Linear(1.64 M, 0.11% Params, 9.83 GMACs, 0.18% MACs, 204.8 us, 0.09% latency, 96.0 TFLOPS, in_features=1280, out_features=1280, bias=False)
            (v_proj): Linear(1.64 M, 0.11% Params, 9.83 GMACs, 0.18% MACs, 181.44 us, 0.08% latency, 108.36 TFLOPS, in_features=1280, out_features=1280, bias=True)
            (q_proj): Linear(1.64 M, 0.11% Params, 9.83 GMACs, 0.18% MACs, 191.45 us, 0.08% latency, 102.69 TFLOPS, in_features=1280, out_features=1280, bias=True)
            (out_proj): Linear(1.64 M, 0.11% Params, 9.83 GMACs, 0.18% MACs, 190.5 us, 0.08% latency, 103.21 TFLOPS, in_features=1280, out_features=1280, bias=True)
          )
          (self_attn_layer_norm): LayerNorm(2.56 k, 0.00% Params, 0 MACs, 0.00% MACs, 173.09 us, 0.07% latency, 221.85 GFLOPS, (1280,), eps=1e-05, elementwise_affine=True)
          (activation_fn): GELUActivation(0, 0.00% Params, 0 MACs, 0.00% MACs, 142.34 us, 0.06% latency, 0.0 FLOPS, )
          (fc1): Linear(6.56 M, 0.42% Params, 39.32 GMACs, 0.73% MACs, 578.4 us, 0.24% latency, 135.97 TFLOPS, in_features=1280, out_features=5120, bias=True)
          (fc2): Linear(6.55 M, 0.42% Params, 39.32 GMACs, 0.73% MACs, 565.05 us, 0.24% latency, 139.18 TFLOPS, in_features=5120, out_features=1280, bias=True)
          (final_layer_norm): LayerNorm(2.56 k, 0.00% Params, 0 MACs, 0.00% MACs, 169.04 us, 0.07% latency, 227.17 GFLOPS, (1280,), eps=1e-05, elementwise_affine=True)
        )
        (16): WhisperEncoderLayer(
          19.68 M, 1.27% Params, 141.0 GMACs, 2.63% MACs, 4.91 ms, 2.06% latency, 57.44 TFLOPS, 
          (self_attn): WhisperAttention(
            6.56 M, 0.42% Params, 62.36 GMACs, 1.16% MACs, 2.8 ms, 1.17% latency, 44.56 TFLOPS, 
            (k_proj): Linear(1.64 M, 0.11% Params, 9.83 GMACs, 0.18% MACs, 204.32 us, 0.09% latency, 96.22 TFLOPS, in_features=1280, out_features=1280, bias=False)
            (v_proj): Linear(1.64 M, 0.11% Params, 9.83 GMACs, 0.18% MACs, 180.24 us, 0.08% latency, 109.08 TFLOPS, in_features=1280, out_features=1280, bias=True)
            (q_proj): Linear(1.64 M, 0.11% Params, 9.83 GMACs, 0.18% MACs, 188.83 us, 0.08% latency, 104.12 TFLOPS, in_features=1280, out_features=1280, bias=True)
            (out_proj): Linear(1.64 M, 0.11% Params, 9.83 GMACs, 0.18% MACs, 193.36 us, 0.08% latency, 101.68 TFLOPS, in_features=1280, out_features=1280, bias=True)
          )
          (self_attn_layer_norm): LayerNorm(2.56 k, 0.00% Params, 0 MACs, 0.00% MACs, 167.37 us, 0.07% latency, 229.43 GFLOPS, (1280,), eps=1e-05, elementwise_affine=True)
          (activation_fn): GELUActivation(0, 0.00% Params, 0 MACs, 0.00% MACs, 142.34 us, 0.06% latency, 0.0 FLOPS, )
          (fc1): Linear(6.56 M, 0.42% Params, 39.32 GMACs, 0.73% MACs, 578.4 us, 0.24% latency, 135.97 TFLOPS, in_features=1280, out_features=5120, bias=True)
          (fc2): Linear(6.55 M, 0.42% Params, 39.32 GMACs, 0.73% MACs, 570.3 us, 0.24% latency, 137.9 TFLOPS, in_features=5120, out_features=1280, bias=True)
          (final_layer_norm): LayerNorm(2.56 k, 0.00% Params, 0 MACs, 0.00% MACs, 164.99 us, 0.07% latency, 232.75 GFLOPS, (1280,), eps=1e-05, elementwise_affine=True)
        )
        (17): WhisperEncoderLayer(
          19.68 M, 1.27% Params, 141.0 GMACs, 2.63% MACs, 4.91 ms, 2.06% latency, 57.51 TFLOPS, 
          (self_attn): WhisperAttention(
            6.56 M, 0.42% Params, 62.36 GMACs, 1.16% MACs, 2.77 ms, 1.16% latency, 45.03 TFLOPS, 
            (k_proj): Linear(1.64 M, 0.11% Params, 9.83 GMACs, 0.18% MACs, 203.13 us, 0.09% latency, 96.79 TFLOPS, in_features=1280, out_features=1280, bias=False)
            (v_proj): Linear(1.64 M, 0.11% Params, 9.83 GMACs, 0.18% MACs, 180.48 us, 0.08% latency, 108.93 TFLOPS, in_features=1280, out_features=1280, bias=True)
            (q_proj): Linear(1.64 M, 0.11% Params, 9.83 GMACs, 0.18% MACs, 191.45 us, 0.08% latency, 102.69 TFLOPS, in_features=1280, out_features=1280, bias=True)
            (out_proj): Linear(1.64 M, 0.11% Params, 9.83 GMACs, 0.18% MACs, 190.02 us, 0.08% latency, 103.47 TFLOPS, in_features=1280, out_features=1280, bias=True)
          )
          (self_attn_layer_norm): LayerNorm(2.56 k, 0.00% Params, 0 MACs, 0.00% MACs, 176.43 us, 0.07% latency, 217.65 GFLOPS, (1280,), eps=1e-05, elementwise_affine=True)
          (activation_fn): GELUActivation(0, 0.00% Params, 0 MACs, 0.00% MACs, 144.72 us, 0.06% latency, 0.0 FLOPS, )
          (fc1): Linear(6.56 M, 0.42% Params, 39.32 GMACs, 0.73% MACs, 588.66 us, 0.25% latency, 133.6 TFLOPS, in_features=1280, out_features=5120, bias=True)
          (fc2): Linear(6.55 M, 0.42% Params, 39.32 GMACs, 0.73% MACs, 563.86 us, 0.24% latency, 139.47 TFLOPS, in_features=5120, out_features=1280, bias=True)
          (final_layer_norm): LayerNorm(2.56 k, 0.00% Params, 0 MACs, 0.00% MACs, 160.93 us, 0.07% latency, 238.61 GFLOPS, (1280,), eps=1e-05, elementwise_affine=True)
        )
        (18): WhisperEncoderLayer(
          19.68 M, 1.27% Params, 141.0 GMACs, 2.63% MACs, 5.07 ms, 2.12% latency, 55.64 TFLOPS, 
          (self_attn): WhisperAttention(
            6.56 M, 0.42% Params, 62.36 GMACs, 1.16% MACs, 2.86 ms, 1.20% latency, 43.68 TFLOPS, 
            (k_proj): Linear(1.64 M, 0.11% Params, 9.83 GMACs, 0.18% MACs, 203.85 us, 0.09% latency, 96.45 TFLOPS, in_features=1280, out_features=1280, bias=False)
            (v_proj): Linear(1.64 M, 0.11% Params, 9.83 GMACs, 0.18% MACs, 215.77 us, 0.09% latency, 91.12 TFLOPS, in_features=1280, out_features=1280, bias=True)
            (q_proj): Linear(1.64 M, 0.11% Params, 9.83 GMACs, 0.18% MACs, 235.8 us, 0.10% latency, 83.38 TFLOPS, in_features=1280, out_features=1280, bias=True)
            (out_proj): Linear(1.64 M, 0.11% Params, 9.83 GMACs, 0.18% MACs, 178.81 us, 0.07% latency, 109.95 TFLOPS, in_features=1280, out_features=1280, bias=True)
          )
          (self_attn_layer_norm): LayerNorm(2.56 k, 0.00% Params, 0 MACs, 0.00% MACs, 170.95 us, 0.07% latency, 224.63 GFLOPS, (1280,), eps=1e-05, elementwise_affine=True)
          (activation_fn): GELUActivation(0, 0.00% Params, 0 MACs, 0.00% MACs, 164.75 us, 0.07% latency, 0.0 FLOPS, )
          (fc1): Linear(6.56 M, 0.42% Params, 39.32 GMACs, 0.73% MACs, 579.12 us, 0.24% latency, 135.8 TFLOPS, in_features=1280, out_features=5120, bias=True)
          (fc2): Linear(6.55 M, 0.42% Params, 39.32 GMACs, 0.73% MACs, 587.7 us, 0.25% latency, 133.81 TFLOPS, in_features=5120, out_features=1280, bias=True)
          (final_layer_norm): LayerNorm(2.56 k, 0.00% Params, 0 MACs, 0.00% MACs, 203.61 us, 0.09% latency, 188.6 GFLOPS, (1280,), eps=1e-05, elementwise_affine=True)
        )
        (19): WhisperEncoderLayer(
          19.68 M, 1.27% Params, 141.0 GMACs, 2.63% MACs, 5.09 ms, 2.13% latency, 55.43 TFLOPS, 
          (self_attn): WhisperAttention(
            6.56 M, 0.42% Params, 62.36 GMACs, 1.16% MACs, 2.88 ms, 1.21% latency, 43.31 TFLOPS, 
            (k_proj): Linear(1.64 M, 0.11% Params, 9.83 GMACs, 0.18% MACs, 204.32 us, 0.09% latency, 96.22 TFLOPS, in_features=1280, out_features=1280, bias=False)
            (v_proj): Linear(1.64 M, 0.11% Params, 9.83 GMACs, 0.18% MACs, 182.15 us, 0.08% latency, 107.94 TFLOPS, in_features=1280, out_features=1280, bias=True)
            (q_proj): Linear(1.64 M, 0.11% Params, 9.83 GMACs, 0.18% MACs, 192.4 us, 0.08% latency, 102.19 TFLOPS, in_features=1280, out_features=1280, bias=True)
            (out_proj): Linear(1.64 M, 0.11% Params, 9.83 GMACs, 0.18% MACs, 187.87 us, 0.08% latency, 104.65 TFLOPS, in_features=1280, out_features=1280, bias=True)
          )
          (self_attn_layer_norm): LayerNorm(2.56 k, 0.00% Params, 0 MACs, 0.00% MACs, 171.18 us, 0.07% latency, 224.32 GFLOPS, (1280,), eps=1e-05, elementwise_affine=True)
          (activation_fn): GELUActivation(0, 0.00% Params, 0 MACs, 0.00% MACs, 133.75 us, 0.06% latency, 0.0 FLOPS, )
          (fc1): Linear(6.56 M, 0.42% Params, 39.32 GMACs, 0.73% MACs, 581.03 us, 0.24% latency, 135.35 TFLOPS, in_features=1280, out_features=5120, bias=True)
          (fc2): Linear(6.55 M, 0.42% Params, 39.32 GMACs, 0.73% MACs, 596.52 us, 0.25% latency, 131.84 TFLOPS, in_features=5120, out_features=1280, bias=True)
          (final_layer_norm): LayerNorm(2.56 k, 0.00% Params, 0 MACs, 0.00% MACs, 173.81 us, 0.07% latency, 220.93 GFLOPS, (1280,), eps=1e-05, elementwise_affine=True)
        )
        (20): WhisperEncoderLayer(
          19.68 M, 1.27% Params, 141.0 GMACs, 2.63% MACs, 5.15 ms, 2.15% latency, 54.85 TFLOPS, 
          (self_attn): WhisperAttention(
            6.56 M, 0.42% Params, 62.36 GMACs, 1.16% MACs, 2.88 ms, 1.20% latency, 43.42 TFLOPS, 
            (k_proj): Linear(1.64 M, 0.11% Params, 9.83 GMACs, 0.18% MACs, 202.89 us, 0.08% latency, 96.9 TFLOPS, in_features=1280, out_features=1280, bias=False)
            (v_proj): Linear(1.64 M, 0.11% Params, 9.83 GMACs, 0.18% MACs, 182.15 us, 0.08% latency, 107.94 TFLOPS, in_features=1280, out_features=1280, bias=True)
            (q_proj): Linear(1.64 M, 0.11% Params, 9.83 GMACs, 0.18% MACs, 207.66 us, 0.09% latency, 94.68 TFLOPS, in_features=1280, out_features=1280, bias=True)
            (out_proj): Linear(1.64 M, 0.11% Params, 9.83 GMACs, 0.18% MACs, 211.0 us, 0.09% latency, 93.18 TFLOPS, in_features=1280, out_features=1280, bias=True)
          )
          (self_attn_layer_norm): LayerNorm(2.56 k, 0.00% Params, 0 MACs, 0.00% MACs, 191.21 us, 0.08% latency, 200.82 GFLOPS, (1280,), eps=1e-05, elementwise_affine=True)
          (activation_fn): GELUActivation(0, 0.00% Params, 0 MACs, 0.00% MACs, 147.58 us, 0.06% latency, 0.0 FLOPS, )
          (fc1): Linear(6.56 M, 0.42% Params, 39.32 GMACs, 0.73% MACs, 576.73 us, 0.24% latency, 136.36 TFLOPS, in_features=1280, out_features=5120, bias=True)
          (fc2): Linear(6.55 M, 0.42% Params, 39.32 GMACs, 0.73% MACs, 576.97 us, 0.24% latency, 136.3 TFLOPS, in_features=5120, out_features=1280, bias=True)
          (final_layer_norm): LayerNorm(2.56 k, 0.00% Params, 0 MACs, 0.00% MACs, 200.99 us, 0.08% latency, 191.06 GFLOPS, (1280,), eps=1e-05, elementwise_affine=True)
        )
        (21): WhisperEncoderLayer(
          19.68 M, 1.27% Params, 141.0 GMACs, 2.63% MACs, 5.04 ms, 2.11% latency, 56.03 TFLOPS, 
          (self_attn): WhisperAttention(
            6.56 M, 0.42% Params, 62.36 GMACs, 1.16% MACs, 2.81 ms, 1.18% latency, 44.43 TFLOPS, 
            (k_proj): Linear(1.64 M, 0.11% Params, 9.83 GMACs, 0.18% MACs, 211.72 us, 0.09% latency, 92.86 TFLOPS, in_features=1280, out_features=1280, bias=False)
            (v_proj): Linear(1.64 M, 0.11% Params, 9.83 GMACs, 0.18% MACs, 183.82 us, 0.08% latency, 106.96 TFLOPS, in_features=1280, out_features=1280, bias=True)
            (q_proj): Linear(1.64 M, 0.11% Params, 9.83 GMACs, 0.18% MACs, 193.36 us, 0.08% latency, 101.68 TFLOPS, in_features=1280, out_features=1280, bias=True)
            (out_proj): Linear(1.64 M, 0.11% Params, 9.83 GMACs, 0.18% MACs, 193.83 us, 0.08% latency, 101.43 TFLOPS, in_features=1280, out_features=1280, bias=True)
          )
          (self_attn_layer_norm): LayerNorm(2.56 k, 0.00% Params, 0 MACs, 0.00% MACs, 196.22 us, 0.08% latency, 195.7 GFLOPS, (1280,), eps=1e-05, elementwise_affine=True)
          (activation_fn): GELUActivation(0, 0.00% Params, 0 MACs, 0.00% MACs, 161.17 us, 0.07% latency, 0.0 FLOPS, )
          (fc1): Linear(6.56 M, 0.42% Params, 39.32 GMACs, 0.73% MACs, 586.99 us, 0.25% latency, 133.98 TFLOPS, in_features=1280, out_features=5120, bias=True)
          (fc2): Linear(6.55 M, 0.42% Params, 39.32 GMACs, 0.73% MACs, 575.78 us, 0.24% latency, 136.59 TFLOPS, in_features=5120, out_features=1280, bias=True)
          (final_layer_norm): LayerNorm(2.56 k, 0.00% Params, 0 MACs, 0.00% MACs, 168.56 us, 0.07% latency, 227.81 GFLOPS, (1280,), eps=1e-05, elementwise_affine=True)
        )
        (22): WhisperEncoderLayer(
          19.68 M, 1.27% Params, 141.0 GMACs, 2.63% MACs, 16.8 ms, 7.03% latency, 16.8 TFLOPS, 
          (self_attn): WhisperAttention(
            6.56 M, 0.42% Params, 62.36 GMACs, 1.16% MACs, 14.55 ms, 6.09% latency, 8.58 TFLOPS, 
            (k_proj): Linear(1.64 M, 0.11% Params, 9.83 GMACs, 0.18% MACs, 205.99 us, 0.09% latency, 95.44 TFLOPS, in_features=1280, out_features=1280, bias=False)
            (v_proj): Linear(1.64 M, 0.11% Params, 9.83 GMACs, 0.18% MACs, 182.87 us, 0.08% latency, 107.51 TFLOPS, in_features=1280, out_features=1280, bias=True)
            (q_proj): Linear(1.64 M, 0.11% Params, 9.83 GMACs, 0.18% MACs, 188.59 us, 0.08% latency, 104.25 TFLOPS, in_features=1280, out_features=1280, bias=True)
            (out_proj): Linear(1.64 M, 0.11% Params, 9.83 GMACs, 0.18% MACs, 233.65 us, 0.10% latency, 84.15 TFLOPS, in_features=1280, out_features=1280, bias=True)
          )
          (self_attn_layer_norm): LayerNorm(2.56 k, 0.00% Params, 0 MACs, 0.00% MACs, 175.48 us, 0.07% latency, 218.83 GFLOPS, (1280,), eps=1e-05, elementwise_affine=True)
          (activation_fn): GELUActivation(0, 0.00% Params, 0 MACs, 0.00% MACs, 187.87 us, 0.08% latency, 0.0 FLOPS, )
          (fc1): Linear(6.56 M, 0.42% Params, 39.32 GMACs, 0.73% MACs, 583.17 us, 0.24% latency, 134.85 TFLOPS, in_features=1280, out_features=5120, bias=True)
          (fc2): Linear(6.55 M, 0.42% Params, 39.32 GMACs, 0.73% MACs, 580.07 us, 0.24% latency, 135.57 TFLOPS, in_features=5120, out_features=1280, bias=True)
          (final_layer_norm): LayerNorm(2.56 k, 0.00% Params, 0 MACs, 0.00% MACs, 180.72 us, 0.08% latency, 212.48 GFLOPS, (1280,), eps=1e-05, elementwise_affine=True)
        )
        (23): WhisperEncoderLayer(
          19.68 M, 1.27% Params, 141.0 GMACs, 2.63% MACs, 5.74 ms, 2.40% latency, 49.21 TFLOPS, 
          (self_attn): WhisperAttention(
            6.56 M, 0.42% Params, 62.36 GMACs, 1.16% MACs, 3.24 ms, 1.35% latency, 38.61 TFLOPS, 
            (k_proj): Linear(1.64 M, 0.11% Params, 9.83 GMACs, 0.18% MACs, 221.01 us, 0.09% latency, 88.96 TFLOPS, in_features=1280, out_features=1280, bias=False)
            (v_proj): Linear(1.64 M, 0.11% Params, 9.83 GMACs, 0.18% MACs, 277.28 us, 0.12% latency, 70.91 TFLOPS, in_features=1280, out_features=1280, bias=True)
            (q_proj): Linear(1.64 M, 0.11% Params, 9.83 GMACs, 0.18% MACs, 188.11 us, 0.08% latency, 104.52 TFLOPS, in_features=1280, out_features=1280, bias=True)
            (out_proj): Linear(1.64 M, 0.11% Params, 9.83 GMACs, 0.18% MACs, 297.55 us, 0.12% latency, 66.08 TFLOPS, in_features=1280, out_features=1280, bias=True)
          )
          (self_attn_layer_norm): LayerNorm(2.56 k, 0.00% Params, 0 MACs, 0.00% MACs, 178.34 us, 0.07% latency, 215.32 GFLOPS, (1280,), eps=1e-05, elementwise_affine=True)
          (activation_fn): GELUActivation(0, 0.00% Params, 0 MACs, 0.00% MACs, 141.38 us, 0.06% latency, 0.0 FLOPS, )
          (fc1): Linear(6.56 M, 0.42% Params, 39.32 GMACs, 0.73% MACs, 592.71 us, 0.25% latency, 132.68 TFLOPS, in_features=1280, out_features=5120, bias=True)
          (fc2): Linear(6.55 M, 0.42% Params, 39.32 GMACs, 0.73% MACs, 631.09 us, 0.26% latency, 124.61 TFLOPS, in_features=5120, out_features=1280, bias=True)
          (final_layer_norm): LayerNorm(2.56 k, 0.00% Params, 0 MACs, 0.00% MACs, 174.52 us, 0.07% latency, 220.03 GFLOPS, (1280,), eps=1e-05, elementwise_affine=True)
        )
        (24): WhisperEncoderLayer(
          19.68 M, 1.27% Params, 141.0 GMACs, 2.63% MACs, 5.42 ms, 2.27% latency, 52.04 TFLOPS, 
          (self_attn): WhisperAttention(
            6.56 M, 0.42% Params, 62.36 GMACs, 1.16% MACs, 2.97 ms, 1.24% latency, 42.06 TFLOPS, 
            (k_proj): Linear(1.64 M, 0.11% Params, 9.83 GMACs, 0.18% MACs, 210.29 us, 0.09% latency, 93.5 TFLOPS, in_features=1280, out_features=1280, bias=False)
            (v_proj): Linear(1.64 M, 0.11% Params, 9.83 GMACs, 0.18% MACs, 175.71 us, 0.07% latency, 111.89 TFLOPS, in_features=1280, out_features=1280, bias=True)
            (q_proj): Linear(1.64 M, 0.11% Params, 9.83 GMACs, 0.18% MACs, 190.5 us, 0.08% latency, 103.21 TFLOPS, in_features=1280, out_features=1280, bias=True)
            (out_proj): Linear(1.64 M, 0.11% Params, 9.83 GMACs, 0.18% MACs, 214.34 us, 0.09% latency, 91.73 TFLOPS, in_features=1280, out_features=1280, bias=True)
          )
          (self_attn_layer_norm): LayerNorm(2.56 k, 0.00% Params, 0 MACs, 0.00% MACs, 183.11 us, 0.08% latency, 209.72 GFLOPS, (1280,), eps=1e-05, elementwise_affine=True)
          (activation_fn): GELUActivation(0, 0.00% Params, 0 MACs, 0.00% MACs, 162.84 us, 0.07% latency, 0.0 FLOPS, )
          (fc1): Linear(6.56 M, 0.42% Params, 39.32 GMACs, 0.73% MACs, 694.99 us, 0.29% latency, 113.16 TFLOPS, in_features=1280, out_features=5120, bias=True)
          (fc2): Linear(6.55 M, 0.42% Params, 39.32 GMACs, 0.73% MACs, 579.12 us, 0.24% latency, 135.8 TFLOPS, in_features=5120, out_features=1280, bias=True)
          (final_layer_norm): LayerNorm(2.56 k, 0.00% Params, 0 MACs, 0.00% MACs, 193.12 us, 0.08% latency, 198.84 GFLOPS, (1280,), eps=1e-05, elementwise_affine=True)
        )
        (25): WhisperEncoderLayer(
          19.68 M, 1.27% Params, 141.0 GMACs, 2.63% MACs, 5.55 ms, 2.32% latency, 50.87 TFLOPS, 
          (self_attn): WhisperAttention(
            6.56 M, 0.42% Params, 62.36 GMACs, 1.16% MACs, 3.17 ms, 1.33% latency, 39.4 TFLOPS, 
            (k_proj): Linear(1.64 M, 0.11% Params, 9.83 GMACs, 0.18% MACs, 220.3 us, 0.09% latency, 89.25 TFLOPS, in_features=1280, out_features=1280, bias=False)
            (v_proj): Linear(1.64 M, 0.11% Params, 9.83 GMACs, 0.18% MACs, 189.3 us, 0.08% latency, 103.86 TFLOPS, in_features=1280, out_features=1280, bias=True)
            (q_proj): Linear(1.64 M, 0.11% Params, 9.83 GMACs, 0.18% MACs, 376.7 us, 0.16% latency, 52.19 TFLOPS, in_features=1280, out_features=1280, bias=True)
            (out_proj): Linear(1.64 M, 0.11% Params, 9.83 GMACs, 0.18% MACs, 194.79 us, 0.08% latency, 100.93 TFLOPS, in_features=1280, out_features=1280, bias=True)
          )
          (self_attn_layer_norm): LayerNorm(2.56 k, 0.00% Params, 0 MACs, 0.00% MACs, 174.28 us, 0.07% latency, 220.33 GFLOPS, (1280,), eps=1e-05, elementwise_affine=True)
          (activation_fn): GELUActivation(0, 0.00% Params, 0 MACs, 0.00% MACs, 142.57 us, 0.06% latency, 0.0 FLOPS, )
          (fc1): Linear(6.56 M, 0.42% Params, 39.32 GMACs, 0.73% MACs, 573.4 us, 0.24% latency, 137.15 TFLOPS, in_features=1280, out_features=5120, bias=True)
          (fc2): Linear(6.55 M, 0.42% Params, 39.32 GMACs, 0.73% MACs, 682.59 us, 0.29% latency, 115.21 TFLOPS, in_features=5120, out_features=1280, bias=True)
          (final_layer_norm): LayerNorm(2.56 k, 0.00% Params, 0 MACs, 0.00% MACs, 251.77 us, 0.11% latency, 152.52 GFLOPS, (1280,), eps=1e-05, elementwise_affine=True)
        )
        (26): WhisperEncoderLayer(
          19.68 M, 1.27% Params, 141.0 GMACs, 2.63% MACs, 5.23 ms, 2.19% latency, 53.92 TFLOPS, 
          (self_attn): WhisperAttention(
            6.56 M, 0.42% Params, 62.36 GMACs, 1.16% MACs, 2.84 ms, 1.19% latency, 44.0 TFLOPS, 
            (k_proj): Linear(1.64 M, 0.11% Params, 9.83 GMACs, 0.18% MACs, 206.71 us, 0.09% latency, 95.11 TFLOPS, in_features=1280, out_features=1280, bias=False)
            (v_proj): Linear(1.64 M, 0.11% Params, 9.83 GMACs, 0.18% MACs, 185.01 us, 0.08% latency, 106.27 TFLOPS, in_features=1280, out_features=1280, bias=True)
            (q_proj): Linear(1.64 M, 0.11% Params, 9.83 GMACs, 0.18% MACs, 191.21 us, 0.08% latency, 102.82 TFLOPS, in_features=1280, out_features=1280, bias=True)
            (out_proj): Linear(1.64 M, 0.11% Params, 9.83 GMACs, 0.18% MACs, 189.78 us, 0.08% latency, 103.6 TFLOPS, in_features=1280, out_features=1280, bias=True)
          )
          (self_attn_layer_norm): LayerNorm(2.56 k, 0.00% Params, 0 MACs, 0.00% MACs, 167.85 us, 0.07% latency, 228.78 GFLOPS, (1280,), eps=1e-05, elementwise_affine=True)
          (activation_fn): GELUActivation(0, 0.00% Params, 0 MACs, 0.00% MACs, 139.0 us, 0.06% latency, 0.0 FLOPS, )
          (fc1): Linear(6.56 M, 0.42% Params, 39.32 GMACs, 0.73% MACs, 835.9 us, 0.35% latency, 94.08 TFLOPS, in_features=1280, out_features=5120, bias=True)
          (fc2): Linear(6.55 M, 0.42% Params, 39.32 GMACs, 0.73% MACs, 563.86 us, 0.24% latency, 139.47 TFLOPS, in_features=5120, out_features=1280, bias=True)
          (final_layer_norm): LayerNorm(2.56 k, 0.00% Params, 0 MACs, 0.00% MACs, 184.06 us, 0.08% latency, 208.63 GFLOPS, (1280,), eps=1e-05, elementwise_affine=True)
        )
        (27): WhisperEncoderLayer(
          19.68 M, 1.27% Params, 141.0 GMACs, 2.63% MACs, 5.29 ms, 2.22% latency, 53.35 TFLOPS, 
          (self_attn): WhisperAttention(
            6.56 M, 0.42% Params, 62.36 GMACs, 1.16% MACs, 3.12 ms, 1.31% latency, 40.03 TFLOPS, 
            (k_proj): Linear(1.64 M, 0.11% Params, 9.83 GMACs, 0.18% MACs, 208.14 us, 0.09% latency, 94.46 TFLOPS, in_features=1280, out_features=1280, bias=False)
            (v_proj): Linear(1.64 M, 0.11% Params, 9.83 GMACs, 0.18% MACs, 182.15 us, 0.08% latency, 107.94 TFLOPS, in_features=1280, out_features=1280, bias=True)
            (q_proj): Linear(1.64 M, 0.11% Params, 9.83 GMACs, 0.18% MACs, 490.43 us, 0.21% latency, 40.09 TFLOPS, in_features=1280, out_features=1280, bias=True)
            (out_proj): Linear(1.64 M, 0.11% Params, 9.83 GMACs, 0.18% MACs, 185.73 us, 0.08% latency, 105.86 TFLOPS, in_features=1280, out_features=1280, bias=True)
          )
          (self_attn_layer_norm): LayerNorm(2.56 k, 0.00% Params, 0 MACs, 0.00% MACs, 170.95 us, 0.07% latency, 224.63 GFLOPS, (1280,), eps=1e-05, elementwise_affine=True)
          (activation_fn): GELUActivation(0, 0.00% Params, 0 MACs, 0.00% MACs, 136.38 us, 0.06% latency, 0.0 FLOPS, )
          (fc1): Linear(6.56 M, 0.42% Params, 39.32 GMACs, 0.73% MACs, 608.68 us, 0.25% latency, 129.2 TFLOPS, in_features=1280, out_features=5120, bias=True)
          (fc2): Linear(6.55 M, 0.42% Params, 39.32 GMACs, 0.73% MACs, 568.15 us, 0.24% latency, 138.42 TFLOPS, in_features=5120, out_features=1280, bias=True)
          (final_layer_norm): LayerNorm(2.56 k, 0.00% Params, 0 MACs, 0.00% MACs, 169.52 us, 0.07% latency, 226.53 GFLOPS, (1280,), eps=1e-05, elementwise_affine=True)
        )
        (28): WhisperEncoderLayer(
          19.68 M, 1.27% Params, 141.0 GMACs, 2.63% MACs, 5.0 ms, 2.10% latency, 56.41 TFLOPS, 
          (self_attn): WhisperAttention(
            6.56 M, 0.42% Params, 62.36 GMACs, 1.16% MACs, 2.84 ms, 1.19% latency, 43.99 TFLOPS, 
            (k_proj): Linear(1.64 M, 0.11% Params, 9.83 GMACs, 0.18% MACs, 207.19 us, 0.09% latency, 94.89 TFLOPS, in_features=1280, out_features=1280, bias=False)
            (v_proj): Linear(1.64 M, 0.11% Params, 9.83 GMACs, 0.18% MACs, 179.77 us, 0.08% latency, 109.37 TFLOPS, in_features=1280, out_features=1280, bias=True)
            (q_proj): Linear(1.64 M, 0.11% Params, 9.83 GMACs, 0.18% MACs, 179.53 us, 0.08% latency, 109.51 TFLOPS, in_features=1280, out_features=1280, bias=True)
            (out_proj): Linear(1.64 M, 0.11% Params, 9.83 GMACs, 0.18% MACs, 187.87 us, 0.08% latency, 104.65 TFLOPS, in_features=1280, out_features=1280, bias=True)
          )
          (self_attn_layer_norm): LayerNorm(2.56 k, 0.00% Params, 0 MACs, 0.00% MACs, 160.46 us, 0.07% latency, 239.32 GFLOPS, (1280,), eps=1e-05, elementwise_affine=True)
          (activation_fn): GELUActivation(0, 0.00% Params, 0 MACs, 0.00% MACs, 157.36 us, 0.07% latency, 0.0 FLOPS, )
          (fc1): Linear(6.56 M, 0.42% Params, 39.32 GMACs, 0.73% MACs, 579.6 us, 0.24% latency, 135.69 TFLOPS, in_features=1280, out_features=5120, bias=True)
          (fc2): Linear(6.55 M, 0.42% Params, 39.32 GMACs, 0.73% MACs, 573.16 us, 0.24% latency, 137.21 TFLOPS, in_features=5120, out_features=1280, bias=True)
          (final_layer_norm): LayerNorm(2.56 k, 0.00% Params, 0 MACs, 0.00% MACs, 172.14 us, 0.07% latency, 223.08 GFLOPS, (1280,), eps=1e-05, elementwise_affine=True)
        )
        (29): WhisperEncoderLayer(
          19.68 M, 1.27% Params, 141.0 GMACs, 2.63% MACs, 5.46 ms, 2.28% latency, 51.73 TFLOPS, 
          (self_attn): WhisperAttention(
            6.56 M, 0.42% Params, 62.36 GMACs, 1.16% MACs, 3.16 ms, 1.32% latency, 39.48 TFLOPS, 
            (k_proj): Linear(1.64 M, 0.11% Params, 9.83 GMACs, 0.18% MACs, 206.71 us, 0.09% latency, 95.11 TFLOPS, in_features=1280, out_features=1280, bias=False)
            (v_proj): Linear(1.64 M, 0.11% Params, 9.83 GMACs, 0.18% MACs, 411.75 us, 0.17% latency, 47.75 TFLOPS, in_features=1280, out_features=1280, bias=True)
            (q_proj): Linear(1.64 M, 0.11% Params, 9.83 GMACs, 0.18% MACs, 189.07 us, 0.08% latency, 103.99 TFLOPS, in_features=1280, out_features=1280, bias=True)
            (out_proj): Linear(1.64 M, 0.11% Params, 9.83 GMACs, 0.18% MACs, 305.65 us, 0.13% latency, 64.32 TFLOPS, in_features=1280, out_features=1280, bias=True)
          )
          (self_attn_layer_norm): LayerNorm(2.56 k, 0.00% Params, 0 MACs, 0.00% MACs, 176.19 us, 0.07% latency, 217.94 GFLOPS, (1280,), eps=1e-05, elementwise_affine=True)
          (activation_fn): GELUActivation(0, 0.00% Params, 0 MACs, 0.00% MACs, 139.0 us, 0.06% latency, 0.0 FLOPS, )
          (fc1): Linear(6.56 M, 0.42% Params, 39.32 GMACs, 0.73% MACs, 591.28 us, 0.25% latency, 133.01 TFLOPS, in_features=1280, out_features=5120, bias=True)
          (fc2): Linear(6.55 M, 0.42% Params, 39.32 GMACs, 0.73% MACs, 559.33 us, 0.23% latency, 140.6 TFLOPS, in_features=5120, out_features=1280, bias=True)
          (final_layer_norm): LayerNorm(2.56 k, 0.00% Params, 0 MACs, 0.00% MACs, 172.38 us, 0.07% latency, 222.77 GFLOPS, (1280,), eps=1e-05, elementwise_affine=True)
        )
        (30): WhisperEncoderLayer(
          19.68 M, 1.27% Params, 141.0 GMACs, 2.63% MACs, 5.2 ms, 2.18% latency, 54.32 TFLOPS, 
          (self_attn): WhisperAttention(
            6.56 M, 0.42% Params, 62.36 GMACs, 1.16% MACs, 2.94 ms, 1.23% latency, 42.48 TFLOPS, 
            (k_proj): Linear(1.64 M, 0.11% Params, 9.83 GMACs, 0.18% MACs, 205.99 us, 0.09% latency, 95.44 TFLOPS, in_features=1280, out_features=1280, bias=False)
            (v_proj): Linear(1.64 M, 0.11% Params, 9.83 GMACs, 0.18% MACs, 206.23 us, 0.09% latency, 95.33 TFLOPS, in_features=1280, out_features=1280, bias=True)
            (q_proj): Linear(1.64 M, 0.11% Params, 9.83 GMACs, 0.18% MACs, 191.93 us, 0.08% latency, 102.44 TFLOPS, in_features=1280, out_features=1280, bias=True)
            (out_proj): Linear(1.64 M, 0.11% Params, 9.83 GMACs, 0.18% MACs, 190.73 us, 0.08% latency, 103.08 TFLOPS, in_features=1280, out_features=1280, bias=True)
          )
          (self_attn_layer_norm): LayerNorm(2.56 k, 0.00% Params, 0 MACs, 0.00% MACs, 181.44 us, 0.08% latency, 211.64 GFLOPS, (1280,), eps=1e-05, elementwise_affine=True)
          (activation_fn): GELUActivation(0, 0.00% Params, 0 MACs, 0.00% MACs, 221.73 us, 0.09% latency, 0.0 FLOPS, )
          (fc1): Linear(6.56 M, 0.42% Params, 39.32 GMACs, 0.73% MACs, 592.95 us, 0.25% latency, 132.63 TFLOPS, in_features=1280, out_features=5120, bias=True)
          (fc2): Linear(6.55 M, 0.42% Params, 39.32 GMACs, 0.73% MACs, 594.85 us, 0.25% latency, 132.21 TFLOPS, in_features=5120, out_features=1280, bias=True)
          (final_layer_norm): LayerNorm(2.56 k, 0.00% Params, 0 MACs, 0.00% MACs, 170.47 us, 0.07% latency, 225.26 GFLOPS, (1280,), eps=1e-05, elementwise_affine=True)
        )
        (31): WhisperEncoderLayer(
          19.68 M, 1.27% Params, 141.0 GMACs, 2.63% MACs, 5.25 ms, 2.20% latency, 53.81 TFLOPS, 
          (self_attn): WhisperAttention(
            6.56 M, 0.42% Params, 62.36 GMACs, 1.16% MACs, 3.06 ms, 1.28% latency, 40.87 TFLOPS, 
            (k_proj): Linear(1.64 M, 0.11% Params, 9.83 GMACs, 0.18% MACs, 202.89 us, 0.08% latency, 96.9 TFLOPS, in_features=1280, out_features=1280, bias=False)
            (v_proj): Linear(1.64 M, 0.11% Params, 9.83 GMACs, 0.18% MACs, 202.18 us, 0.08% latency, 97.24 TFLOPS, in_features=1280, out_features=1280, bias=True)
            (q_proj): Linear(1.64 M, 0.11% Params, 9.83 GMACs, 0.18% MACs, 191.69 us, 0.08% latency, 102.57 TFLOPS, in_features=1280, out_features=1280, bias=True)
            (out_proj): Linear(1.64 M, 0.11% Params, 9.83 GMACs, 0.18% MACs, 244.38 us, 0.10% latency, 80.45 TFLOPS, in_features=1280, out_features=1280, bias=True)
          )
          (self_attn_layer_norm): LayerNorm(2.56 k, 0.00% Params, 0 MACs, 0.00% MACs, 168.56 us, 0.07% latency, 227.81 GFLOPS, (1280,), eps=1e-05, elementwise_affine=True)
          (activation_fn): GELUActivation(0, 0.00% Params, 0 MACs, 0.00% MACs, 139.47 us, 0.06% latency, 0.0 FLOPS, )
          (fc1): Linear(6.56 M, 0.42% Params, 39.32 GMACs, 0.73% MACs, 582.22 us, 0.24% latency, 135.08 TFLOPS, in_features=1280, out_features=5120, bias=True)
          (fc2): Linear(6.55 M, 0.42% Params, 39.32 GMACs, 0.73% MACs, 576.26 us, 0.24% latency, 136.47 TFLOPS, in_features=5120, out_features=1280, bias=True)
          (final_layer_norm): LayerNorm(2.56 k, 0.00% Params, 0 MACs, 0.00% MACs, 164.27 us, 0.07% latency, 233.76 GFLOPS, (1280,), eps=1e-05, elementwise_affine=True)
        )
      )
      (layer_norm): LayerNorm(2.56 k, 0.00% Params, 0 MACs, 0.00% MACs, 175.24 us, 0.07% latency, 219.13 GFLOPS, (1280,), eps=1e-05, elementwise_affine=True)
    )
    (decoder): WhisperDecoder(
      906.52 M, 58.74% Params, 797.88 GMACs, 14.90% MACs, 59.9 ms, 25.09% latency, 26.64 TFLOPS, 
      (embed_tokens): Embedding(66.39 M, 4.30% Params, 0 MACs, 0.00% MACs, 67.47 us, 0.03% latency, 0.0 FLOPS, 51865, 1280, padding_idx=50257)
      (embed_positions): WhisperPositionalEmbedding(573.44 k, 0.04% Params, 0 MACs, 0.00% MACs, 19.55 us, 0.01% latency, 0.0 FLOPS, 448, 1280)
      (layers): ModuleList(
        (0): WhisperDecoderLayer(
          26.24 M, 1.70% Params, 24.93 GMACs, 0.47% MACs, 2.18 ms, 0.91% latency, 22.88 TFLOPS, 
          (self_attn): WhisperAttention(
            6.56 M, 0.42% Params, 1.31 GMACs, 0.02% MACs, 579.36 us, 0.24% latency, 4.52 TFLOPS, 
            (k_proj): Linear(1.64 M, 0.11% Params, 321.13 MMACs, 0.01% MACs, 56.27 us, 0.02% latency, 11.41 TFLOPS, in_features=1280, out_features=1280, bias=False)
            (v_proj): Linear(1.64 M, 0.11% Params, 321.13 MMACs, 0.01% MACs, 61.27 us, 0.03% latency, 10.48 TFLOPS, in_features=1280, out_features=1280, bias=True)
            (q_proj): Linear(1.64 M, 0.11% Params, 321.13 MMACs, 0.01% MACs, 66.52 us, 0.03% latency, 9.66 TFLOPS, in_features=1280, out_features=1280, bias=True)
            (out_proj): Linear(1.64 M, 0.11% Params, 321.13 MMACs, 0.01% MACs, 61.75 us, 0.03% latency, 10.4 TFLOPS, in_features=1280, out_features=1280, bias=True)
          )
          (activation_fn): GELUActivation(0, 0.00% Params, 0 MACs, 0.00% MACs, 46.25 us, 0.02% latency, 0.0 FLOPS, )
          (self_attn_layer_norm): LayerNorm(2.56 k, 0.00% Params, 0 MACs, 0.00% MACs, 45.78 us, 0.02% latency, 27.4 GFLOPS, (1280,), eps=1e-05, elementwise_affine=True)
          (encoder_attn): WhisperAttention(
            6.56 M, 0.42% Params, 21.06 GMACs, 0.39% MACs, 749.35 us, 0.31% latency, 56.21 TFLOPS, 
            (k_proj): Linear(1.64 M, 0.11% Params, 9.83 GMACs, 0.18% MACs, 196.46 us, 0.08% latency, 100.08 TFLOPS, in_features=1280, out_features=1280, bias=False)
            (v_proj): Linear(1.64 M, 0.11% Params, 9.83 GMACs, 0.18% MACs, 182.63 us, 0.08% latency, 107.65 TFLOPS, in_features=1280, out_features=1280, bias=True)
            (q_proj): Linear(1.64 M, 0.11% Params, 321.13 MMACs, 0.01% MACs, 56.03 us, 0.02% latency, 11.46 TFLOPS, in_features=1280, out_features=1280, bias=True)
            (out_proj): Linear(1.64 M, 0.11% Params, 321.13 MMACs, 0.01% MACs, 60.08 us, 0.03% latency, 10.69 TFLOPS, in_features=1280, out_features=1280, bias=True)
          )
          (encoder_attn_layer_norm): LayerNorm(2.56 k, 0.00% Params, 0 MACs, 0.00% MACs, 45.54 us, 0.02% latency, 27.55 GFLOPS, (1280,), eps=1e-05, elementwise_affine=True)
          (fc1): Linear(6.56 M, 0.42% Params, 1.28 GMACs, 0.02% MACs, 306.13 us, 0.13% latency, 8.39 TFLOPS, in_features=1280, out_features=5120, bias=True)
          (fc2): Linear(6.55 M, 0.42% Params, 1.28 GMACs, 0.02% MACs, 78.92 us, 0.03% latency, 32.55 TFLOPS, in_features=5120, out_features=1280, bias=True)
          (final_layer_norm): LayerNorm(2.56 k, 0.00% Params, 0 MACs, 0.00% MACs, 139.24 us, 0.06% latency, 9.01 GFLOPS, (1280,), eps=1e-05, elementwise_affine=True)
        )
        (1): WhisperDecoderLayer(
          26.24 M, 1.70% Params, 24.93 GMACs, 0.47% MACs, 1.77 ms, 0.74% latency, 28.19 TFLOPS, 
          (self_attn): WhisperAttention(
            6.56 M, 0.42% Params, 1.31 GMACs, 0.02% MACs, 480.65 us, 0.20% latency, 5.45 TFLOPS, 
            (k_proj): Linear(1.64 M, 0.11% Params, 321.13 MMACs, 0.01% MACs, 57.46 us, 0.02% latency, 11.18 TFLOPS, in_features=1280, out_features=1280, bias=False)
            (v_proj): Linear(1.64 M, 0.11% Params, 321.13 MMACs, 0.01% MACs, 53.88 us, 0.02% latency, 11.92 TFLOPS, in_features=1280, out_features=1280, bias=True)
            (q_proj): Linear(1.64 M, 0.11% Params, 321.13 MMACs, 0.01% MACs, 62.47 us, 0.03% latency, 10.28 TFLOPS, in_features=1280, out_features=1280, bias=True)
            (out_proj): Linear(1.64 M, 0.11% Params, 321.13 MMACs, 0.01% MACs, 58.89 us, 0.02% latency, 10.91 TFLOPS, in_features=1280, out_features=1280, bias=True)
          )
          (activation_fn): GELUActivation(0, 0.00% Params, 0 MACs, 0.00% MACs, 43.15 us, 0.02% latency, 0.0 FLOPS, )
          (self_attn_layer_norm): LayerNorm(2.56 k, 0.00% Params, 0 MACs, 0.00% MACs, 42.68 us, 0.02% latency, 29.39 GFLOPS, (1280,), eps=1e-05, elementwise_affine=True)
          (encoder_attn): WhisperAttention(
            6.56 M, 0.42% Params, 21.06 GMACs, 0.39% MACs, 752.21 us, 0.32% latency, 55.99 TFLOPS, 
            (k_proj): Linear(1.64 M, 0.11% Params, 9.83 GMACs, 0.18% MACs, 190.26 us, 0.08% latency, 103.34 TFLOPS, in_features=1280, out_features=1280, bias=False)
            (v_proj): Linear(1.64 M, 0.11% Params, 9.83 GMACs, 0.18% MACs, 172.85 us, 0.07% latency, 113.74 TFLOPS, in_features=1280, out_features=1280, bias=True)
            (q_proj): Linear(1.64 M, 0.11% Params, 321.13 MMACs, 0.01% MACs, 56.27 us, 0.02% latency, 11.41 TFLOPS, in_features=1280, out_features=1280, bias=True)
            (out_proj): Linear(1.64 M, 0.11% Params, 321.13 MMACs, 0.01% MACs, 50.78 us, 0.02% latency, 12.65 TFLOPS, in_features=1280, out_features=1280, bias=True)
          )
          (encoder_attn_layer_norm): LayerNorm(2.56 k, 0.00% Params, 0 MACs, 0.00% MACs, 48.64 us, 0.02% latency, 25.79 GFLOPS, (1280,), eps=1e-05, elementwise_affine=True)
          (fc1): Linear(6.56 M, 0.42% Params, 1.28 GMACs, 0.02% MACs, 120.64 us, 0.05% latency, 21.29 TFLOPS, in_features=1280, out_features=5120, bias=True)
          (fc2): Linear(6.55 M, 0.42% Params, 1.28 GMACs, 0.02% MACs, 71.05 us, 0.03% latency, 36.16 TFLOPS, in_features=5120, out_features=1280, bias=True)
          (final_layer_norm): LayerNorm(2.56 k, 0.00% Params, 0 MACs, 0.00% MACs, 42.2 us, 0.02% latency, 29.73 GFLOPS, (1280,), eps=1e-05, elementwise_affine=True)
        )
        (2): WhisperDecoderLayer(
          26.24 M, 1.70% Params, 24.93 GMACs, 0.47% MACs, 1.84 ms, 0.77% latency, 27.16 TFLOPS, 
          (self_attn): WhisperAttention(
            6.56 M, 0.42% Params, 1.31 GMACs, 0.02% MACs, 507.35 us, 0.21% latency, 5.16 TFLOPS, 
            (k_proj): Linear(1.64 M, 0.11% Params, 321.13 MMACs, 0.01% MACs, 50.54 us, 0.02% latency, 12.71 TFLOPS, in_features=1280, out_features=1280, bias=False)
            (v_proj): Linear(1.64 M, 0.11% Params, 321.13 MMACs, 0.01% MACs, 48.4 us, 0.02% latency, 13.27 TFLOPS, in_features=1280, out_features=1280, bias=True)
            (q_proj): Linear(1.64 M, 0.11% Params, 321.13 MMACs, 0.01% MACs, 99.18 us, 0.04% latency, 6.48 TFLOPS, in_features=1280, out_features=1280, bias=True)
            (out_proj): Linear(1.64 M, 0.11% Params, 321.13 MMACs, 0.01% MACs, 53.17 us, 0.02% latency, 12.08 TFLOPS, in_features=1280, out_features=1280, bias=True)
          )
          (activation_fn): GELUActivation(0, 0.00% Params, 0 MACs, 0.00% MACs, 66.76 us, 0.03% latency, 0.0 FLOPS, )
          (self_attn_layer_norm): LayerNorm(2.56 k, 0.00% Params, 0 MACs, 0.00% MACs, 36.48 us, 0.02% latency, 34.39 GFLOPS, (1280,), eps=1e-05, elementwise_affine=True)
          (encoder_attn): WhisperAttention(
            6.56 M, 0.42% Params, 21.06 GMACs, 0.39% MACs, 768.18 us, 0.32% latency, 54.83 TFLOPS, 
            (k_proj): Linear(1.64 M, 0.11% Params, 9.83 GMACs, 0.18% MACs, 193.36 us, 0.08% latency, 101.68 TFLOPS, in_features=1280, out_features=1280, bias=False)
            (v_proj): Linear(1.64 M, 0.11% Params, 9.83 GMACs, 0.18% MACs, 185.49 us, 0.08% latency, 105.99 TFLOPS, in_features=1280, out_features=1280, bias=True)
            (q_proj): Linear(1.64 M, 0.11% Params, 321.13 MMACs, 0.01% MACs, 44.11 us, 0.02% latency, 14.56 TFLOPS, in_features=1280, out_features=1280, bias=True)
            (out_proj): Linear(1.64 M, 0.11% Params, 321.13 MMACs, 0.01% MACs, 53.88 us, 0.02% latency, 11.92 TFLOPS, in_features=1280, out_features=1280, bias=True)
          )
          (encoder_attn_layer_norm): LayerNorm(2.56 k, 0.00% Params, 0 MACs, 0.00% MACs, 45.06 us, 0.02% latency, 27.84 GFLOPS, (1280,), eps=1e-05, elementwise_affine=True)
          (fc1): Linear(6.56 M, 0.42% Params, 1.28 GMACs, 0.02% MACs, 112.53 us, 0.05% latency, 22.83 TFLOPS, in_features=1280, out_features=5120, bias=True)
          (fc2): Linear(6.55 M, 0.42% Params, 1.28 GMACs, 0.02% MACs, 77.72 us, 0.03% latency, 33.05 TFLOPS, in_features=5120, out_features=1280, bias=True)
          (final_layer_norm): LayerNorm(2.56 k, 0.00% Params, 0 MACs, 0.00% MACs, 46.73 us, 0.02% latency, 26.84 GFLOPS, (1280,), eps=1e-05, elementwise_affine=True)
        )
        (3): WhisperDecoderLayer(
          26.24 M, 1.70% Params, 24.93 GMACs, 0.47% MACs, 1.77 ms, 0.74% latency, 28.12 TFLOPS, 
          (self_attn): WhisperAttention(
            6.56 M, 0.42% Params, 1.31 GMACs, 0.02% MACs, 483.75 us, 0.20% latency, 5.41 TFLOPS, 
            (k_proj): Linear(1.64 M, 0.11% Params, 321.13 MMACs, 0.01% MACs, 55.31 us, 0.02% latency, 11.61 TFLOPS, in_features=1280, out_features=1280, bias=False)
            (v_proj): Linear(1.64 M, 0.11% Params, 321.13 MMACs, 0.01% MACs, 47.92 us, 0.02% latency, 13.4 TFLOPS, in_features=1280, out_features=1280, bias=True)
            (q_proj): Linear(1.64 M, 0.11% Params, 321.13 MMACs, 0.01% MACs, 62.94 us, 0.03% latency, 10.2 TFLOPS, in_features=1280, out_features=1280, bias=True)
            (out_proj): Linear(1.64 M, 0.11% Params, 321.13 MMACs, 0.01% MACs, 74.15 us, 0.03% latency, 8.66 TFLOPS, in_features=1280, out_features=1280, bias=True)
          )
          (activation_fn): GELUActivation(0, 0.00% Params, 0 MACs, 0.00% MACs, 34.09 us, 0.01% latency, 0.0 FLOPS, )
          (self_attn_layer_norm): LayerNorm(2.56 k, 0.00% Params, 0 MACs, 0.00% MACs, 43.87 us, 0.02% latency, 28.59 GFLOPS, (1280,), eps=1e-05, elementwise_affine=True)
          (encoder_attn): WhisperAttention(
            6.56 M, 0.42% Params, 21.06 GMACs, 0.39% MACs, 738.14 us, 0.31% latency, 57.06 TFLOPS, 
            (k_proj): Linear(1.64 M, 0.11% Params, 9.83 GMACs, 0.18% MACs, 187.16 us, 0.08% latency, 105.05 TFLOPS, in_features=1280, out_features=1280, bias=False)
            (v_proj): Linear(1.64 M, 0.11% Params, 9.83 GMACs, 0.18% MACs, 173.09 us, 0.07% latency, 113.59 TFLOPS, in_features=1280, out_features=1280, bias=True)
            (q_proj): Linear(1.64 M, 0.11% Params, 321.13 MMACs, 0.01% MACs, 53.64 us, 0.02% latency, 11.97 TFLOPS, in_features=1280, out_features=1280, bias=True)
            (out_proj): Linear(1.64 M, 0.11% Params, 321.13 MMACs, 0.01% MACs, 56.98 us, 0.02% latency, 11.27 TFLOPS, in_features=1280, out_features=1280, bias=True)
          )
          (encoder_attn_layer_norm): LayerNorm(2.56 k, 0.00% Params, 0 MACs, 0.00% MACs, 41.72 us, 0.02% latency, 30.06 GFLOPS, (1280,), eps=1e-05, elementwise_affine=True)
          (fc1): Linear(6.56 M, 0.42% Params, 1.28 GMACs, 0.02% MACs, 120.64 us, 0.05% latency, 21.29 TFLOPS, in_features=1280, out_features=5120, bias=True)
          (fc2): Linear(6.55 M, 0.42% Params, 1.28 GMACs, 0.02% MACs, 84.64 us, 0.04% latency, 30.35 TFLOPS, in_features=5120, out_features=1280, bias=True)
          (final_layer_norm): LayerNorm(2.56 k, 0.00% Params, 0 MACs, 0.00% MACs, 49.83 us, 0.02% latency, 25.17 GFLOPS, (1280,), eps=1e-05, elementwise_affine=True)
        )
        (4): WhisperDecoderLayer(
          26.24 M, 1.70% Params, 24.93 GMACs, 0.47% MACs, 1.85 ms, 0.77% latency, 26.99 TFLOPS, 
          (self_attn): WhisperAttention(
            6.56 M, 0.42% Params, 1.31 GMACs, 0.02% MACs, 494.96 us, 0.21% latency, 5.29 TFLOPS, 
            (k_proj): Linear(1.64 M, 0.11% Params, 321.13 MMACs, 0.01% MACs, 50.54 us, 0.02% latency, 12.71 TFLOPS, in_features=1280, out_features=1280, bias=False)
            (v_proj): Linear(1.64 M, 0.11% Params, 321.13 MMACs, 0.01% MACs, 57.7 us, 0.02% latency, 11.13 TFLOPS, in_features=1280, out_features=1280, bias=True)
            (q_proj): Linear(1.64 M, 0.11% Params, 321.13 MMACs, 0.01% MACs, 72.48 us, 0.03% latency, 8.86 TFLOPS, in_features=1280, out_features=1280, bias=True)
            (out_proj): Linear(1.64 M, 0.11% Params, 321.13 MMACs, 0.01% MACs, 58.17 us, 0.02% latency, 11.04 TFLOPS, in_features=1280, out_features=1280, bias=True)
          )
          (activation_fn): GELUActivation(0, 0.00% Params, 0 MACs, 0.00% MACs, 43.39 us, 0.02% latency, 0.0 FLOPS, )
          (self_attn_layer_norm): LayerNorm(2.56 k, 0.00% Params, 0 MACs, 0.00% MACs, 38.62 us, 0.02% latency, 32.48 GFLOPS, (1280,), eps=1e-05, elementwise_affine=True)
          (encoder_attn): WhisperAttention(
            6.56 M, 0.42% Params, 21.06 GMACs, 0.39% MACs, 729.08 us, 0.31% latency, 57.77 TFLOPS, 
            (k_proj): Linear(1.64 M, 0.11% Params, 9.83 GMACs, 0.18% MACs, 191.69 us, 0.08% latency, 102.57 TFLOPS, in_features=1280, out_features=1280, bias=False)
            (v_proj): Linear(1.64 M, 0.11% Params, 9.83 GMACs, 0.18% MACs, 182.87 us, 0.08% latency, 107.51 TFLOPS, in_features=1280, out_features=1280, bias=True)
            (q_proj): Linear(1.64 M, 0.11% Params, 321.13 MMACs, 0.01% MACs, 57.94 us, 0.02% latency, 11.09 TFLOPS, in_features=1280, out_features=1280, bias=True)
            (out_proj): Linear(1.64 M, 0.11% Params, 321.13 MMACs, 0.01% MACs, 58.65 us, 0.02% latency, 10.95 TFLOPS, in_features=1280, out_features=1280, bias=True)
          )
          (encoder_attn_layer_norm): LayerNorm(2.56 k, 0.00% Params, 0 MACs, 0.00% MACs, 43.15 us, 0.02% latency, 29.07 GFLOPS, (1280,), eps=1e-05, elementwise_affine=True)
          (fc1): Linear(6.56 M, 0.42% Params, 1.28 GMACs, 0.02% MACs, 125.65 us, 0.05% latency, 20.45 TFLOPS, in_features=1280, out_features=5120, bias=True)
          (fc2): Linear(6.55 M, 0.42% Params, 1.28 GMACs, 0.02% MACs, 103.71 us, 0.04% latency, 24.77 TFLOPS, in_features=5120, out_features=1280, bias=True)
          (final_layer_norm): LayerNorm(2.56 k, 0.00% Params, 0 MACs, 0.00% MACs, 86.07 us, 0.04% latency, 14.57 GFLOPS, (1280,), eps=1e-05, elementwise_affine=True)
        )
        (5): WhisperDecoderLayer(
          26.24 M, 1.70% Params, 24.93 GMACs, 0.47% MACs, 1.77 ms, 0.74% latency, 28.13 TFLOPS, 
          (self_attn): WhisperAttention(
            6.56 M, 0.42% Params, 1.31 GMACs, 0.02% MACs, 471.12 us, 0.20% latency, 5.56 TFLOPS, 
            (k_proj): Linear(1.64 M, 0.11% Params, 321.13 MMACs, 0.01% MACs, 52.45 us, 0.02% latency, 12.24 TFLOPS, in_features=1280, out_features=1280, bias=False)
            (v_proj): Linear(1.64 M, 0.11% Params, 321.13 MMACs, 0.01% MACs, 54.84 us, 0.02% latency, 11.71 TFLOPS, in_features=1280, out_features=1280, bias=True)
            (q_proj): Linear(1.64 M, 0.11% Params, 321.13 MMACs, 0.01% MACs, 60.56 us, 0.03% latency, 10.61 TFLOPS, in_features=1280, out_features=1280, bias=True)
            (out_proj): Linear(1.64 M, 0.11% Params, 321.13 MMACs, 0.01% MACs, 58.65 us, 0.02% latency, 10.95 TFLOPS, in_features=1280, out_features=1280, bias=True)
          )
          (activation_fn): GELUActivation(0, 0.00% Params, 0 MACs, 0.00% MACs, 41.72 us, 0.02% latency, 0.0 FLOPS, )
          (self_attn_layer_norm): LayerNorm(2.56 k, 0.00% Params, 0 MACs, 0.00% MACs, 32.66 us, 0.01% latency, 38.4 GFLOPS, (1280,), eps=1e-05, elementwise_affine=True)
          (encoder_attn): WhisperAttention(
            6.56 M, 0.42% Params, 21.06 GMACs, 0.39% MACs, 765.09 us, 0.32% latency, 55.05 TFLOPS, 
            (k_proj): Linear(1.64 M, 0.11% Params, 9.83 GMACs, 0.18% MACs, 199.32 us, 0.08% latency, 98.64 TFLOPS, in_features=1280, out_features=1280, bias=False)
            (v_proj): Linear(1.64 M, 0.11% Params, 9.83 GMACs, 0.18% MACs, 180.48 us, 0.08% latency, 108.93 TFLOPS, in_features=1280, out_features=1280, bias=True)
            (q_proj): Linear(1.64 M, 0.11% Params, 321.13 MMACs, 0.01% MACs, 55.55 us, 0.02% latency, 11.56 TFLOPS, in_features=1280, out_features=1280, bias=True)
            (out_proj): Linear(1.64 M, 0.11% Params, 321.13 MMACs, 0.01% MACs, 58.65 us, 0.02% latency, 10.95 TFLOPS, in_features=1280, out_features=1280, bias=True)
          )
          (encoder_attn_layer_norm): LayerNorm(2.56 k, 0.00% Params, 0 MACs, 0.00% MACs, 44.35 us, 0.02% latency, 28.29 GFLOPS, (1280,), eps=1e-05, elementwise_affine=True)
          (fc1): Linear(6.56 M, 0.42% Params, 1.28 GMACs, 0.02% MACs, 113.96 us, 0.05% latency, 22.54 TFLOPS, in_features=1280, out_features=5120, bias=True)
          (fc2): Linear(6.55 M, 0.42% Params, 1.28 GMACs, 0.02% MACs, 81.06 us, 0.03% latency, 31.69 TFLOPS, in_features=5120, out_features=1280, bias=True)
          (final_layer_norm): LayerNorm(2.56 k, 0.00% Params, 0 MACs, 0.00% MACs, 48.4 us, 0.02% latency, 25.92 GFLOPS, (1280,), eps=1e-05, elementwise_affine=True)
        )
        (6): WhisperDecoderLayer(
          26.24 M, 1.70% Params, 24.93 GMACs, 0.47% MACs, 1.76 ms, 0.74% latency, 28.31 TFLOPS, 
          (self_attn): WhisperAttention(
            6.56 M, 0.42% Params, 1.31 GMACs, 0.02% MACs, 463.25 us, 0.19% latency, 5.65 TFLOPS, 
            (k_proj): Linear(1.64 M, 0.11% Params, 321.13 MMACs, 0.01% MACs, 53.64 us, 0.02% latency, 11.97 TFLOPS, in_features=1280, out_features=1280, bias=False)
            (v_proj): Linear(1.64 M, 0.11% Params, 321.13 MMACs, 0.01% MACs, 53.64 us, 0.02% latency, 11.97 TFLOPS, in_features=1280, out_features=1280, bias=True)
            (q_proj): Linear(1.64 M, 0.11% Params, 321.13 MMACs, 0.01% MACs, 60.08 us, 0.03% latency, 10.69 TFLOPS, in_features=1280, out_features=1280, bias=True)
            (out_proj): Linear(1.64 M, 0.11% Params, 321.13 MMACs, 0.01% MACs, 57.7 us, 0.02% latency, 11.13 TFLOPS, in_features=1280, out_features=1280, bias=True)
          )
          (activation_fn): GELUActivation(0, 0.00% Params, 0 MACs, 0.00% MACs, 41.72 us, 0.02% latency, 0.0 FLOPS, )
          (self_attn_layer_norm): LayerNorm(2.56 k, 0.00% Params, 0 MACs, 0.00% MACs, 41.48 us, 0.02% latency, 30.24 GFLOPS, (1280,), eps=1e-05, elementwise_affine=True)
          (encoder_attn): WhisperAttention(
            6.56 M, 0.42% Params, 21.06 GMACs, 0.39% MACs, 739.81 us, 0.31% latency, 56.93 TFLOPS, 
            (k_proj): Linear(1.64 M, 0.11% Params, 9.83 GMACs, 0.18% MACs, 196.7 us, 0.08% latency, 99.96 TFLOPS, in_features=1280, out_features=1280, bias=False)
            (v_proj): Linear(1.64 M, 0.11% Params, 9.83 GMACs, 0.18% MACs, 180.01 us, 0.08% latency, 109.22 TFLOPS, in_features=1280, out_features=1280, bias=True)
            (q_proj): Linear(1.64 M, 0.11% Params, 321.13 MMACs, 0.01% MACs, 56.03 us, 0.02% latency, 11.46 TFLOPS, in_features=1280, out_features=1280, bias=True)
            (out_proj): Linear(1.64 M, 0.11% Params, 321.13 MMACs, 0.01% MACs, 57.46 us, 0.02% latency, 11.18 TFLOPS, in_features=1280, out_features=1280, bias=True)
          )
          (encoder_attn_layer_norm): LayerNorm(2.56 k, 0.00% Params, 0 MACs, 0.00% MACs, 44.82 us, 0.02% latency, 27.99 GFLOPS, (1280,), eps=1e-05, elementwise_affine=True)
          (fc1): Linear(6.56 M, 0.42% Params, 1.28 GMACs, 0.02% MACs, 123.02 us, 0.05% latency, 20.88 TFLOPS, in_features=1280, out_features=5120, bias=True)
          (fc2): Linear(6.55 M, 0.42% Params, 1.28 GMACs, 0.02% MACs, 82.02 us, 0.03% latency, 31.32 TFLOPS, in_features=5120, out_features=1280, bias=True)
          (final_layer_norm): LayerNorm(2.56 k, 0.00% Params, 0 MACs, 0.00% MACs, 52.21 us, 0.02% latency, 24.02 GFLOPS, (1280,), eps=1e-05, elementwise_affine=True)
        )
        (7): WhisperDecoderLayer(
          26.24 M, 1.70% Params, 24.93 GMACs, 0.47% MACs, 1.95 ms, 0.81% latency, 25.64 TFLOPS, 
          (self_attn): WhisperAttention(
            6.56 M, 0.42% Params, 1.31 GMACs, 0.02% MACs, 447.75 us, 0.19% latency, 5.85 TFLOPS, 
            (k_proj): Linear(1.64 M, 0.11% Params, 321.13 MMACs, 0.01% MACs, 50.78 us, 0.02% latency, 12.65 TFLOPS, in_features=1280, out_features=1280, bias=False)
            (v_proj): Linear(1.64 M, 0.11% Params, 321.13 MMACs, 0.01% MACs, 55.55 us, 0.02% latency, 11.56 TFLOPS, in_features=1280, out_features=1280, bias=True)
            (q_proj): Linear(1.64 M, 0.11% Params, 321.13 MMACs, 0.01% MACs, 59.13 us, 0.02% latency, 10.86 TFLOPS, in_features=1280, out_features=1280, bias=True)
            (out_proj): Linear(1.64 M, 0.11% Params, 321.13 MMACs, 0.01% MACs, 57.7 us, 0.02% latency, 11.13 TFLOPS, in_features=1280, out_features=1280, bias=True)
          )
          (activation_fn): GELUActivation(0, 0.00% Params, 0 MACs, 0.00% MACs, 41.96 us, 0.02% latency, 0.0 FLOPS, )
          (self_attn_layer_norm): LayerNorm(2.56 k, 0.00% Params, 0 MACs, 0.00% MACs, 41.96 us, 0.02% latency, 29.89 GFLOPS, (1280,), eps=1e-05, elementwise_affine=True)
          (encoder_attn): WhisperAttention(
            6.56 M, 0.42% Params, 21.06 GMACs, 0.39% MACs, 872.85 us, 0.37% latency, 48.25 TFLOPS, 
            (k_proj): Linear(1.64 M, 0.11% Params, 9.83 GMACs, 0.18% MACs, 189.54 us, 0.08% latency, 103.73 TFLOPS, in_features=1280, out_features=1280, bias=False)
            (v_proj): Linear(1.64 M, 0.11% Params, 9.83 GMACs, 0.18% MACs, 180.48 us, 0.08% latency, 108.93 TFLOPS, in_features=1280, out_features=1280, bias=True)
            (q_proj): Linear(1.64 M, 0.11% Params, 321.13 MMACs, 0.01% MACs, 55.79 us, 0.02% latency, 11.51 TFLOPS, in_features=1280, out_features=1280, bias=True)
            (out_proj): Linear(1.64 M, 0.11% Params, 321.13 MMACs, 0.01% MACs, 62.23 us, 0.03% latency, 10.32 TFLOPS, in_features=1280, out_features=1280, bias=True)
          )
          (encoder_attn_layer_norm): LayerNorm(2.56 k, 0.00% Params, 0 MACs, 0.00% MACs, 54.12 us, 0.02% latency, 23.18 GFLOPS, (1280,), eps=1e-05, elementwise_affine=True)
          (fc1): Linear(6.56 M, 0.42% Params, 1.28 GMACs, 0.02% MACs, 123.26 us, 0.05% latency, 20.84 TFLOPS, in_features=1280, out_features=5120, bias=True)
          (fc2): Linear(6.55 M, 0.42% Params, 1.28 GMACs, 0.02% MACs, 82.25 us, 0.03% latency, 31.23 TFLOPS, in_features=5120, out_features=1280, bias=True)
          (final_layer_norm): LayerNorm(2.56 k, 0.00% Params, 0 MACs, 0.00% MACs, 107.53 us, 0.05% latency, 11.67 GFLOPS, (1280,), eps=1e-05, elementwise_affine=True)
        )
        (8): WhisperDecoderLayer(
          26.24 M, 1.70% Params, 24.93 GMACs, 0.47% MACs, 1.82 ms, 0.76% latency, 27.36 TFLOPS, 
          (self_attn): WhisperAttention(
            6.56 M, 0.42% Params, 1.31 GMACs, 0.02% MACs, 483.51 us, 0.20% latency, 5.42 TFLOPS, 
            (k_proj): Linear(1.64 M, 0.11% Params, 321.13 MMACs, 0.01% MACs, 52.45 us, 0.02% latency, 12.24 TFLOPS, in_features=1280, out_features=1280, bias=False)
            (v_proj): Linear(1.64 M, 0.11% Params, 321.13 MMACs, 0.01% MACs, 54.36 us, 0.02% latency, 11.81 TFLOPS, in_features=1280, out_features=1280, bias=True)
            (q_proj): Linear(1.64 M, 0.11% Params, 321.13 MMACs, 0.01% MACs, 62.94 us, 0.03% latency, 10.2 TFLOPS, in_features=1280, out_features=1280, bias=True)
            (out_proj): Linear(1.64 M, 0.11% Params, 321.13 MMACs, 0.01% MACs, 57.46 us, 0.02% latency, 11.18 TFLOPS, in_features=1280, out_features=1280, bias=True)
          )
          (activation_fn): GELUActivation(0, 0.00% Params, 0 MACs, 0.00% MACs, 41.96 us, 0.02% latency, 0.0 FLOPS, )
          (self_attn_layer_norm): LayerNorm(2.56 k, 0.00% Params, 0 MACs, 0.00% MACs, 47.21 us, 0.02% latency, 26.57 GFLOPS, (1280,), eps=1e-05, elementwise_affine=True)
          (encoder_attn): WhisperAttention(
            6.56 M, 0.42% Params, 21.06 GMACs, 0.39% MACs, 786.07 us, 0.33% latency, 53.58 TFLOPS, 
            (k_proj): Linear(1.64 M, 0.11% Params, 9.83 GMACs, 0.18% MACs, 199.32 us, 0.08% latency, 98.64 TFLOPS, in_features=1280, out_features=1280, bias=False)
            (v_proj): Linear(1.64 M, 0.11% Params, 9.83 GMACs, 0.18% MACs, 183.82 us, 0.08% latency, 106.96 TFLOPS, in_features=1280, out_features=1280, bias=True)
            (q_proj): Linear(1.64 M, 0.11% Params, 321.13 MMACs, 0.01% MACs, 56.03 us, 0.02% latency, 11.46 TFLOPS, in_features=1280, out_features=1280, bias=True)
            (out_proj): Linear(1.64 M, 0.11% Params, 321.13 MMACs, 0.01% MACs, 72.72 us, 0.03% latency, 8.83 TFLOPS, in_features=1280, out_features=1280, bias=True)
          )
          (encoder_attn_layer_norm): LayerNorm(2.56 k, 0.00% Params, 0 MACs, 0.00% MACs, 45.06 us, 0.02% latency, 27.84 GFLOPS, (1280,), eps=1e-05, elementwise_affine=True)
          (fc1): Linear(6.56 M, 0.42% Params, 1.28 GMACs, 0.02% MACs, 114.92 us, 0.05% latency, 22.36 TFLOPS, in_features=1280, out_features=5120, bias=True)
          (fc2): Linear(6.55 M, 0.42% Params, 1.28 GMACs, 0.02% MACs, 82.73 us, 0.03% latency, 31.05 TFLOPS, in_features=5120, out_features=1280, bias=True)
          (final_layer_norm): LayerNorm(2.56 k, 0.00% Params, 0 MACs, 0.00% MACs, 50.54 us, 0.02% latency, 24.82 GFLOPS, (1280,), eps=1e-05, elementwise_affine=True)
        )
        (9): WhisperDecoderLayer(
          26.24 M, 1.70% Params, 24.93 GMACs, 0.47% MACs, 1.79 ms, 0.75% latency, 27.89 TFLOPS, 
          (self_attn): WhisperAttention(
            6.56 M, 0.42% Params, 1.31 GMACs, 0.02% MACs, 468.25 us, 0.20% latency, 5.59 TFLOPS, 
            (k_proj): Linear(1.64 M, 0.11% Params, 321.13 MMACs, 0.01% MACs, 51.98 us, 0.02% latency, 12.36 TFLOPS, in_features=1280, out_features=1280, bias=False)
            (v_proj): Linear(1.64 M, 0.11% Params, 321.13 MMACs, 0.01% MACs, 54.84 us, 0.02% latency, 11.71 TFLOPS, in_features=1280, out_features=1280, bias=True)
            (q_proj): Linear(1.64 M, 0.11% Params, 321.13 MMACs, 0.01% MACs, 58.41 us, 0.02% latency, 11.0 TFLOPS, in_features=1280, out_features=1280, bias=True)
            (out_proj): Linear(1.64 M, 0.11% Params, 321.13 MMACs, 0.01% MACs, 57.46 us, 0.02% latency, 11.18 TFLOPS, in_features=1280, out_features=1280, bias=True)
          )
          (activation_fn): GELUActivation(0, 0.00% Params, 0 MACs, 0.00% MACs, 41.96 us, 0.02% latency, 0.0 FLOPS, )
          (self_attn_layer_norm): LayerNorm(2.56 k, 0.00% Params, 0 MACs, 0.00% MACs, 43.87 us, 0.02% latency, 28.59 GFLOPS, (1280,), eps=1e-05, elementwise_affine=True)
          (encoder_attn): WhisperAttention(
            6.56 M, 0.42% Params, 21.06 GMACs, 0.39% MACs, 773.67 us, 0.32% latency, 54.44 TFLOPS, 
            (k_proj): Linear(1.64 M, 0.11% Params, 9.83 GMACs, 0.18% MACs, 197.41 us, 0.08% latency, 99.59 TFLOPS, in_features=1280, out_features=1280, bias=False)
            (v_proj): Linear(1.64 M, 0.11% Params, 9.83 GMACs, 0.18% MACs, 181.91 us, 0.08% latency, 108.08 TFLOPS, in_features=1280, out_features=1280, bias=True)
            (q_proj): Linear(1.64 M, 0.11% Params, 321.13 MMACs, 0.01% MACs, 56.27 us, 0.02% latency, 11.41 TFLOPS, in_features=1280, out_features=1280, bias=True)
            (out_proj): Linear(1.64 M, 0.11% Params, 321.13 MMACs, 0.01% MACs, 60.56 us, 0.03% latency, 10.61 TFLOPS, in_features=1280, out_features=1280, bias=True)
          )
          (encoder_attn_layer_norm): LayerNorm(2.56 k, 0.00% Params, 0 MACs, 0.00% MACs, 44.82 us, 0.02% latency, 27.99 GFLOPS, (1280,), eps=1e-05, elementwise_affine=True)
          (fc1): Linear(6.56 M, 0.42% Params, 1.28 GMACs, 0.02% MACs, 114.92 us, 0.05% latency, 22.36 TFLOPS, in_features=1280, out_features=5120, bias=True)
          (fc2): Linear(6.55 M, 0.42% Params, 1.28 GMACs, 0.02% MACs, 82.02 us, 0.03% latency, 31.32 TFLOPS, in_features=5120, out_features=1280, bias=True)
          (final_layer_norm): LayerNorm(2.56 k, 0.00% Params, 0 MACs, 0.00% MACs, 47.92 us, 0.02% latency, 26.18 GFLOPS, (1280,), eps=1e-05, elementwise_affine=True)
        )
        (10): WhisperDecoderLayer(
          26.24 M, 1.70% Params, 24.93 GMACs, 0.47% MACs, 1.79 ms, 0.75% latency, 27.87 TFLOPS, 
          (self_attn): WhisperAttention(
            6.56 M, 0.42% Params, 1.31 GMACs, 0.02% MACs, 473.98 us, 0.20% latency, 5.52 TFLOPS, 
            (k_proj): Linear(1.64 M, 0.11% Params, 321.13 MMACs, 0.01% MACs, 52.21 us, 0.02% latency, 12.3 TFLOPS, in_features=1280, out_features=1280, bias=False)
            (v_proj): Linear(1.64 M, 0.11% Params, 321.13 MMACs, 0.01% MACs, 53.88 us, 0.02% latency, 11.92 TFLOPS, in_features=1280, out_features=1280, bias=True)
            (q_proj): Linear(1.64 M, 0.11% Params, 321.13 MMACs, 0.01% MACs, 59.13 us, 0.02% latency, 10.86 TFLOPS, in_features=1280, out_features=1280, bias=True)
            (out_proj): Linear(1.64 M, 0.11% Params, 321.13 MMACs, 0.01% MACs, 57.22 us, 0.02% latency, 11.22 TFLOPS, in_features=1280, out_features=1280, bias=True)
          )
          (activation_fn): GELUActivation(0, 0.00% Params, 0 MACs, 0.00% MACs, 41.72 us, 0.02% latency, 0.0 FLOPS, )
          (self_attn_layer_norm): LayerNorm(2.56 k, 0.00% Params, 0 MACs, 0.00% MACs, 41.01 us, 0.02% latency, 30.59 GFLOPS, (1280,), eps=1e-05, elementwise_affine=True)
          (encoder_attn): WhisperAttention(
            6.56 M, 0.42% Params, 21.06 GMACs, 0.39% MACs, 770.09 us, 0.32% latency, 54.69 TFLOPS, 
            (k_proj): Linear(1.64 M, 0.11% Params, 9.83 GMACs, 0.18% MACs, 198.6 us, 0.08% latency, 99.0 TFLOPS, in_features=1280, out_features=1280, bias=False)
            (v_proj): Linear(1.64 M, 0.11% Params, 9.83 GMACs, 0.18% MACs, 181.91 us, 0.08% latency, 108.08 TFLOPS, in_features=1280, out_features=1280, bias=True)
            (q_proj): Linear(1.64 M, 0.11% Params, 321.13 MMACs, 0.01% MACs, 56.27 us, 0.02% latency, 11.41 TFLOPS, in_features=1280, out_features=1280, bias=True)
            (out_proj): Linear(1.64 M, 0.11% Params, 321.13 MMACs, 0.01% MACs, 60.56 us, 0.03% latency, 10.61 TFLOPS, in_features=1280, out_features=1280, bias=True)
          )
          (encoder_attn_layer_norm): LayerNorm(2.56 k, 0.00% Params, 0 MACs, 0.00% MACs, 45.06 us, 0.02% latency, 27.84 GFLOPS, (1280,), eps=1e-05, elementwise_affine=True)
          (fc1): Linear(6.56 M, 0.42% Params, 1.28 GMACs, 0.02% MACs, 114.92 us, 0.05% latency, 22.36 TFLOPS, in_features=1280, out_features=5120, bias=True)
          (fc2): Linear(6.55 M, 0.42% Params, 1.28 GMACs, 0.02% MACs, 83.45 us, 0.03% latency, 30.79 TFLOPS, in_features=5120, out_features=1280, bias=True)
          (final_layer_norm): LayerNorm(2.56 k, 0.00% Params, 0 MACs, 0.00% MACs, 50.07 us, 0.02% latency, 25.05 GFLOPS, (1280,), eps=1e-05, elementwise_affine=True)
        )
        (11): WhisperDecoderLayer(
          26.24 M, 1.70% Params, 24.93 GMACs, 0.47% MACs, 1.81 ms, 0.76% latency, 27.52 TFLOPS, 
          (self_attn): WhisperAttention(
            6.56 M, 0.42% Params, 1.31 GMACs, 0.02% MACs, 519.04 us, 0.22% latency, 5.04 TFLOPS, 
            (k_proj): Linear(1.64 M, 0.11% Params, 321.13 MMACs, 0.01% MACs, 52.93 us, 0.02% latency, 12.13 TFLOPS, in_features=1280, out_features=1280, bias=False)
            (v_proj): Linear(1.64 M, 0.11% Params, 321.13 MMACs, 0.01% MACs, 56.27 us, 0.02% latency, 11.41 TFLOPS, in_features=1280, out_features=1280, bias=True)
            (q_proj): Linear(1.64 M, 0.11% Params, 321.13 MMACs, 0.01% MACs, 61.51 us, 0.03% latency, 10.44 TFLOPS, in_features=1280, out_features=1280, bias=True)
            (out_proj): Linear(1.64 M, 0.11% Params, 321.13 MMACs, 0.01% MACs, 59.84 us, 0.03% latency, 10.73 TFLOPS, in_features=1280, out_features=1280, bias=True)
          )
          (activation_fn): GELUActivation(0, 0.00% Params, 0 MACs, 0.00% MACs, 41.72 us, 0.02% latency, 0.0 FLOPS, )
          (self_attn_layer_norm): LayerNorm(2.56 k, 0.00% Params, 0 MACs, 0.00% MACs, 49.35 us, 0.02% latency, 25.42 GFLOPS, (1280,), eps=1e-05, elementwise_affine=True)
          (encoder_attn): WhisperAttention(
            6.56 M, 0.42% Params, 21.06 GMACs, 0.39% MACs, 742.2 us, 0.31% latency, 56.75 TFLOPS, 
            (k_proj): Linear(1.64 M, 0.11% Params, 9.83 GMACs, 0.18% MACs, 198.6 us, 0.08% latency, 99.0 TFLOPS, in_features=1280, out_features=1280, bias=False)
            (v_proj): Linear(1.64 M, 0.11% Params, 9.83 GMACs, 0.18% MACs, 181.44 us, 0.08% latency, 108.36 TFLOPS, in_features=1280, out_features=1280, bias=True)
            (q_proj): Linear(1.64 M, 0.11% Params, 321.13 MMACs, 0.01% MACs, 56.27 us, 0.02% latency, 11.41 TFLOPS, in_features=1280, out_features=1280, bias=True)
            (out_proj): Linear(1.64 M, 0.11% Params, 321.13 MMACs, 0.01% MACs, 57.22 us, 0.02% latency, 11.22 TFLOPS, in_features=1280, out_features=1280, bias=True)
          )
          (encoder_attn_layer_norm): LayerNorm(2.56 k, 0.00% Params, 0 MACs, 0.00% MACs, 45.06 us, 0.02% latency, 27.84 GFLOPS, (1280,), eps=1e-05, elementwise_affine=True)
          (fc1): Linear(6.56 M, 0.42% Params, 1.28 GMACs, 0.02% MACs, 114.2 us, 0.05% latency, 22.5 TFLOPS, in_features=1280, out_features=5120, bias=True)
          (fc2): Linear(6.55 M, 0.42% Params, 1.28 GMACs, 0.02% MACs, 80.82 us, 0.03% latency, 31.79 TFLOPS, in_features=5120, out_features=1280, bias=True)
          (final_layer_norm): LayerNorm(2.56 k, 0.00% Params, 0 MACs, 0.00% MACs, 47.45 us, 0.02% latency, 26.44 GFLOPS, (1280,), eps=1e-05, elementwise_affine=True)
        )
        (12): WhisperDecoderLayer(
          26.24 M, 1.70% Params, 24.93 GMACs, 0.47% MACs, 1.77 ms, 0.74% latency, 28.22 TFLOPS, 
          (self_attn): WhisperAttention(
            6.56 M, 0.42% Params, 1.31 GMACs, 0.02% MACs, 466.11 us, 0.20% latency, 5.62 TFLOPS, 
            (k_proj): Linear(1.64 M, 0.11% Params, 321.13 MMACs, 0.01% MACs, 53.17 us, 0.02% latency, 12.08 TFLOPS, in_features=1280, out_features=1280, bias=False)
            (v_proj): Linear(1.64 M, 0.11% Params, 321.13 MMACs, 0.01% MACs, 54.84 us, 0.02% latency, 11.71 TFLOPS, in_features=1280, out_features=1280, bias=True)
            (q_proj): Linear(1.64 M, 0.11% Params, 321.13 MMACs, 0.01% MACs, 59.13 us, 0.02% latency, 10.86 TFLOPS, in_features=1280, out_features=1280, bias=True)
            (out_proj): Linear(1.64 M, 0.11% Params, 321.13 MMACs, 0.01% MACs, 57.46 us, 0.02% latency, 11.18 TFLOPS, in_features=1280, out_features=1280, bias=True)
          )
          (activation_fn): GELUActivation(0, 0.00% Params, 0 MACs, 0.00% MACs, 40.29 us, 0.02% latency, 0.0 FLOPS, )
          (self_attn_layer_norm): LayerNorm(2.56 k, 0.00% Params, 0 MACs, 0.00% MACs, 41.48 us, 0.02% latency, 30.24 GFLOPS, (1280,), eps=1e-05, elementwise_affine=True)
          (encoder_attn): WhisperAttention(
            6.56 M, 0.42% Params, 21.06 GMACs, 0.39% MACs, 764.61 us, 0.32% latency, 55.08 TFLOPS, 
            (k_proj): Linear(1.64 M, 0.11% Params, 9.83 GMACs, 0.18% MACs, 199.32 us, 0.08% latency, 98.64 TFLOPS, in_features=1280, out_features=1280, bias=False)
            (v_proj): Linear(1.64 M, 0.11% Params, 9.83 GMACs, 0.18% MACs, 180.48 us, 0.08% latency, 108.93 TFLOPS, in_features=1280, out_features=1280, bias=True)
            (q_proj): Linear(1.64 M, 0.11% Params, 321.13 MMACs, 0.01% MACs, 55.79 us, 0.02% latency, 11.51 TFLOPS, in_features=1280, out_features=1280, bias=True)
            (out_proj): Linear(1.64 M, 0.11% Params, 321.13 MMACs, 0.01% MACs, 59.37 us, 0.02% latency, 10.82 TFLOPS, in_features=1280, out_features=1280, bias=True)
          )
          (encoder_attn_layer_norm): LayerNorm(2.56 k, 0.00% Params, 0 MACs, 0.00% MACs, 44.11 us, 0.02% latency, 28.44 GFLOPS, (1280,), eps=1e-05, elementwise_affine=True)
          (fc1): Linear(6.56 M, 0.42% Params, 1.28 GMACs, 0.02% MACs, 115.39 us, 0.05% latency, 22.26 TFLOPS, in_features=1280, out_features=5120, bias=True)
          (fc2): Linear(6.55 M, 0.42% Params, 1.28 GMACs, 0.02% MACs, 80.11 us, 0.03% latency, 32.07 TFLOPS, in_features=5120, out_features=1280, bias=True)
          (final_layer_norm): LayerNorm(2.56 k, 0.00% Params, 0 MACs, 0.00% MACs, 48.16 us, 0.02% latency, 26.05 GFLOPS, (1280,), eps=1e-05, elementwise_affine=True)
        )
        (13): WhisperDecoderLayer(
          26.24 M, 1.70% Params, 24.93 GMACs, 0.47% MACs, 1.8 ms, 0.75% latency, 27.67 TFLOPS, 
          (self_attn): WhisperAttention(
            6.56 M, 0.42% Params, 1.31 GMACs, 0.02% MACs, 511.88 us, 0.21% latency, 5.12 TFLOPS, 
            (k_proj): Linear(1.64 M, 0.11% Params, 321.13 MMACs, 0.01% MACs, 52.93 us, 0.02% latency, 12.13 TFLOPS, in_features=1280, out_features=1280, bias=False)
            (v_proj): Linear(1.64 M, 0.11% Params, 321.13 MMACs, 0.01% MACs, 71.29 us, 0.03% latency, 9.01 TFLOPS, in_features=1280, out_features=1280, bias=True)
            (q_proj): Linear(1.64 M, 0.11% Params, 321.13 MMACs, 0.01% MACs, 58.89 us, 0.02% latency, 10.91 TFLOPS, in_features=1280, out_features=1280, bias=True)
            (out_proj): Linear(1.64 M, 0.11% Params, 321.13 MMACs, 0.01% MACs, 57.46 us, 0.02% latency, 11.18 TFLOPS, in_features=1280, out_features=1280, bias=True)
          )
          (activation_fn): GELUActivation(0, 0.00% Params, 0 MACs, 0.00% MACs, 41.48 us, 0.02% latency, 0.0 FLOPS, )
          (self_attn_layer_norm): LayerNorm(2.56 k, 0.00% Params, 0 MACs, 0.00% MACs, 41.72 us, 0.02% latency, 30.06 GFLOPS, (1280,), eps=1e-05, elementwise_affine=True)
          (encoder_attn): WhisperAttention(
            6.56 M, 0.42% Params, 21.06 GMACs, 0.39% MACs, 748.63 us, 0.31% latency, 56.26 TFLOPS, 
            (k_proj): Linear(1.64 M, 0.11% Params, 9.83 GMACs, 0.18% MACs, 200.75 us, 0.08% latency, 97.94 TFLOPS, in_features=1280, out_features=1280, bias=False)
            (v_proj): Linear(1.64 M, 0.11% Params, 9.83 GMACs, 0.18% MACs, 179.29 us, 0.08% latency, 109.66 TFLOPS, in_features=1280, out_features=1280, bias=True)
            (q_proj): Linear(1.64 M, 0.11% Params, 321.13 MMACs, 0.01% MACs, 57.7 us, 0.02% latency, 11.13 TFLOPS, in_features=1280, out_features=1280, bias=True)
            (out_proj): Linear(1.64 M, 0.11% Params, 321.13 MMACs, 0.01% MACs, 58.65 us, 0.02% latency, 10.95 TFLOPS, in_features=1280, out_features=1280, bias=True)
          )
          (encoder_attn_layer_norm): LayerNorm(2.56 k, 0.00% Params, 0 MACs, 0.00% MACs, 44.82 us, 0.02% latency, 27.99 GFLOPS, (1280,), eps=1e-05, elementwise_affine=True)
          (fc1): Linear(6.56 M, 0.42% Params, 1.28 GMACs, 0.02% MACs, 117.3 us, 0.05% latency, 21.9 TFLOPS, in_features=1280, out_features=5120, bias=True)
          (fc2): Linear(6.55 M, 0.42% Params, 1.28 GMACs, 0.02% MACs, 81.54 us, 0.03% latency, 31.51 TFLOPS, in_features=5120, out_features=1280, bias=True)
          (final_layer_norm): LayerNorm(2.56 k, 0.00% Params, 0 MACs, 0.00% MACs, 47.21 us, 0.02% latency, 26.57 GFLOPS, (1280,), eps=1e-05, elementwise_affine=True)
        )
        (14): WhisperDecoderLayer(
          26.24 M, 1.70% Params, 24.93 GMACs, 0.47% MACs, 1.76 ms, 0.74% latency, 28.32 TFLOPS, 
          (self_attn): WhisperAttention(
            6.56 M, 0.42% Params, 1.31 GMACs, 0.02% MACs, 476.12 us, 0.20% latency, 5.5 TFLOPS, 
            (k_proj): Linear(1.64 M, 0.11% Params, 321.13 MMACs, 0.01% MACs, 51.74 us, 0.02% latency, 12.41 TFLOPS, in_features=1280, out_features=1280, bias=False)
            (v_proj): Linear(1.64 M, 0.11% Params, 321.13 MMACs, 0.01% MACs, 57.46 us, 0.02% latency, 11.18 TFLOPS, in_features=1280, out_features=1280, bias=True)
            (q_proj): Linear(1.64 M, 0.11% Params, 321.13 MMACs, 0.01% MACs, 61.51 us, 0.03% latency, 10.44 TFLOPS, in_features=1280, out_features=1280, bias=True)
            (out_proj): Linear(1.64 M, 0.11% Params, 321.13 MMACs, 0.01% MACs, 56.03 us, 0.02% latency, 11.46 TFLOPS, in_features=1280, out_features=1280, bias=True)
          )
          (activation_fn): GELUActivation(0, 0.00% Params, 0 MACs, 0.00% MACs, 38.39 us, 0.02% latency, 0.0 FLOPS, )
          (self_attn_layer_norm): LayerNorm(2.56 k, 0.00% Params, 0 MACs, 0.00% MACs, 45.54 us, 0.02% latency, 27.55 GFLOPS, (1280,), eps=1e-05, elementwise_affine=True)
          (encoder_attn): WhisperAttention(
            6.56 M, 0.42% Params, 21.06 GMACs, 0.39% MACs, 740.77 us, 0.31% latency, 56.86 TFLOPS, 
            (k_proj): Linear(1.64 M, 0.11% Params, 9.83 GMACs, 0.18% MACs, 212.67 us, 0.09% latency, 92.45 TFLOPS, in_features=1280, out_features=1280, bias=False)
            (v_proj): Linear(1.64 M, 0.11% Params, 9.83 GMACs, 0.18% MACs, 180.24 us, 0.08% latency, 109.08 TFLOPS, in_features=1280, out_features=1280, bias=True)
            (q_proj): Linear(1.64 M, 0.11% Params, 321.13 MMACs, 0.01% MACs, 56.74 us, 0.02% latency, 11.32 TFLOPS, in_features=1280, out_features=1280, bias=True)
            (out_proj): Linear(1.64 M, 0.11% Params, 321.13 MMACs, 0.01% MACs, 54.36 us, 0.02% latency, 11.81 TFLOPS, in_features=1280, out_features=1280, bias=True)
          )
          (encoder_attn_layer_norm): LayerNorm(2.56 k, 0.00% Params, 0 MACs, 0.00% MACs, 48.16 us, 0.02% latency, 26.05 GFLOPS, (1280,), eps=1e-05, elementwise_affine=True)
          (fc1): Linear(6.56 M, 0.42% Params, 1.28 GMACs, 0.02% MACs, 116.35 us, 0.05% latency, 22.08 TFLOPS, in_features=1280, out_features=5120, bias=True)
          (fc2): Linear(6.55 M, 0.42% Params, 1.28 GMACs, 0.02% MACs, 83.21 us, 0.03% latency, 30.87 TFLOPS, in_features=5120, out_features=1280, bias=True)
          (final_layer_norm): LayerNorm(2.56 k, 0.00% Params, 0 MACs, 0.00% MACs, 39.82 us, 0.02% latency, 31.5 GFLOPS, (1280,), eps=1e-05, elementwise_affine=True)
        )
        (15): WhisperDecoderLayer(
          26.24 M, 1.70% Params, 24.93 GMACs, 0.47% MACs, 1.81 ms, 0.76% latency, 27.6 TFLOPS, 
          (self_attn): WhisperAttention(
            6.56 M, 0.42% Params, 1.31 GMACs, 0.02% MACs, 477.31 us, 0.20% latency, 5.49 TFLOPS, 
            (k_proj): Linear(1.64 M, 0.11% Params, 321.13 MMACs, 0.01% MACs, 52.45 us, 0.02% latency, 12.24 TFLOPS, in_features=1280, out_features=1280, bias=False)
            (v_proj): Linear(1.64 M, 0.11% Params, 321.13 MMACs, 0.01% MACs, 57.7 us, 0.02% latency, 11.13 TFLOPS, in_features=1280, out_features=1280, bias=True)
            (q_proj): Linear(1.64 M, 0.11% Params, 321.13 MMACs, 0.01% MACs, 59.37 us, 0.02% latency, 10.82 TFLOPS, in_features=1280, out_features=1280, bias=True)
            (out_proj): Linear(1.64 M, 0.11% Params, 321.13 MMACs, 0.01% MACs, 56.74 us, 0.02% latency, 11.32 TFLOPS, in_features=1280, out_features=1280, bias=True)
          )
          (activation_fn): GELUActivation(0, 0.00% Params, 0 MACs, 0.00% MACs, 42.2 us, 0.02% latency, 0.0 FLOPS, )
          (self_attn_layer_norm): LayerNorm(2.56 k, 0.00% Params, 0 MACs, 0.00% MACs, 40.77 us, 0.02% latency, 30.77 GFLOPS, (1280,), eps=1e-05, elementwise_affine=True)
          (encoder_attn): WhisperAttention(
            6.56 M, 0.42% Params, 21.06 GMACs, 0.39% MACs, 785.11 us, 0.33% latency, 53.64 TFLOPS, 
            (k_proj): Linear(1.64 M, 0.11% Params, 9.83 GMACs, 0.18% MACs, 201.7 us, 0.08% latency, 97.47 TFLOPS, in_features=1280, out_features=1280, bias=False)
            (v_proj): Linear(1.64 M, 0.11% Params, 9.83 GMACs, 0.18% MACs, 181.2 us, 0.08% latency, 108.5 TFLOPS, in_features=1280, out_features=1280, bias=True)
            (q_proj): Linear(1.64 M, 0.11% Params, 321.13 MMACs, 0.01% MACs, 66.76 us, 0.03% latency, 9.62 TFLOPS, in_features=1280, out_features=1280, bias=True)
            (out_proj): Linear(1.64 M, 0.11% Params, 321.13 MMACs, 0.01% MACs, 58.41 us, 0.02% latency, 11.0 TFLOPS, in_features=1280, out_features=1280, bias=True)
          )
          (encoder_attn_layer_norm): LayerNorm(2.56 k, 0.00% Params, 0 MACs, 0.00% MACs, 45.54 us, 0.02% latency, 27.55 GFLOPS, (1280,), eps=1e-05, elementwise_affine=True)
          (fc1): Linear(6.56 M, 0.42% Params, 1.28 GMACs, 0.02% MACs, 118.26 us, 0.05% latency, 21.72 TFLOPS, in_features=1280, out_features=5120, bias=True)
          (fc2): Linear(6.55 M, 0.42% Params, 1.28 GMACs, 0.02% MACs, 80.82 us, 0.03% latency, 31.79 TFLOPS, in_features=5120, out_features=1280, bias=True)
          (final_layer_norm): LayerNorm(2.56 k, 0.00% Params, 0 MACs, 0.00% MACs, 48.16 us, 0.02% latency, 26.05 GFLOPS, (1280,), eps=1e-05, elementwise_affine=True)
        )
        (16): WhisperDecoderLayer(
          26.24 M, 1.70% Params, 24.93 GMACs, 0.47% MACs, 1.78 ms, 0.74% latency, 28.06 TFLOPS, 
          (self_attn): WhisperAttention(
            6.56 M, 0.42% Params, 1.31 GMACs, 0.02% MACs, 468.73 us, 0.20% latency, 5.59 TFLOPS, 
            (k_proj): Linear(1.64 M, 0.11% Params, 321.13 MMACs, 0.01% MACs, 51.98 us, 0.02% latency, 12.36 TFLOPS, in_features=1280, out_features=1280, bias=False)
            (v_proj): Linear(1.64 M, 0.11% Params, 321.13 MMACs, 0.01% MACs, 55.31 us, 0.02% latency, 11.61 TFLOPS, in_features=1280, out_features=1280, bias=True)
            (q_proj): Linear(1.64 M, 0.11% Params, 321.13 MMACs, 0.01% MACs, 59.6 us, 0.02% latency, 10.78 TFLOPS, in_features=1280, out_features=1280, bias=True)
            (out_proj): Linear(1.64 M, 0.11% Params, 321.13 MMACs, 0.01% MACs, 57.46 us, 0.02% latency, 11.18 TFLOPS, in_features=1280, out_features=1280, bias=True)
          )
          (activation_fn): GELUActivation(0, 0.00% Params, 0 MACs, 0.00% MACs, 42.68 us, 0.02% latency, 0.0 FLOPS, )
          (self_attn_layer_norm): LayerNorm(2.56 k, 0.00% Params, 0 MACs, 0.00% MACs, 42.2 us, 0.02% latency, 29.73 GFLOPS, (1280,), eps=1e-05, elementwise_affine=True)
          (encoder_attn): WhisperAttention(
            6.56 M, 0.42% Params, 21.06 GMACs, 0.39% MACs, 749.11 us, 0.31% latency, 56.22 TFLOPS, 
            (k_proj): Linear(1.64 M, 0.11% Params, 9.83 GMACs, 0.18% MACs, 196.7 us, 0.08% latency, 99.96 TFLOPS, in_features=1280, out_features=1280, bias=False)
            (v_proj): Linear(1.64 M, 0.11% Params, 9.83 GMACs, 0.18% MACs, 181.67 us, 0.08% latency, 108.22 TFLOPS, in_features=1280, out_features=1280, bias=True)
            (q_proj): Linear(1.64 M, 0.11% Params, 321.13 MMACs, 0.01% MACs, 56.03 us, 0.02% latency, 11.46 TFLOPS, in_features=1280, out_features=1280, bias=True)
            (out_proj): Linear(1.64 M, 0.11% Params, 321.13 MMACs, 0.01% MACs, 59.13 us, 0.02% latency, 10.86 TFLOPS, in_features=1280, out_features=1280, bias=True)
          )
          (encoder_attn_layer_norm): LayerNorm(2.56 k, 0.00% Params, 0 MACs, 0.00% MACs, 47.92 us, 0.02% latency, 26.18 GFLOPS, (1280,), eps=1e-05, elementwise_affine=True)
          (fc1): Linear(6.56 M, 0.42% Params, 1.28 GMACs, 0.02% MACs, 115.16 us, 0.05% latency, 22.31 TFLOPS, in_features=1280, out_features=5120, bias=True)
          (fc2): Linear(6.55 M, 0.42% Params, 1.28 GMACs, 0.02% MACs, 90.36 us, 0.04% latency, 28.43 TFLOPS, in_features=5120, out_features=1280, bias=True)
          (final_layer_norm): LayerNorm(2.56 k, 0.00% Params, 0 MACs, 0.00% MACs, 47.45 us, 0.02% latency, 26.44 GFLOPS, (1280,), eps=1e-05, elementwise_affine=True)
        )
        (17): WhisperDecoderLayer(
          26.24 M, 1.70% Params, 24.93 GMACs, 0.47% MACs, 1.75 ms, 0.73% latency, 28.45 TFLOPS, 
          (self_attn): WhisperAttention(
            6.56 M, 0.42% Params, 1.31 GMACs, 0.02% MACs, 469.92 us, 0.20% latency, 5.57 TFLOPS, 
            (k_proj): Linear(1.64 M, 0.11% Params, 321.13 MMACs, 0.01% MACs, 55.07 us, 0.02% latency, 11.66 TFLOPS, in_features=1280, out_features=1280, bias=False)
            (v_proj): Linear(1.64 M, 0.11% Params, 321.13 MMACs, 0.01% MACs, 55.31 us, 0.02% latency, 11.61 TFLOPS, in_features=1280, out_features=1280, bias=True)
            (q_proj): Linear(1.64 M, 0.11% Params, 321.13 MMACs, 0.01% MACs, 60.08 us, 0.03% latency, 10.69 TFLOPS, in_features=1280, out_features=1280, bias=True)
            (out_proj): Linear(1.64 M, 0.11% Params, 321.13 MMACs, 0.01% MACs, 57.22 us, 0.02% latency, 11.22 TFLOPS, in_features=1280, out_features=1280, bias=True)
          )
          (activation_fn): GELUActivation(0, 0.00% Params, 0 MACs, 0.00% MACs, 41.48 us, 0.02% latency, 0.0 FLOPS, )
          (self_attn_layer_norm): LayerNorm(2.56 k, 0.00% Params, 0 MACs, 0.00% MACs, 41.96 us, 0.02% latency, 29.89 GFLOPS, (1280,), eps=1e-05, elementwise_affine=True)
          (encoder_attn): WhisperAttention(
            6.56 M, 0.42% Params, 21.06 GMACs, 0.39% MACs, 743.87 us, 0.31% latency, 56.62 TFLOPS, 
            (k_proj): Linear(1.64 M, 0.11% Params, 9.83 GMACs, 0.18% MACs, 196.46 us, 0.08% latency, 100.08 TFLOPS, in_features=1280, out_features=1280, bias=False)
            (v_proj): Linear(1.64 M, 0.11% Params, 9.83 GMACs, 0.18% MACs, 182.87 us, 0.08% latency, 107.51 TFLOPS, in_features=1280, out_features=1280, bias=True)
            (q_proj): Linear(1.64 M, 0.11% Params, 321.13 MMACs, 0.01% MACs, 56.27 us, 0.02% latency, 11.41 TFLOPS, in_features=1280, out_features=1280, bias=True)
            (out_proj): Linear(1.64 M, 0.11% Params, 321.13 MMACs, 0.01% MACs, 59.6 us, 0.02% latency, 10.78 TFLOPS, in_features=1280, out_features=1280, bias=True)
          )
          (encoder_attn_layer_norm): LayerNorm(2.56 k, 0.00% Params, 0 MACs, 0.00% MACs, 45.06 us, 0.02% latency, 27.84 GFLOPS, (1280,), eps=1e-05, elementwise_affine=True)
          (fc1): Linear(6.56 M, 0.42% Params, 1.28 GMACs, 0.02% MACs, 114.2 us, 0.05% latency, 22.5 TFLOPS, in_features=1280, out_features=5120, bias=True)
          (fc2): Linear(6.55 M, 0.42% Params, 1.28 GMACs, 0.02% MACs, 81.78 us, 0.03% latency, 31.41 TFLOPS, in_features=5120, out_features=1280, bias=True)
          (final_layer_norm): LayerNorm(2.56 k, 0.00% Params, 0 MACs, 0.00% MACs, 47.92 us, 0.02% latency, 26.18 GFLOPS, (1280,), eps=1e-05, elementwise_affine=True)
        )
        (18): WhisperDecoderLayer(
          26.24 M, 1.70% Params, 24.93 GMACs, 0.47% MACs, 1.84 ms, 0.77% latency, 27.06 TFLOPS, 
          (self_attn): WhisperAttention(
            6.56 M, 0.42% Params, 1.31 GMACs, 0.02% MACs, 468.02 us, 0.20% latency, 5.59 TFLOPS, 
            (k_proj): Linear(1.64 M, 0.11% Params, 321.13 MMACs, 0.01% MACs, 51.26 us, 0.02% latency, 12.53 TFLOPS, in_features=1280, out_features=1280, bias=False)
            (v_proj): Linear(1.64 M, 0.11% Params, 321.13 MMACs, 0.01% MACs, 54.84 us, 0.02% latency, 11.71 TFLOPS, in_features=1280, out_features=1280, bias=True)
            (q_proj): Linear(1.64 M, 0.11% Params, 321.13 MMACs, 0.01% MACs, 59.6 us, 0.02% latency, 10.78 TFLOPS, in_features=1280, out_features=1280, bias=True)
            (out_proj): Linear(1.64 M, 0.11% Params, 321.13 MMACs, 0.01% MACs, 56.51 us, 0.02% latency, 11.37 TFLOPS, in_features=1280, out_features=1280, bias=True)
          )
          (activation_fn): GELUActivation(0, 0.00% Params, 0 MACs, 0.00% MACs, 44.35 us, 0.02% latency, 0.0 FLOPS, )
          (self_attn_layer_norm): LayerNorm(2.56 k, 0.00% Params, 0 MACs, 0.00% MACs, 40.77 us, 0.02% latency, 30.77 GFLOPS, (1280,), eps=1e-05, elementwise_affine=True)
          (encoder_attn): WhisperAttention(
            6.56 M, 0.42% Params, 21.06 GMACs, 0.39% MACs, 795.84 us, 0.33% latency, 52.92 TFLOPS, 
            (k_proj): Linear(1.64 M, 0.11% Params, 9.83 GMACs, 0.18% MACs, 198.84 us, 0.08% latency, 98.88 TFLOPS, in_features=1280, out_features=1280, bias=False)
            (v_proj): Linear(1.64 M, 0.11% Params, 9.83 GMACs, 0.18% MACs, 201.23 us, 0.08% latency, 97.71 TFLOPS, in_features=1280, out_features=1280, bias=True)
            (q_proj): Linear(1.64 M, 0.11% Params, 321.13 MMACs, 0.01% MACs, 54.6 us, 0.02% latency, 11.76 TFLOPS, in_features=1280, out_features=1280, bias=True)
            (out_proj): Linear(1.64 M, 0.11% Params, 321.13 MMACs, 0.01% MACs, 60.32 us, 0.03% latency, 10.65 TFLOPS, in_features=1280, out_features=1280, bias=True)
          )
          (encoder_attn_layer_norm): LayerNorm(2.56 k, 0.00% Params, 0 MACs, 0.00% MACs, 67.23 us, 0.03% latency, 18.66 GFLOPS, (1280,), eps=1e-05, elementwise_affine=True)
          (fc1): Linear(6.56 M, 0.42% Params, 1.28 GMACs, 0.02% MACs, 122.55 us, 0.05% latency, 20.96 TFLOPS, in_features=1280, out_features=5120, bias=True)
          (fc2): Linear(6.55 M, 0.42% Params, 1.28 GMACs, 0.02% MACs, 82.73 us, 0.03% latency, 31.05 TFLOPS, in_features=5120, out_features=1280, bias=True)
          (final_layer_norm): LayerNorm(2.56 k, 0.00% Params, 0 MACs, 0.00% MACs, 54.6 us, 0.02% latency, 22.98 GFLOPS, (1280,), eps=1e-05, elementwise_affine=True)
        )
        (19): WhisperDecoderLayer(
          26.24 M, 1.70% Params, 24.93 GMACs, 0.47% MACs, 1.82 ms, 0.76% latency, 27.38 TFLOPS, 
          (self_attn): WhisperAttention(
            6.56 M, 0.42% Params, 1.31 GMACs, 0.02% MACs, 503.06 us, 0.21% latency, 5.2 TFLOPS, 
            (k_proj): Linear(1.64 M, 0.11% Params, 321.13 MMACs, 0.01% MACs, 52.21 us, 0.02% latency, 12.3 TFLOPS, in_features=1280, out_features=1280, bias=False)
            (v_proj): Linear(1.64 M, 0.11% Params, 321.13 MMACs, 0.01% MACs, 54.84 us, 0.02% latency, 11.71 TFLOPS, in_features=1280, out_features=1280, bias=True)
            (q_proj): Linear(1.64 M, 0.11% Params, 321.13 MMACs, 0.01% MACs, 92.51 us, 0.04% latency, 6.94 TFLOPS, in_features=1280, out_features=1280, bias=True)
            (out_proj): Linear(1.64 M, 0.11% Params, 321.13 MMACs, 0.01% MACs, 58.17 us, 0.02% latency, 11.04 TFLOPS, in_features=1280, out_features=1280, bias=True)
          )
          (activation_fn): GELUActivation(0, 0.00% Params, 0 MACs, 0.00% MACs, 48.64 us, 0.02% latency, 0.0 FLOPS, )
          (self_attn_layer_norm): LayerNorm(2.56 k, 0.00% Params, 0 MACs, 0.00% MACs, 41.48 us, 0.02% latency, 30.24 GFLOPS, (1280,), eps=1e-05, elementwise_affine=True)
          (encoder_attn): WhisperAttention(
            6.56 M, 0.42% Params, 21.06 GMACs, 0.39% MACs, 743.39 us, 0.31% latency, 56.66 TFLOPS, 
            (k_proj): Linear(1.64 M, 0.11% Params, 9.83 GMACs, 0.18% MACs, 200.03 us, 0.08% latency, 98.29 TFLOPS, in_features=1280, out_features=1280, bias=False)
            (v_proj): Linear(1.64 M, 0.11% Params, 9.83 GMACs, 0.18% MACs, 180.48 us, 0.08% latency, 108.93 TFLOPS, in_features=1280, out_features=1280, bias=True)
            (q_proj): Linear(1.64 M, 0.11% Params, 321.13 MMACs, 0.01% MACs, 55.55 us, 0.02% latency, 11.56 TFLOPS, in_features=1280, out_features=1280, bias=True)
            (out_proj): Linear(1.64 M, 0.11% Params, 321.13 MMACs, 0.01% MACs, 58.17 us, 0.02% latency, 11.04 TFLOPS, in_features=1280, out_features=1280, bias=True)
          )
          (encoder_attn_layer_norm): LayerNorm(2.56 k, 0.00% Params, 0 MACs, 0.00% MACs, 45.3 us, 0.02% latency, 27.69 GFLOPS, (1280,), eps=1e-05, elementwise_affine=True)
          (fc1): Linear(6.56 M, 0.42% Params, 1.28 GMACs, 0.02% MACs, 124.22 us, 0.05% latency, 20.68 TFLOPS, in_features=1280, out_features=5120, bias=True)
          (fc2): Linear(6.55 M, 0.42% Params, 1.28 GMACs, 0.02% MACs, 89.88 us, 0.04% latency, 28.58 TFLOPS, in_features=5120, out_features=1280, bias=True)
          (final_layer_norm): LayerNorm(2.56 k, 0.00% Params, 0 MACs, 0.00% MACs, 47.45 us, 0.02% latency, 26.44 GFLOPS, (1280,), eps=1e-05, elementwise_affine=True)
        )
        (20): WhisperDecoderLayer(
          26.24 M, 1.70% Params, 24.93 GMACs, 0.47% MACs, 1.76 ms, 0.74% latency, 28.39 TFLOPS, 
          (self_attn): WhisperAttention(
            6.56 M, 0.42% Params, 1.31 GMACs, 0.02% MACs, 475.41 us, 0.20% latency, 5.51 TFLOPS, 
            (k_proj): Linear(1.64 M, 0.11% Params, 321.13 MMACs, 0.01% MACs, 54.36 us, 0.02% latency, 11.81 TFLOPS, in_features=1280, out_features=1280, bias=False)
            (v_proj): Linear(1.64 M, 0.11% Params, 321.13 MMACs, 0.01% MACs, 55.55 us, 0.02% latency, 11.56 TFLOPS, in_features=1280, out_features=1280, bias=True)
            (q_proj): Linear(1.64 M, 0.11% Params, 321.13 MMACs, 0.01% MACs, 59.13 us, 0.02% latency, 10.86 TFLOPS, in_features=1280, out_features=1280, bias=True)
            (out_proj): Linear(1.64 M, 0.11% Params, 321.13 MMACs, 0.01% MACs, 60.32 us, 0.03% latency, 10.65 TFLOPS, in_features=1280, out_features=1280, bias=True)
          )
          (activation_fn): GELUActivation(0, 0.00% Params, 0 MACs, 0.00% MACs, 41.48 us, 0.02% latency, 0.0 FLOPS, )
          (self_attn_layer_norm): LayerNorm(2.56 k, 0.00% Params, 0 MACs, 0.00% MACs, 41.25 us, 0.02% latency, 30.41 GFLOPS, (1280,), eps=1e-05, elementwise_affine=True)
          (encoder_attn): WhisperAttention(
            6.56 M, 0.42% Params, 21.06 GMACs, 0.39% MACs, 741.96 us, 0.31% latency, 56.76 TFLOPS, 
            (k_proj): Linear(1.64 M, 0.11% Params, 9.83 GMACs, 0.18% MACs, 198.84 us, 0.08% latency, 98.88 TFLOPS, in_features=1280, out_features=1280, bias=False)
            (v_proj): Linear(1.64 M, 0.11% Params, 9.83 GMACs, 0.18% MACs, 180.48 us, 0.08% latency, 108.93 TFLOPS, in_features=1280, out_features=1280, bias=True)
            (q_proj): Linear(1.64 M, 0.11% Params, 321.13 MMACs, 0.01% MACs, 55.79 us, 0.02% latency, 11.51 TFLOPS, in_features=1280, out_features=1280, bias=True)
            (out_proj): Linear(1.64 M, 0.11% Params, 321.13 MMACs, 0.01% MACs, 58.17 us, 0.02% latency, 11.04 TFLOPS, in_features=1280, out_features=1280, bias=True)
          )
          (encoder_attn_layer_norm): LayerNorm(2.56 k, 0.00% Params, 0 MACs, 0.00% MACs, 45.78 us, 0.02% latency, 27.4 GFLOPS, (1280,), eps=1e-05, elementwise_affine=True)
          (fc1): Linear(6.56 M, 0.42% Params, 1.28 GMACs, 0.02% MACs, 114.44 us, 0.05% latency, 22.45 TFLOPS, in_features=1280, out_features=5120, bias=True)
          (fc2): Linear(6.55 M, 0.42% Params, 1.28 GMACs, 0.02% MACs, 82.02 us, 0.03% latency, 31.32 TFLOPS, in_features=5120, out_features=1280, bias=True)
          (final_layer_norm): LayerNorm(2.56 k, 0.00% Params, 0 MACs, 0.00% MACs, 47.68 us, 0.02% latency, 26.31 GFLOPS, (1280,), eps=1e-05, elementwise_affine=True)
        )
        (21): WhisperDecoderLayer(
          26.24 M, 1.70% Params, 24.93 GMACs, 0.47% MACs, 1.82 ms, 0.76% latency, 27.38 TFLOPS, 
          (self_attn): WhisperAttention(
            6.56 M, 0.42% Params, 1.31 GMACs, 0.02% MACs, 483.99 us, 0.20% latency, 5.41 TFLOPS, 
            (k_proj): Linear(1.64 M, 0.11% Params, 321.13 MMACs, 0.01% MACs, 54.6 us, 0.02% latency, 11.76 TFLOPS, in_features=1280, out_features=1280, bias=False)
            (v_proj): Linear(1.64 M, 0.11% Params, 321.13 MMACs, 0.01% MACs, 56.51 us, 0.02% latency, 11.37 TFLOPS, in_features=1280, out_features=1280, bias=True)
            (q_proj): Linear(1.64 M, 0.11% Params, 321.13 MMACs, 0.01% MACs, 67.71 us, 0.03% latency, 9.49 TFLOPS, in_features=1280, out_features=1280, bias=True)
            (out_proj): Linear(1.64 M, 0.11% Params, 321.13 MMACs, 0.01% MACs, 52.69 us, 0.02% latency, 12.19 TFLOPS, in_features=1280, out_features=1280, bias=True)
          )
          (activation_fn): GELUActivation(0, 0.00% Params, 0 MACs, 0.00% MACs, 43.87 us, 0.02% latency, 0.0 FLOPS, )
          (self_attn_layer_norm): LayerNorm(2.56 k, 0.00% Params, 0 MACs, 0.00% MACs, 47.68 us, 0.02% latency, 26.31 GFLOPS, (1280,), eps=1e-05, elementwise_affine=True)
          (encoder_attn): WhisperAttention(
            6.56 M, 0.42% Params, 21.06 GMACs, 0.39% MACs, 773.91 us, 0.32% latency, 54.42 TFLOPS, 
            (k_proj): Linear(1.64 M, 0.11% Params, 9.83 GMACs, 0.18% MACs, 204.8 us, 0.09% latency, 96.0 TFLOPS, in_features=1280, out_features=1280, bias=False)
            (v_proj): Linear(1.64 M, 0.11% Params, 9.83 GMACs, 0.18% MACs, 181.44 us, 0.08% latency, 108.36 TFLOPS, in_features=1280, out_features=1280, bias=True)
            (q_proj): Linear(1.64 M, 0.11% Params, 321.13 MMACs, 0.01% MACs, 53.88 us, 0.02% latency, 11.92 TFLOPS, in_features=1280, out_features=1280, bias=True)
            (out_proj): Linear(1.64 M, 0.11% Params, 321.13 MMACs, 0.01% MACs, 58.89 us, 0.02% latency, 10.91 TFLOPS, in_features=1280, out_features=1280, bias=True)
          )
          (encoder_attn_layer_norm): LayerNorm(2.56 k, 0.00% Params, 0 MACs, 0.00% MACs, 44.35 us, 0.02% latency, 28.29 GFLOPS, (1280,), eps=1e-05, elementwise_affine=True)
          (fc1): Linear(6.56 M, 0.42% Params, 1.28 GMACs, 0.02% MACs, 109.43 us, 0.05% latency, 23.48 TFLOPS, in_features=1280, out_features=5120, bias=True)
          (fc2): Linear(6.55 M, 0.42% Params, 1.28 GMACs, 0.02% MACs, 82.25 us, 0.03% latency, 31.23 TFLOPS, in_features=5120, out_features=1280, bias=True)
          (final_layer_norm): LayerNorm(2.56 k, 0.00% Params, 0 MACs, 0.00% MACs, 52.45 us, 0.02% latency, 23.92 GFLOPS, (1280,), eps=1e-05, elementwise_affine=True)
        )
        (22): WhisperDecoderLayer(
          26.24 M, 1.70% Params, 24.93 GMACs, 0.47% MACs, 1.78 ms, 0.75% latency, 27.95 TFLOPS, 
          (self_attn): WhisperAttention(
            6.56 M, 0.42% Params, 1.31 GMACs, 0.02% MACs, 465.63 us, 0.19% latency, 5.62 TFLOPS, 
            (k_proj): Linear(1.64 M, 0.11% Params, 321.13 MMACs, 0.01% MACs, 52.69 us, 0.02% latency, 12.19 TFLOPS, in_features=1280, out_features=1280, bias=False)
            (v_proj): Linear(1.64 M, 0.11% Params, 321.13 MMACs, 0.01% MACs, 55.31 us, 0.02% latency, 11.61 TFLOPS, in_features=1280, out_features=1280, bias=True)
            (q_proj): Linear(1.64 M, 0.11% Params, 321.13 MMACs, 0.01% MACs, 58.89 us, 0.02% latency, 10.91 TFLOPS, in_features=1280, out_features=1280, bias=True)
            (out_proj): Linear(1.64 M, 0.11% Params, 321.13 MMACs, 0.01% MACs, 57.22 us, 0.02% latency, 11.22 TFLOPS, in_features=1280, out_features=1280, bias=True)
          )
          (activation_fn): GELUActivation(0, 0.00% Params, 0 MACs, 0.00% MACs, 41.01 us, 0.02% latency, 0.0 FLOPS, )
          (self_attn_layer_norm): LayerNorm(2.56 k, 0.00% Params, 0 MACs, 0.00% MACs, 32.66 us, 0.01% latency, 38.4 GFLOPS, (1280,), eps=1e-05, elementwise_affine=True)
          (encoder_attn): WhisperAttention(
            6.56 M, 0.42% Params, 21.06 GMACs, 0.39% MACs, 775.58 us, 0.32% latency, 54.3 TFLOPS, 
            (k_proj): Linear(1.64 M, 0.11% Params, 9.83 GMACs, 0.18% MACs, 195.5 us, 0.08% latency, 100.57 TFLOPS, in_features=1280, out_features=1280, bias=False)
            (v_proj): Linear(1.64 M, 0.11% Params, 9.83 GMACs, 0.18% MACs, 197.89 us, 0.08% latency, 99.35 TFLOPS, in_features=1280, out_features=1280, bias=True)
            (q_proj): Linear(1.64 M, 0.11% Params, 321.13 MMACs, 0.01% MACs, 54.36 us, 0.02% latency, 11.81 TFLOPS, in_features=1280, out_features=1280, bias=True)
            (out_proj): Linear(1.64 M, 0.11% Params, 321.13 MMACs, 0.01% MACs, 57.7 us, 0.02% latency, 11.13 TFLOPS, in_features=1280, out_features=1280, bias=True)
          )
          (encoder_attn_layer_norm): LayerNorm(2.56 k, 0.00% Params, 0 MACs, 0.00% MACs, 44.35 us, 0.02% latency, 28.29 GFLOPS, (1280,), eps=1e-05, elementwise_affine=True)
          (fc1): Linear(6.56 M, 0.42% Params, 1.28 GMACs, 0.02% MACs, 114.44 us, 0.05% latency, 22.45 TFLOPS, in_features=1280, out_features=5120, bias=True)
          (fc2): Linear(6.55 M, 0.42% Params, 1.28 GMACs, 0.02% MACs, 84.16 us, 0.04% latency, 30.52 TFLOPS, in_features=5120, out_features=1280, bias=True)
          (final_layer_norm): LayerNorm(2.56 k, 0.00% Params, 0 MACs, 0.00% MACs, 47.92 us, 0.02% latency, 26.18 GFLOPS, (1280,), eps=1e-05, elementwise_affine=True)
        )
        (23): WhisperDecoderLayer(
          26.24 M, 1.70% Params, 24.93 GMACs, 0.47% MACs, 1.75 ms, 0.73% latency, 28.47 TFLOPS, 
          (self_attn): WhisperAttention(
            6.56 M, 0.42% Params, 1.31 GMACs, 0.02% MACs, 467.78 us, 0.20% latency, 5.6 TFLOPS, 
            (k_proj): Linear(1.64 M, 0.11% Params, 321.13 MMACs, 0.01% MACs, 52.21 us, 0.02% latency, 12.3 TFLOPS, in_features=1280, out_features=1280, bias=False)
            (v_proj): Linear(1.64 M, 0.11% Params, 321.13 MMACs, 0.01% MACs, 53.64 us, 0.02% latency, 11.97 TFLOPS, in_features=1280, out_features=1280, bias=True)
            (q_proj): Linear(1.64 M, 0.11% Params, 321.13 MMACs, 0.01% MACs, 59.84 us, 0.03% latency, 10.73 TFLOPS, in_features=1280, out_features=1280, bias=True)
            (out_proj): Linear(1.64 M, 0.11% Params, 321.13 MMACs, 0.01% MACs, 58.17 us, 0.02% latency, 11.04 TFLOPS, in_features=1280, out_features=1280, bias=True)
          )
          (activation_fn): GELUActivation(0, 0.00% Params, 0 MACs, 0.00% MACs, 40.77 us, 0.02% latency, 0.0 FLOPS, )
          (self_attn_layer_norm): LayerNorm(2.56 k, 0.00% Params, 0 MACs, 0.00% MACs, 43.15 us, 0.02% latency, 29.07 GFLOPS, (1280,), eps=1e-05, elementwise_affine=True)
          (encoder_attn): WhisperAttention(
            6.56 M, 0.42% Params, 21.06 GMACs, 0.39% MACs, 746.25 us, 0.31% latency, 56.44 TFLOPS, 
            (k_proj): Linear(1.64 M, 0.11% Params, 9.83 GMACs, 0.18% MACs, 198.13 us, 0.08% latency, 99.23 TFLOPS, in_features=1280, out_features=1280, bias=False)
            (v_proj): Linear(1.64 M, 0.11% Params, 9.83 GMACs, 0.18% MACs, 180.24 us, 0.08% latency, 109.08 TFLOPS, in_features=1280, out_features=1280, bias=True)
            (q_proj): Linear(1.64 M, 0.11% Params, 321.13 MMACs, 0.01% MACs, 56.74 us, 0.02% latency, 11.32 TFLOPS, in_features=1280, out_features=1280, bias=True)
            (out_proj): Linear(1.64 M, 0.11% Params, 321.13 MMACs, 0.01% MACs, 57.46 us, 0.02% latency, 11.18 TFLOPS, in_features=1280, out_features=1280, bias=True)
          )
          (encoder_attn_layer_norm): LayerNorm(2.56 k, 0.00% Params, 0 MACs, 0.00% MACs, 44.35 us, 0.02% latency, 28.29 GFLOPS, (1280,), eps=1e-05, elementwise_affine=True)
          (fc1): Linear(6.56 M, 0.42% Params, 1.28 GMACs, 0.02% MACs, 114.92 us, 0.05% latency, 22.36 TFLOPS, in_features=1280, out_features=5120, bias=True)
          (fc2): Linear(6.55 M, 0.42% Params, 1.28 GMACs, 0.02% MACs, 82.25 us, 0.03% latency, 31.23 TFLOPS, in_features=5120, out_features=1280, bias=True)
          (final_layer_norm): LayerNorm(2.56 k, 0.00% Params, 0 MACs, 0.00% MACs, 48.16 us, 0.02% latency, 26.05 GFLOPS, (1280,), eps=1e-05, elementwise_affine=True)
        )
        (24): WhisperDecoderLayer(
          26.24 M, 1.70% Params, 24.93 GMACs, 0.47% MACs, 1.79 ms, 0.75% latency, 27.81 TFLOPS, 
          (self_attn): WhisperAttention(
            6.56 M, 0.42% Params, 1.31 GMACs, 0.02% MACs, 490.19 us, 0.21% latency, 5.34 TFLOPS, 
            (k_proj): Linear(1.64 M, 0.11% Params, 321.13 MMACs, 0.01% MACs, 57.94 us, 0.02% latency, 11.09 TFLOPS, in_features=1280, out_features=1280, bias=False)
            (v_proj): Linear(1.64 M, 0.11% Params, 321.13 MMACs, 0.01% MACs, 56.27 us, 0.02% latency, 11.41 TFLOPS, in_features=1280, out_features=1280, bias=True)
            (q_proj): Linear(1.64 M, 0.11% Params, 321.13 MMACs, 0.01% MACs, 58.65 us, 0.02% latency, 10.95 TFLOPS, in_features=1280, out_features=1280, bias=True)
            (out_proj): Linear(1.64 M, 0.11% Params, 321.13 MMACs, 0.01% MACs, 60.56 us, 0.03% latency, 10.61 TFLOPS, in_features=1280, out_features=1280, bias=True)
          )
          (activation_fn): GELUActivation(0, 0.00% Params, 0 MACs, 0.00% MACs, 41.01 us, 0.02% latency, 0.0 FLOPS, )
          (self_attn_layer_norm): LayerNorm(2.56 k, 0.00% Params, 0 MACs, 0.00% MACs, 41.48 us, 0.02% latency, 30.24 GFLOPS, (1280,), eps=1e-05, elementwise_affine=True)
          (encoder_attn): WhisperAttention(
            6.56 M, 0.42% Params, 21.06 GMACs, 0.39% MACs, 762.22 us, 0.32% latency, 55.26 TFLOPS, 
            (k_proj): Linear(1.64 M, 0.11% Params, 9.83 GMACs, 0.18% MACs, 198.13 us, 0.08% latency, 99.23 TFLOPS, in_features=1280, out_features=1280, bias=False)
            (v_proj): Linear(1.64 M, 0.11% Params, 9.83 GMACs, 0.18% MACs, 180.24 us, 0.08% latency, 109.08 TFLOPS, in_features=1280, out_features=1280, bias=True)
            (q_proj): Linear(1.64 M, 0.11% Params, 321.13 MMACs, 0.01% MACs, 54.84 us, 0.02% latency, 11.71 TFLOPS, in_features=1280, out_features=1280, bias=True)
            (out_proj): Linear(1.64 M, 0.11% Params, 321.13 MMACs, 0.01% MACs, 57.94 us, 0.02% latency, 11.09 TFLOPS, in_features=1280, out_features=1280, bias=True)
          )
          (encoder_attn_layer_norm): LayerNorm(2.56 k, 0.00% Params, 0 MACs, 0.00% MACs, 51.02 us, 0.02% latency, 24.59 GFLOPS, (1280,), eps=1e-05, elementwise_affine=True)
          (fc1): Linear(6.56 M, 0.42% Params, 1.28 GMACs, 0.02% MACs, 113.73 us, 0.05% latency, 22.59 TFLOPS, in_features=1280, out_features=5120, bias=True)
          (fc2): Linear(6.55 M, 0.42% Params, 1.28 GMACs, 0.02% MACs, 81.3 us, 0.03% latency, 31.6 TFLOPS, in_features=5120, out_features=1280, bias=True)
          (final_layer_norm): LayerNorm(2.56 k, 0.00% Params, 0 MACs, 0.00% MACs, 49.11 us, 0.02% latency, 25.54 GFLOPS, (1280,), eps=1e-05, elementwise_affine=True)
        )
        (25): WhisperDecoderLayer(
          26.24 M, 1.70% Params, 24.93 GMACs, 0.47% MACs, 1.76 ms, 0.74% latency, 28.42 TFLOPS, 
          (self_attn): WhisperAttention(
            6.56 M, 0.42% Params, 1.31 GMACs, 0.02% MACs, 468.02 us, 0.20% latency, 5.59 TFLOPS, 
            (k_proj): Linear(1.64 M, 0.11% Params, 321.13 MMACs, 0.01% MACs, 51.26 us, 0.02% latency, 12.53 TFLOPS, in_features=1280, out_features=1280, bias=False)
            (v_proj): Linear(1.64 M, 0.11% Params, 321.13 MMACs, 0.01% MACs, 53.64 us, 0.02% latency, 11.97 TFLOPS, in_features=1280, out_features=1280, bias=True)
            (q_proj): Linear(1.64 M, 0.11% Params, 321.13 MMACs, 0.01% MACs, 58.65 us, 0.02% latency, 10.95 TFLOPS, in_features=1280, out_features=1280, bias=True)
            (out_proj): Linear(1.64 M, 0.11% Params, 321.13 MMACs, 0.01% MACs, 58.17 us, 0.02% latency, 11.04 TFLOPS, in_features=1280, out_features=1280, bias=True)
          )
          (activation_fn): GELUActivation(0, 0.00% Params, 0 MACs, 0.00% MACs, 42.68 us, 0.02% latency, 0.0 FLOPS, )
          (self_attn_layer_norm): LayerNorm(2.56 k, 0.00% Params, 0 MACs, 0.00% MACs, 41.72 us, 0.02% latency, 30.06 GFLOPS, (1280,), eps=1e-05, elementwise_affine=True)
          (encoder_attn): WhisperAttention(
            6.56 M, 0.42% Params, 21.06 GMACs, 0.39% MACs, 738.86 us, 0.31% latency, 57.0 TFLOPS, 
            (k_proj): Linear(1.64 M, 0.11% Params, 9.83 GMACs, 0.18% MACs, 198.13 us, 0.08% latency, 99.23 TFLOPS, in_features=1280, out_features=1280, bias=False)
            (v_proj): Linear(1.64 M, 0.11% Params, 9.83 GMACs, 0.18% MACs, 180.24 us, 0.08% latency, 109.08 TFLOPS, in_features=1280, out_features=1280, bias=True)
            (q_proj): Linear(1.64 M, 0.11% Params, 321.13 MMACs, 0.01% MACs, 54.6 us, 0.02% latency, 11.76 TFLOPS, in_features=1280, out_features=1280, bias=True)
            (out_proj): Linear(1.64 M, 0.11% Params, 321.13 MMACs, 0.01% MACs, 60.8 us, 0.03% latency, 10.56 TFLOPS, in_features=1280, out_features=1280, bias=True)
          )
          (encoder_attn_layer_norm): LayerNorm(2.56 k, 0.00% Params, 0 MACs, 0.00% MACs, 45.78 us, 0.02% latency, 27.4 GFLOPS, (1280,), eps=1e-05, elementwise_affine=True)
          (fc1): Linear(6.56 M, 0.42% Params, 1.28 GMACs, 0.02% MACs, 115.63 us, 0.05% latency, 22.22 TFLOPS, in_features=1280, out_features=5120, bias=True)
          (fc2): Linear(6.55 M, 0.42% Params, 1.28 GMACs, 0.02% MACs, 83.92 us, 0.04% latency, 30.61 TFLOPS, in_features=5120, out_features=1280, bias=True)
          (final_layer_norm): LayerNorm(2.56 k, 0.00% Params, 0 MACs, 0.00% MACs, 49.11 us, 0.02% latency, 25.54 GFLOPS, (1280,), eps=1e-05, elementwise_affine=True)
        )
        (26): WhisperDecoderLayer(
          26.24 M, 1.70% Params, 24.93 GMACs, 0.47% MACs, 1.79 ms, 0.75% latency, 27.9 TFLOPS, 
          (self_attn): WhisperAttention(
            6.56 M, 0.42% Params, 1.31 GMACs, 0.02% MACs, 494.96 us, 0.21% latency, 5.29 TFLOPS, 
            (k_proj): Linear(1.64 M, 0.11% Params, 321.13 MMACs, 0.01% MACs, 53.64 us, 0.02% latency, 11.97 TFLOPS, in_features=1280, out_features=1280, bias=False)
            (v_proj): Linear(1.64 M, 0.11% Params, 321.13 MMACs, 0.01% MACs, 56.51 us, 0.02% latency, 11.37 TFLOPS, in_features=1280, out_features=1280, bias=True)
            (q_proj): Linear(1.64 M, 0.11% Params, 321.13 MMACs, 0.01% MACs, 68.66 us, 0.03% latency, 9.35 TFLOPS, in_features=1280, out_features=1280, bias=True)
            (out_proj): Linear(1.64 M, 0.11% Params, 321.13 MMACs, 0.01% MACs, 68.19 us, 0.03% latency, 9.42 TFLOPS, in_features=1280, out_features=1280, bias=True)
          )
          (activation_fn): GELUActivation(0, 0.00% Params, 0 MACs, 0.00% MACs, 41.48 us, 0.02% latency, 0.0 FLOPS, )
          (self_attn_layer_norm): LayerNorm(2.56 k, 0.00% Params, 0 MACs, 0.00% MACs, 43.15 us, 0.02% latency, 29.07 GFLOPS, (1280,), eps=1e-05, elementwise_affine=True)
          (encoder_attn): WhisperAttention(
            6.56 M, 0.42% Params, 21.06 GMACs, 0.39% MACs, 743.63 us, 0.31% latency, 56.64 TFLOPS, 
            (k_proj): Linear(1.64 M, 0.11% Params, 9.83 GMACs, 0.18% MACs, 195.74 us, 0.08% latency, 100.44 TFLOPS, in_features=1280, out_features=1280, bias=False)
            (v_proj): Linear(1.64 M, 0.11% Params, 9.83 GMACs, 0.18% MACs, 181.44 us, 0.08% latency, 108.36 TFLOPS, in_features=1280, out_features=1280, bias=True)
            (q_proj): Linear(1.64 M, 0.11% Params, 321.13 MMACs, 0.01% MACs, 58.17 us, 0.02% latency, 11.04 TFLOPS, in_features=1280, out_features=1280, bias=True)
            (out_proj): Linear(1.64 M, 0.11% Params, 321.13 MMACs, 0.01% MACs, 58.41 us, 0.02% latency, 11.0 TFLOPS, in_features=1280, out_features=1280, bias=True)
          )
          (encoder_attn_layer_norm): LayerNorm(2.56 k, 0.00% Params, 0 MACs, 0.00% MACs, 46.01 us, 0.02% latency, 27.26 GFLOPS, (1280,), eps=1e-05, elementwise_affine=True)
          (fc1): Linear(6.56 M, 0.42% Params, 1.28 GMACs, 0.02% MACs, 114.92 us, 0.05% latency, 22.36 TFLOPS, in_features=1280, out_features=5120, bias=True)
          (fc2): Linear(6.55 M, 0.42% Params, 1.28 GMACs, 0.02% MACs, 85.35 us, 0.04% latency, 30.1 TFLOPS, in_features=5120, out_features=1280, bias=True)
          (final_layer_norm): LayerNorm(2.56 k, 0.00% Params, 0 MACs, 0.00% MACs, 46.49 us, 0.02% latency, 26.98 GFLOPS, (1280,), eps=1e-05, elementwise_affine=True)
        )
        (27): WhisperDecoderLayer(
          26.24 M, 1.70% Params, 24.93 GMACs, 0.47% MACs, 1.76 ms, 0.74% latency, 28.35 TFLOPS, 
          (self_attn): WhisperAttention(
            6.56 M, 0.42% Params, 1.31 GMACs, 0.02% MACs, 463.25 us, 0.19% latency, 5.65 TFLOPS, 
            (k_proj): Linear(1.64 M, 0.11% Params, 321.13 MMACs, 0.01% MACs, 51.5 us, 0.02% latency, 12.47 TFLOPS, in_features=1280, out_features=1280, bias=False)
            (v_proj): Linear(1.64 M, 0.11% Params, 321.13 MMACs, 0.01% MACs, 55.55 us, 0.02% latency, 11.56 TFLOPS, in_features=1280, out_features=1280, bias=True)
            (q_proj): Linear(1.64 M, 0.11% Params, 321.13 MMACs, 0.01% MACs, 58.89 us, 0.02% latency, 10.91 TFLOPS, in_features=1280, out_features=1280, bias=True)
            (out_proj): Linear(1.64 M, 0.11% Params, 321.13 MMACs, 0.01% MACs, 56.51 us, 0.02% latency, 11.37 TFLOPS, in_features=1280, out_features=1280, bias=True)
          )
          (activation_fn): GELUActivation(0, 0.00% Params, 0 MACs, 0.00% MACs, 41.72 us, 0.02% latency, 0.0 FLOPS, )
          (self_attn_layer_norm): LayerNorm(2.56 k, 0.00% Params, 0 MACs, 0.00% MACs, 41.48 us, 0.02% latency, 30.24 GFLOPS, (1280,), eps=1e-05, elementwise_affine=True)
          (encoder_attn): WhisperAttention(
            6.56 M, 0.42% Params, 21.06 GMACs, 0.39% MACs, 756.26 us, 0.32% latency, 55.69 TFLOPS, 
            (k_proj): Linear(1.64 M, 0.11% Params, 9.83 GMACs, 0.18% MACs, 196.93 us, 0.08% latency, 99.83 TFLOPS, in_features=1280, out_features=1280, bias=False)
            (v_proj): Linear(1.64 M, 0.11% Params, 9.83 GMACs, 0.18% MACs, 179.53 us, 0.08% latency, 109.51 TFLOPS, in_features=1280, out_features=1280, bias=True)
            (q_proj): Linear(1.64 M, 0.11% Params, 321.13 MMACs, 0.01% MACs, 56.74 us, 0.02% latency, 11.32 TFLOPS, in_features=1280, out_features=1280, bias=True)
            (out_proj): Linear(1.64 M, 0.11% Params, 321.13 MMACs, 0.01% MACs, 57.7 us, 0.02% latency, 11.13 TFLOPS, in_features=1280, out_features=1280, bias=True)
          )
          (encoder_attn_layer_norm): LayerNorm(2.56 k, 0.00% Params, 0 MACs, 0.00% MACs, 44.11 us, 0.02% latency, 28.44 GFLOPS, (1280,), eps=1e-05, elementwise_affine=True)
          (fc1): Linear(6.56 M, 0.42% Params, 1.28 GMACs, 0.02% MACs, 117.3 us, 0.05% latency, 21.9 TFLOPS, in_features=1280, out_features=5120, bias=True)
          (fc2): Linear(6.55 M, 0.42% Params, 1.28 GMACs, 0.02% MACs, 81.78 us, 0.03% latency, 31.41 TFLOPS, in_features=5120, out_features=1280, bias=True)
          (final_layer_norm): LayerNorm(2.56 k, 0.00% Params, 0 MACs, 0.00% MACs, 49.11 us, 0.02% latency, 25.54 GFLOPS, (1280,), eps=1e-05, elementwise_affine=True)
        )
        (28): WhisperDecoderLayer(
          26.24 M, 1.70% Params, 24.93 GMACs, 0.47% MACs, 1.89 ms, 0.79% latency, 26.4 TFLOPS, 
          (self_attn): WhisperAttention(
            6.56 M, 0.42% Params, 1.31 GMACs, 0.02% MACs, 464.92 us, 0.19% latency, 5.63 TFLOPS, 
            (k_proj): Linear(1.64 M, 0.11% Params, 321.13 MMACs, 0.01% MACs, 52.45 us, 0.02% latency, 12.24 TFLOPS, in_features=1280, out_features=1280, bias=False)
            (v_proj): Linear(1.64 M, 0.11% Params, 321.13 MMACs, 0.01% MACs, 53.64 us, 0.02% latency, 11.97 TFLOPS, in_features=1280, out_features=1280, bias=True)
            (q_proj): Linear(1.64 M, 0.11% Params, 321.13 MMACs, 0.01% MACs, 59.37 us, 0.02% latency, 10.82 TFLOPS, in_features=1280, out_features=1280, bias=True)
            (out_proj): Linear(1.64 M, 0.11% Params, 321.13 MMACs, 0.01% MACs, 55.55 us, 0.02% latency, 11.56 TFLOPS, in_features=1280, out_features=1280, bias=True)
          )
          (activation_fn): GELUActivation(0, 0.00% Params, 0 MACs, 0.00% MACs, 43.87 us, 0.02% latency, 0.0 FLOPS, )
          (self_attn_layer_norm): LayerNorm(2.56 k, 0.00% Params, 0 MACs, 0.00% MACs, 41.25 us, 0.02% latency, 30.41 GFLOPS, (1280,), eps=1e-05, elementwise_affine=True)
          (encoder_attn): WhisperAttention(
            6.56 M, 0.42% Params, 21.06 GMACs, 0.39% MACs, 872.61 us, 0.37% latency, 48.27 TFLOPS, 
            (k_proj): Linear(1.64 M, 0.11% Params, 9.83 GMACs, 0.18% MACs, 205.52 us, 0.09% latency, 95.67 TFLOPS, in_features=1280, out_features=1280, bias=False)
            (v_proj): Linear(1.64 M, 0.11% Params, 9.83 GMACs, 0.18% MACs, 189.07 us, 0.08% latency, 103.99 TFLOPS, in_features=1280, out_features=1280, bias=True)
            (q_proj): Linear(1.64 M, 0.11% Params, 321.13 MMACs, 0.01% MACs, 57.22 us, 0.02% latency, 11.22 TFLOPS, in_features=1280, out_features=1280, bias=True)
            (out_proj): Linear(1.64 M, 0.11% Params, 321.13 MMACs, 0.01% MACs, 62.23 us, 0.03% latency, 10.32 TFLOPS, in_features=1280, out_features=1280, bias=True)
          )
          (encoder_attn_layer_norm): LayerNorm(2.56 k, 0.00% Params, 0 MACs, 0.00% MACs, 38.39 us, 0.02% latency, 32.68 GFLOPS, (1280,), eps=1e-05, elementwise_affine=True)
          (fc1): Linear(6.56 M, 0.42% Params, 1.28 GMACs, 0.02% MACs, 120.4 us, 0.05% latency, 21.34 TFLOPS, in_features=1280, out_features=5120, bias=True)
          (fc2): Linear(6.55 M, 0.42% Params, 1.28 GMACs, 0.02% MACs, 83.21 us, 0.03% latency, 30.87 TFLOPS, in_features=5120, out_features=1280, bias=True)
          (final_layer_norm): LayerNorm(2.56 k, 0.00% Params, 0 MACs, 0.00% MACs, 52.93 us, 0.02% latency, 23.7 GFLOPS, (1280,), eps=1e-05, elementwise_affine=True)
        )
        (29): WhisperDecoderLayer(
          26.24 M, 1.70% Params, 24.93 GMACs, 0.47% MACs, 1.83 ms, 0.77% latency, 27.25 TFLOPS, 
          (self_attn): WhisperAttention(
            6.56 M, 0.42% Params, 1.31 GMACs, 0.02% MACs, 527.14 us, 0.22% latency, 4.97 TFLOPS, 
            (k_proj): Linear(1.64 M, 0.11% Params, 321.13 MMACs, 0.01% MACs, 56.74 us, 0.02% latency, 11.32 TFLOPS, in_features=1280, out_features=1280, bias=False)
            (v_proj): Linear(1.64 M, 0.11% Params, 321.13 MMACs, 0.01% MACs, 98.71 us, 0.04% latency, 6.51 TFLOPS, in_features=1280, out_features=1280, bias=True)
            (q_proj): Linear(1.64 M, 0.11% Params, 321.13 MMACs, 0.01% MACs, 53.88 us, 0.02% latency, 11.92 TFLOPS, in_features=1280, out_features=1280, bias=True)
            (out_proj): Linear(1.64 M, 0.11% Params, 321.13 MMACs, 0.01% MACs, 57.94 us, 0.02% latency, 11.09 TFLOPS, in_features=1280, out_features=1280, bias=True)
          )
          (activation_fn): GELUActivation(0, 0.00% Params, 0 MACs, 0.00% MACs, 42.44 us, 0.02% latency, 0.0 FLOPS, )
          (self_attn_layer_norm): LayerNorm(2.56 k, 0.00% Params, 0 MACs, 0.00% MACs, 42.68 us, 0.02% latency, 29.39 GFLOPS, (1280,), eps=1e-05, elementwise_affine=True)
          (encoder_attn): WhisperAttention(
            6.56 M, 0.42% Params, 21.06 GMACs, 0.39% MACs, 756.98 us, 0.32% latency, 55.64 TFLOPS, 
            (k_proj): Linear(1.64 M, 0.11% Params, 9.83 GMACs, 0.18% MACs, 195.26 us, 0.08% latency, 100.69 TFLOPS, in_features=1280, out_features=1280, bias=False)
            (v_proj): Linear(1.64 M, 0.11% Params, 9.83 GMACs, 0.18% MACs, 180.24 us, 0.08% latency, 109.08 TFLOPS, in_features=1280, out_features=1280, bias=True)
            (q_proj): Linear(1.64 M, 0.11% Params, 321.13 MMACs, 0.01% MACs, 57.22 us, 0.02% latency, 11.22 TFLOPS, in_features=1280, out_features=1280, bias=True)
            (out_proj): Linear(1.64 M, 0.11% Params, 321.13 MMACs, 0.01% MACs, 72.24 us, 0.03% latency, 8.89 TFLOPS, in_features=1280, out_features=1280, bias=True)
          )
          (encoder_attn_layer_norm): LayerNorm(2.56 k, 0.00% Params, 0 MACs, 0.00% MACs, 43.63 us, 0.02% latency, 28.75 GFLOPS, (1280,), eps=1e-05, elementwise_affine=True)
          (fc1): Linear(6.56 M, 0.42% Params, 1.28 GMACs, 0.02% MACs, 116.11 us, 0.05% latency, 22.13 TFLOPS, in_features=1280, out_features=5120, bias=True)
          (fc2): Linear(6.55 M, 0.42% Params, 1.28 GMACs, 0.02% MACs, 83.45 us, 0.03% latency, 30.79 TFLOPS, in_features=5120, out_features=1280, bias=True)
          (final_layer_norm): LayerNorm(2.56 k, 0.00% Params, 0 MACs, 0.00% MACs, 47.92 us, 0.02% latency, 26.18 GFLOPS, (1280,), eps=1e-05, elementwise_affine=True)
        )
        (30): WhisperDecoderLayer(
          26.24 M, 1.70% Params, 24.93 GMACs, 0.47% MACs, 1.77 ms, 0.74% latency, 28.23 TFLOPS, 
          (self_attn): WhisperAttention(
            6.56 M, 0.42% Params, 1.31 GMACs, 0.02% MACs, 487.09 us, 0.20% latency, 5.38 TFLOPS, 
            (k_proj): Linear(1.64 M, 0.11% Params, 321.13 MMACs, 0.01% MACs, 52.45 us, 0.02% latency, 12.24 TFLOPS, in_features=1280, out_features=1280, bias=False)
            (v_proj): Linear(1.64 M, 0.11% Params, 321.13 MMACs, 0.01% MACs, 55.31 us, 0.02% latency, 11.61 TFLOPS, in_features=1280, out_features=1280, bias=True)
            (q_proj): Linear(1.64 M, 0.11% Params, 321.13 MMACs, 0.01% MACs, 63.42 us, 0.03% latency, 10.13 TFLOPS, in_features=1280, out_features=1280, bias=True)
            (out_proj): Linear(1.64 M, 0.11% Params, 321.13 MMACs, 0.01% MACs, 65.57 us, 0.03% latency, 9.8 TFLOPS, in_features=1280, out_features=1280, bias=True)
          )
          (activation_fn): GELUActivation(0, 0.00% Params, 0 MACs, 0.00% MACs, 41.25 us, 0.02% latency, 0.0 FLOPS, )
          (self_attn_layer_norm): LayerNorm(2.56 k, 0.00% Params, 0 MACs, 0.00% MACs, 44.35 us, 0.02% latency, 28.29 GFLOPS, (1280,), eps=1e-05, elementwise_affine=True)
          (encoder_attn): WhisperAttention(
            6.56 M, 0.42% Params, 21.06 GMACs, 0.39% MACs, 737.19 us, 0.31% latency, 57.13 TFLOPS, 
            (k_proj): Linear(1.64 M, 0.11% Params, 9.83 GMACs, 0.18% MACs, 196.7 us, 0.08% latency, 99.96 TFLOPS, in_features=1280, out_features=1280, bias=False)
            (v_proj): Linear(1.64 M, 0.11% Params, 9.83 GMACs, 0.18% MACs, 181.44 us, 0.08% latency, 108.36 TFLOPS, in_features=1280, out_features=1280, bias=True)
            (q_proj): Linear(1.64 M, 0.11% Params, 321.13 MMACs, 0.01% MACs, 54.84 us, 0.02% latency, 11.71 TFLOPS, in_features=1280, out_features=1280, bias=True)
            (out_proj): Linear(1.64 M, 0.11% Params, 321.13 MMACs, 0.01% MACs, 58.65 us, 0.02% latency, 10.95 TFLOPS, in_features=1280, out_features=1280, bias=True)
          )
          (encoder_attn_layer_norm): LayerNorm(2.56 k, 0.00% Params, 0 MACs, 0.00% MACs, 43.63 us, 0.02% latency, 28.75 GFLOPS, (1280,), eps=1e-05, elementwise_affine=True)
          (fc1): Linear(6.56 M, 0.42% Params, 1.28 GMACs, 0.02% MACs, 114.68 us, 0.05% latency, 22.4 TFLOPS, in_features=1280, out_features=5120, bias=True)
          (fc2): Linear(6.55 M, 0.42% Params, 1.28 GMACs, 0.02% MACs, 82.49 us, 0.03% latency, 31.14 TFLOPS, in_features=5120, out_features=1280, bias=True)
          (final_layer_norm): LayerNorm(2.56 k, 0.00% Params, 0 MACs, 0.00% MACs, 47.21 us, 0.02% latency, 26.57 GFLOPS, (1280,), eps=1e-05, elementwise_affine=True)
        )
        (31): WhisperDecoderLayer(
          26.24 M, 1.70% Params, 24.93 GMACs, 0.47% MACs, 1.75 ms, 0.73% latency, 28.43 TFLOPS, 
          (self_attn): WhisperAttention(
            6.56 M, 0.42% Params, 1.31 GMACs, 0.02% MACs, 471.59 us, 0.20% latency, 5.55 TFLOPS, 
            (k_proj): Linear(1.64 M, 0.11% Params, 321.13 MMACs, 0.01% MACs, 52.69 us, 0.02% latency, 12.19 TFLOPS, in_features=1280, out_features=1280, bias=False)
            (v_proj): Linear(1.64 M, 0.11% Params, 321.13 MMACs, 0.01% MACs, 54.6 us, 0.02% latency, 11.76 TFLOPS, in_features=1280, out_features=1280, bias=True)
            (q_proj): Linear(1.64 M, 0.11% Params, 321.13 MMACs, 0.01% MACs, 59.37 us, 0.02% latency, 10.82 TFLOPS, in_features=1280, out_features=1280, bias=True)
            (out_proj): Linear(1.64 M, 0.11% Params, 321.13 MMACs, 0.01% MACs, 57.94 us, 0.02% latency, 11.09 TFLOPS, in_features=1280, out_features=1280, bias=True)
          )
          (activation_fn): GELUActivation(0, 0.00% Params, 0 MACs, 0.00% MACs, 41.96 us, 0.02% latency, 0.0 FLOPS, )
          (self_attn_layer_norm): LayerNorm(2.56 k, 0.00% Params, 0 MACs, 0.00% MACs, 41.96 us, 0.02% latency, 29.89 GFLOPS, (1280,), eps=1e-05, elementwise_affine=True)
          (encoder_attn): WhisperAttention(
            6.56 M, 0.42% Params, 21.06 GMACs, 0.39% MACs, 743.63 us, 0.31% latency, 56.64 TFLOPS, 
            (k_proj): Linear(1.64 M, 0.11% Params, 9.83 GMACs, 0.18% MACs, 198.36 us, 0.08% latency, 99.11 TFLOPS, in_features=1280, out_features=1280, bias=False)
            (v_proj): Linear(1.64 M, 0.11% Params, 9.83 GMACs, 0.18% MACs, 180.24 us, 0.08% latency, 109.08 TFLOPS, in_features=1280, out_features=1280, bias=True)
            (q_proj): Linear(1.64 M, 0.11% Params, 321.13 MMACs, 0.01% MACs, 57.7 us, 0.02% latency, 11.13 TFLOPS, in_features=1280, out_features=1280, bias=True)
            (out_proj): Linear(1.64 M, 0.11% Params, 321.13 MMACs, 0.01% MACs, 56.98 us, 0.02% latency, 11.27 TFLOPS, in_features=1280, out_features=1280, bias=True)
          )
          (encoder_attn_layer_norm): LayerNorm(2.56 k, 0.00% Params, 0 MACs, 0.00% MACs, 41.96 us, 0.02% latency, 29.89 GFLOPS, (1280,), eps=1e-05, elementwise_affine=True)
          (fc1): Linear(6.56 M, 0.42% Params, 1.28 GMACs, 0.02% MACs, 116.35 us, 0.05% latency, 22.08 TFLOPS, in_features=1280, out_features=5120, bias=True)
          (fc2): Linear(6.55 M, 0.42% Params, 1.28 GMACs, 0.02% MACs, 80.82 us, 0.03% latency, 31.79 TFLOPS, in_features=5120, out_features=1280, bias=True)
          (final_layer_norm): LayerNorm(2.56 k, 0.00% Params, 0 MACs, 0.00% MACs, 46.01 us, 0.02% latency, 27.26 GFLOPS, (1280,), eps=1e-05, elementwise_affine=True)
        )
      )
      (layer_norm): LayerNorm(2.56 k, 0.00% Params, 0 MACs, 0.00% MACs, 44.58 us, 0.02% latency, 28.14 GFLOPS, (1280,), eps=1e-05, elementwise_affine=True)
    )
  )
  (proj_out): Linear(66.39 M, 4.30% Params, 13.01 GMACs, 0.24% MACs, 396.97 us, 0.17% latency, 65.56 TFLOPS, in_features=1280, out_features=51865, bias=False)
)
------------------------------------------------------------------------------
